…
name: "Res50-base"
state {
  phase: TRAIN
  level: 0
  stage: ""
}
layer {
  name: "data"
  type: "ImageData"
  top: "data"
  top: "label"
  include {
    phase: TRAIN
  }
  transform_param {
    mirror: true
    crop_size: 224
    mean_value: 102.691
    mean_value: 128.77
    mean_value: 131.293
  }
  image_data_param {
    source: "data/apple_disease/train.txt"
    batch_size: 16
    shuffle: true
    new_height: 256
    new_width: 256
    root_folder: "/media/agwang/\346\226\260\345\212\240\345\215\267/DataSets/Competitions/AppleDiseases/"
  }
}
layer {
  name: "conv1"
  type: "Convolution"
  bottom: "data"
  top: "conv1"
  param {
    lr_mult: 0
  }
  param {
    lr_mult: 0
  }
  convolution_param {
    num_output: 64
    pad: 3
    kernel_size: 7
    stride: 2
  }
}
layer {
  name: "bn_conv1"
  type: "BatchNorm"
  bottom: "conv1"
  top: "conv1"
  batch_norm_param {
    use_global_stats: true
  }
}
layer {
  name: "scale_conv1"
  type: "Scale"
  bottom: "conv1"
  top: "conv1"
  param {
    lr_mult: 0
    decay_mult: 0
  }
  param {
    lr_mult: 0
    decay_mult: 0
  }
  scale_param {
    bias_term: true
  }
}
layer {
  name: "conv1_relu"
  type: "ReLU"
  bottom: "conv1"
  top: "conv1"
}
layer {
  name: "pool1"
  type: "Pooling"
  bottom: "conv1"
  top: "pool1"
  pooling_param {
    pool: MAX
    kernel_size: 3
    stride: 2
  }
}
layer {
  name: "res2a_branch1"
  type: "Convolution"
  bottom: "pool1"
  top: "res2a_branch1"
  param {
    lr_mult: 0
  }
  convolution_param {
    num_output: 256
    bias_term: false
    pad: 0
    kernel_size: 1
    stride: 1
  }
}
layer {
  name: "bn2a_branch1"
  type: "BatchNorm"
  bottom: "res2a_branch1"
  top: "res2a_branch1"
  batch_norm_param {
    use_global_stats: true
  }
}
layer {
  name: "scale2a_branch1"
  type: "Scale"
  bottom: "res2a_branch1"
  top: "res2a_branch1"
  param {
    lr_mult: 0
    decay_mult: 0
  }
  param {
    lr_mult: 0
    decay_mult: 0
  }
  scale_param {
    bias_term: true
  }
}
layer {
  name: "res2a_branch2a"
  type: "Convolution"
  bottom: "pool1"
  top: "res2a_branch2a"
  param {
    lr_mult: 0
  }
  convolution_param {
    num_output: 64
    bias_term: false
    pad: 0
    kernel_size: 1
    stride: 1
  }
}
layer {
  name: "bn2a_branch2a"
  type: "BatchNorm"
  bottom: "res2a_branch2a"
  top: "res2a_branch2a"
  batch_norm_param {
    use_global_stats: true
  }
}
layer {
  name: "scale2a_branch2a"
  type: "Scale"
  bottom: "res2a_branch2a"
  top: "res2a_branch2a"
  param {
    lr_mult: 0
    decay_mult: 0
  }
  param {
    lr_mult: 0
    decay_mult: 0
  }
  scale_param {
    bias_term: true
  }
}
layer {
  name: "res2a_branch2a_relu"
  type: "ReLU"
  bottom: "res2a_branch2a"
  top: "res2a_branch2a"
}
layer {
  name: "res2a_branch2b"
  type: "Convolution"
  bottom: "res2a_branch2a"
  top: "res2a_branch2b"
  param {
    lr_mult: 0
  }
  convolution_param {
    num_output: 64
    bias_term: false
    pad: 1
    kernel_size: 3
    stride: 1
  }
}
layer {
  name: "bn2a_branch2b"
  type: "BatchNorm"
  bottom: "res2a_branch2b"
  top: "res2a_branch2b"
  batch_norm_param {
    use_global_stats: true
  }
}
layer {
  name: "scale2a_branch2b"
  type: "Scale"
  bottom: "res2a_branch2b"
  top: "res2a_branch2b"
  param {
    lr_mult: 0
    decay_mult: 0
  }
  param {
    lr_mult: 0
    decay_mult: 0
  }
  scale_param {
    bias_term: true
  }
}
layer {
  name: "res2a_branch2b_relu"
  type: "ReLU"
  bottom: "res2a_branch2b"
  top: "res2a_branch2b"
}
layer {
  name: "res2a_branch2c"
  type: "Convolution"
  bottom: "res2a_branch2b"
  top: "res2a_branch2c"
  param {
    lr_mult: 0
  }
  convolution_param {
    num_output: 256
    bias_term: false
    pad: 0
    kernel_size: 1
    stride: 1
  }
}
layer {
  name: "bn2a_branch2c"
  type: "BatchNorm"
  bottom: "res2a_branch2c"
  top: "res2a_branch2c"
  batch_norm_param {
    use_global_stats: true
  }
}
layer {
  name: "scale2a_branch2c"
  type: "Scale"
  bottom: "res2a_branch2c"
  top: "res2a_branch2c"
  param {
    lr_mult: 0
    decay_mult: 0
  }
  param {
    lr_mult: 0
    decay_mult: 0
  }
  scale_param {
    bias_term: true
  }
}
layer {
  name: "res2a"
  type: "Eltwise"
  bottom: "res2a_branch1"
  bottom: "res2a_branch2c"
  top: "res2a"
}
layer {
  name: "res2a_relu"
  type: "ReLU"
  bottom: "res2a"
  top: "res2a"
}
layer {
  name: "res2b_branch2a"
  type: "Convolution"
  bottom: "res2a"
  top: "res2b_branch2a"
  param {
    lr_mult: 0
  }
  convolution_param {
    num_output: 64
    bias_term: false
    pad: 0
    kernel_size: 1
    stride: 1
  }
}
layer {
  name: "bn2b_branch2a"
  type: "BatchNorm"
  bottom: "res2b_branch2a"
  top: "res2b_branch2a"
  batch_norm_param {
    use_global_stats: true
  }
}
layer {
  name: "scale2b_branch2a"
  type: "Scale"
  bottom: "res2b_branch2a"
  top: "res2b_branch2a"
  param {
    lr_mult: 0
    decay_mult: 0
  }
  param {
    lr_mult: 0
    decay_mult: 0
  }
  scale_param {
    bias_term: true
  }
}
layer {
  name: "res2b_branch2a_relu"
  type: "ReLU"
  bottom: "res2b_branch2a"
  top: "res2b_branch2a"
}
layer {
  name: "res2b_branch2b"
  type: "Convolution"
  bottom: "res2b_branch2a"
  top: "res2b_branch2b"
  param {
    lr_mult: 0
  }
  convolution_param {
    num_output: 64
    bias_term: false
    pad: 1
    kernel_size: 3
    stride: 1
  }
}
layer {
  name: "bn2b_branch2b"
  type: "BatchNorm"
  bottom: "res2b_branch2b"
  top: "res2b_branch2b"
  batch_norm_param {
    use_global_stats: true
  }
}
layer {
  name: "scale2b_branch2b"
  type: "Scale"
  bottom: "res2b_branch2b"
  top: "res2b_branch2b"
  param {
    lr_mult: 0
    decay_mult: 0
  }
  param {
    lr_mult: 0
    decay_mult: 0
  }
  scale_param {
    bias_term: true
  }
}
layer {
  name: "res2b_branch2b_relu"
  type: "ReLU"
  bottom: "res2b_branch2b"
  top: "res2b_branch2b"
}
layer {
  name: "res2b_branch2c"
  type: "Convolution"
  bottom: "res2b_branch2b"
  top: "res2b_branch2c"
  param {
    lr_mult: 0
  }
  convolution_param {
    num_output: 256
    bias_term: false
    pad: 0
    kernel_size: 1
    stride: 1
  }
}
layer {
  name: "bn2b_branch2c"
  type: "BatchNorm"
  bottom: "res2b_branch2c"
  top: "res2b_branch2c"
  batch_norm_param {
    use_global_stats: true
  }
}
layer {
  name: "scale2b_branch2c"
  type: "Scale"
  bottom: "res2b_branch2c"
  top: "res2b_branch2c"
  param {
    lr_mult: 0
    decay_mult: 0
  }
  param {
    lr_mult: 0
    decay_mult: 0
  }
  scale_param {
    bias_term: true
  }
}
layer {
  name: "res2b"
  type: "Eltwise"
  bottom: "res2a"
  bottom: "res2b_branch2c"
  top: "res2b"
}
layer {
  name: "res2b_relu"
  type: "ReLU"
  bottom: "res2b"
  top: "res2b"
}
layer {
  name: "res2c_branch2a"
  type: "Convolution"
  bottom: "res2b"
  top: "res2c_branch2a"
  param {
    lr_mult: 0
  }
  convolution_param {
    num_output: 64
    bias_term: false
    pad: 0
    kernel_size: 1
    stride: 1
  }
}
layer {
  name: "bn2c_branch2a"
  type: "BatchNorm"
  bottom: "res2c_branch2a"
  top: "res2c_branch2a"
  batch_norm_param {
    use_global_stats: true
  }
}
layer {
  name: "scale2c_branch2a"
  type: "Scale"
  bottom: "res2c_branch2a"
  top: "res2c_branch2a"
  param {
    lr_mult: 0
    decay_mult: 0
  }
  param {
    lr_mult: 0
    decay_mult: 0
  }
  scale_param {
    bias_term: true
  }
}
layer {
  name: "res2c_branch2a_relu"
  type: "ReLU"
  bottom: "res2c_branch2a"
  top: "res2c_branch2a"
}
layer {
  name: "res2c_branch2b"
  type: "Convolution"
  bottom: "res2c_branch2a"
  top: "res2c_branch2b"
  param {
    lr_mult: 0
  }
  convolution_param {
    num_output: 64
    bias_term: false
    pad: 1
    kernel_size: 3
    stride: 1
  }
}
layer {
  name: "bn2c_branch2b"
  type: "BatchNorm"
  bottom: "res2c_branch2b"
  top: "res2c_branch2b"
  batch_norm_param {
    use_global_stats: true
  }
}
layer {
  name: "scale2c_branch2b"
  type: "Scale"
  bottom: "res2c_branch2b"
  top: "res2c_branch2b"
  param {
    lr_mult: 0
    decay_mult: 0
  }
  param {
    lr_mult: 0
    decay_mult: 0
  }
  scale_param {
    bias_term: true
  }
}
layer {
  name: "res2c_branch2b_relu"
  type: "ReLU"
  bottom: "res2c_branch2b"
  top: "res2c_branch2b"
}
layer {
  name: "res2c_branch2c"
  type: "Convolution"
  bottom: "res2c_branch2b"
  top: "res2c_branch2c"
  param {
    lr_mult: 0
  }
  convolution_param {
    num_output: 256
    bias_term: false
    pad: 0
    kernel_size: 1
    stride: 1
  }
}
layer {
  name: "bn2c_branch2c"
  type: "BatchNorm"
  bottom: "res2c_branch2c"
  top: "res2c_branch2c"
  batch_norm_param {
    use_global_stats: true
  }
}
layer {
  name: "scale2c_branch2c"
  type: "Scale"
  bottom: "res2c_branch2c"
  top: "res2c_branch2c"
  param {
    lr_mult: 0
    decay_mult: 0
  }
  param {
    lr_mult: 0
    decay_mult: 0
  }
  scale_param {
    bias_term: true
  }
}
layer {
  name: "res2c"
  type: "Eltwise"
  bottom: "res2b"
  bottom: "res2c_branch2c"
  top: "res2c"
}
layer {
  name: "res2c_relu"
  type: "ReLU"
  bottom: "res2c"
  top: "res2c"
}
layer {
  name: "res3a_branch1"
  type: "Convolution"
  bottom: "res2c"
  top: "res3a_branch1"
  param {
    lr_mult: 1
  }
  convolution_param {
    num_output: 512
    bias_term: false
    pad: 0
    kernel_size: 1
    stride: 2
  }
}
layer {
  name: "bn3a_branch1"
  type: "BatchNorm"
  bottom: "res3a_branch1"
  top: "res3a_branch1"
  batch_norm_param {
    use_global_stats: true
  }
}
layer {
  name: "scale3a_branch1"
  type: "Scale"
  bottom: "res3a_branch1"
  top: "res3a_branch1"
  param {
    lr_mult: 0
    decay_mult: 0
  }
  param {
    lr_mult: 0
    decay_mult: 0
  }
  scale_param {
    bias_term: true
  }
}
layer {
  name: "res3a_branch2a"
  type: "Convolution"
  bottom: "res2c"
  top: "res3a_branch2a"
  param {
    lr_mult: 1
  }
  convolution_param {
    num_output: 128
    bias_term: false
    pad: 0
    kernel_size: 1
    stride: 2
  }
}
layer {
  name: "bn3a_branch2a"
  type: "BatchNorm"
  bottom: "res3a_branch2a"
  top: "res3a_branch2a"
  batch_norm_param {
    use_global_stats: true
  }
}
layer {
  name: "scale3a_branch2a"
  type: "Scale"
  bottom: "res3a_branch2a"
  top: "res3a_branch2a"
  param {
    lr_mult: 0
    decay_mult: 0
  }
  param {
    lr_mult: 0
    decay_mult: 0
  }
  scale_param {
    bias_term: true
  }
}
layer {
  name: "res3a_branch2a_relu"
  type: "ReLU"
  bottom: "res3a_branch2a"
  top: "res3a_branch2a"
}
layer {
  name: "res3a_branch2b"
  type: "Convolution"
  bottom: "res3a_branch2a"
  top: "res3a_branch2b"
  param {
    lr_mult: 1
  }
  convolution_param {
    num_output: 128
    bias_term: false
    pad: 1
    kernel_size: 3
    stride: 1
  }
}
layer {
  name: "bn3a_branch2b"
  type: "BatchNorm"
  bottom: "res3a_branch2b"
  top: "res3a_branch2b"
  batch_norm_param {
    use_global_stats: true
  }
}
layer {
  name: "scale3a_branch2b"
  type: "Scale"
  bottom: "res3a_branch2b"
  top: "res3a_branch2b"
  param {
    lr_mult: 0
    decay_mult: 0
  }
  param {
    lr_mult: 0
    decay_mult: 0
  }
  scale_param {
    bias_term: true
  }
}
layer {
  name: "res3a_branch2b_relu"
  type: "ReLU"
  bottom: "res3a_branch2b"
  top: "res3a_branch2b"
}
layer {
  name: "res3a_branch2c"
  type: "Convolution"
  bottom: "res3a_branch2b"
  top: "res3a_branch2c"
  param {
    lr_mult: 1
  }
  convolution_param {
    num_output: 512
    bias_term: false
    pad: 0
    kernel_size: 1
    stride: 1
  }
}
layer {
  name: "bn3a_branch2c"
  type: "BatchNorm"
  bottom: "res3a_branch2c"
  top: "res3a_branch2c"
  batch_norm_param {
    use_global_stats: true
  }
}
layer {
  name: "scale3a_branch2c"
  type: "Scale"
  bottom: "res3a_branch2c"
  top: "res3a_branch2c"
  param {
    lr_mult: 0
    decay_mult: 0
  }
  param {
    lr_mult: 0
    decay_mult: 0
  }
  scale_param {
    bias_term: true
  }
}
layer {
  name: "res3a"
  type: "Eltwise"
  bottom: "res3a_branch1"
  bottom: "res3a_branch2c"
  top: "res3a"
}
layer {
  name: "res3a_relu"
  type: "ReLU"
  bottom: "res3a"
  top: "res3a"
}
layer {
  name: "res3b_branch2a"
  type: "Convolution"
  bottom: "res3a"
  top: "res3b_branch2a"
  param {
    lr_mult: 1
  }
  convolution_param {
    num_output: 128
    bias_term: false
    pad: 0
    kernel_size: 1
    stride: 1
  }
}
layer {
  name: "bn3b_branch2a"
  type: "BatchNorm"
  bottom: "res3b_branch2a"
  top: "res3b_branch2a"
  batch_norm_param {
    use_global_stats: true
  }
}
layer {
  name: "scale3b_branch2a"
  type: "Scale"
  bottom: "res3b_branch2a"
  top: "res3b_branch2a"
  param {
    lr_mult: 0
    decay_mult: 0
  }
  param {
    lr_mult: 0
    decay_mult: 0
  }
  scale_param {
    bias_term: true
  }
}
layer {
  name: "res3b_branch2a_relu"
  type: "ReLU"
  bottom: "res3b_branch2a"
  top: "res3b_branch2a"
}
layer {
  name: "res3b_branch2b"
  type: "Convolution"
  bottom: "res3b_branch2a"
  top: "res3b_branch2b"
  param {
    lr_mult: 1
  }
  convolution_param {
    num_output: 128
    bias_term: false
    pad: 1
    kernel_size: 3
    stride: 1
  }
}
layer {
  name: "bn3b_branch2b"
  type: "BatchNorm"
  bottom: "res3b_branch2b"
  top: "res3b_branch2b"
  batch_norm_param {
    use_global_stats: true
  }
}
layer {
  name: "scale3b_branch2b"
  type: "Scale"
  bottom: "res3b_branch2b"
  top: "res3b_branch2b"
  param {
    lr_mult: 0
    decay_mult: 0
  }
  param {
    lr_mult: 0
    decay_mult: 0
  }
  scale_param {
    bias_term: true
  }
}
layer {
  name: "res3b_branch2b_relu"
  type: "ReLU"
  bottom: "res3b_branch2b"
  top: "res3b_branch2b"
}
layer {
  name: "res3b_branch2c"
  type: "Convolution"
  bottom: "res3b_branch2b"
  top: "res3b_branch2c"
  param {
    lr_mult: 1
  }
  convolution_param {
    num_output: 512
    bias_term: false
    pad: 0
    kernel_size: 1
    stride: 1
  }
}
layer {
  name: "bn3b_branch2c"
  type: "BatchNorm"
  bottom: "res3b_branch2c"
  top: "res3b_branch2c"
  batch_norm_param {
    use_global_stats: true
  }
}
layer {
  name: "scale3b_branch2c"
  type: "Scale"
  bottom: "res3b_branch2c"
  top: "res3b_branch2c"
  param {
    lr_mult: 0
    decay_mult: 0
  }
  param {
    lr_mult: 0
    decay_mult: 0
  }
  scale_param {
    bias_term: true
  }
}
layer {
  name: "res3b"
  type: "Eltwise"
  bottom: "res3a"
  bottom: "res3b_branch2c"
  top: "res3b"
}
layer {
  name: "res3b_relu"
  type: "ReLU"
  bottom: "res3b"
  top: "res3b"
}
layer {
  name: "res3c_branch2a"
  type: "Convolution"
  bottom: "res3b"
  top: "res3c_branch2a"
  param {
    lr_mult: 1
  }
  convolution_param {
    num_output: 128
    bias_term: false
    pad: 0
    kernel_size: 1
    stride: 1
  }
}
layer {
  name: "bn3c_branch2a"
  type: "BatchNorm"
  bottom: "res3c_branch2a"
  top: "res3c_branch2a"
  batch_norm_param {
    use_global_stats: true
  }
}
layer {
  name: "scale3c_branch2a"
  type: "Scale"
  bottom: "res3c_branch2a"
  top: "res3c_branch2a"
  param {
    lr_mult: 0
    decay_mult: 0
  }
  param {
    lr_mult: 0
    decay_mult: 0
  }
  scale_param {
    bias_term: true
  }
}
layer {
  name: "res3c_branch2a_relu"
  type: "ReLU"
  bottom: "res3c_branch2a"
  top: "res3c_branch2a"
}
layer {
  name: "res3c_branch2b"
  type: "Convolution"
  bottom: "res3c_branch2a"
  top: "res3c_branch2b"
  param {
    lr_mult: 1
  }
  convolution_param {
    num_output: 128
    bias_term: false
    pad: 1
    kernel_size: 3
    stride: 1
  }
}
layer {
  name: "bn3c_branch2b"
  type: "BatchNorm"
  bottom: "res3c_branch2b"
  top: "res3c_branch2b"
  batch_norm_param {
    use_global_stats: true
  }
}
layer {
  name: "scale3c_branch2b"
  type: "Scale"
  bottom: "res3c_branch2b"
  top: "res3c_branch2b"
  param {
    lr_mult: 0
    decay_mult: 0
  }
  param {
    lr_mult: 0
    decay_mult: 0
  }
  scale_param {
    bias_term: true
  }
}
layer {
  name: "res3c_branch2b_relu"
  type: "ReLU"
  bottom: "res3c_branch2b"
  top: "res3c_branch2b"
}
layer {
  name: "res3c_branch2c"
  type: "Convolution"
  bottom: "res3c_branch2b"
  top: "res3c_branch2c"
  param {
    lr_mult: 1
  }
  convolution_param {
    num_output: 512
    bias_term: false
    pad: 0
    kernel_size: 1
    stride: 1
  }
}
layer {
  name: "bn3c_branch2c"
  type: "BatchNorm"
  bottom: "res3c_branch2c"
  top: "res3c_branch2c"
  batch_norm_param {
    use_global_stats: true
  }
}
layer {
  name: "scale3c_branch2c"
  type: "Scale"
  bottom: "res3c_branch2c"
  top: "res3c_branch2c"
  param {
    lr_mult: 0
    decay_mult: 0
  }
  param {
    lr_mult: 0
    decay_mult: 0
  }
  scale_param {
    bias_term: true
  }
}
layer {
  name: "res3c"
  type: "Eltwise"
  bottom: "res3b"
  bottom: "res3c_branch2c"
  top: "res3c"
}
layer {
  name: "res3c_relu"
  type: "ReLU"
  bottom: "res3c"
  top: "res3c"
}
layer {
  name: "res3d_branch2a"
  type: "Convolution"
  bottom: "res3c"
  top: "res3d_branch2a"
  param {
    lr_mult: 1
  }
  convolution_param {
    num_output: 128
    bias_term: false
    pad: 0
    kernel_size: 1
    stride: 1
  }
}
layer {
  name: "bn3d_branch2a"
  type: "BatchNorm"
  bottom: "res3d_branch2a"
  top: "res3d_branch2a"
  batch_norm_param {
    use_global_stats: true
  }
}
layer {
  name: "scale3d_branch2a"
  type: "Scale"
  bottom: "res3d_branch2a"
  top: "res3d_branch2a"
  param {
    lr_mult: 0
    decay_mult: 0
  }
  param {
    lr_mult: 0
    decay_mult: 0
  }
  scale_param {
    bias_term: true
  }
}
layer {
  name: "res3d_branch2a_relu"
  type: "ReLU"
  bottom: "res3d_branch2a"
  top: "res3d_branch2a"
}
layer {
  name: "res3d_branch2b"
  type: "Convolution"
  bottom: "res3d_branch2a"
  top: "res3d_branch2b"
  param {
    lr_mult: 1
  }
  convolution_param {
    num_output: 128
    bias_term: false
    pad: 1
    kernel_size: 3
    stride: 1
  }
}
layer {
  name: "bn3d_branch2b"
  type: "BatchNorm"
  bottom: "res3d_branch2b"
  top: "res3d_branch2b"
  batch_norm_param {
    use_global_stats: true
  }
}
layer {
  name: "scale3d_branch2b"
  type: "Scale"
  bottom: "res3d_branch2b"
  top: "res3d_branch2b"
  param {
    lr_mult: 0
    decay_mult: 0
  }
  param {
    lr_mult: 0
    decay_mult: 0
  }
  scale_param {
    bias_term: true
  }
}
layer {
  name: "res3d_branch2b_relu"
  type: "ReLU"
  bottom: "res3d_branch2b"
  top: "res3d_branch2b"
}
layer {
  name: "res3d_branch2c"
  type: "Convolution"
  bottom: "res3d_branch2b"
  top: "res3d_branch2c"
  param {
    lr_mult: 1
  }
  convolution_param {
    num_output: 512
    bias_term: false
    pad: 0
    kernel_size: 1
    stride: 1
  }
}
layer {
  name: "bn3d_branch2c"
  type: "BatchNorm"
  bottom: "res3d_branch2c"
  top: "res3d_branch2c"
  batch_norm_param {
    use_global_stats: true
  }
}
layer {
  name: "scale3d_branch2c"
  type: "Scale"
  bottom: "res3d_branch2c"
  top: "res3d_branch2c"
  param {
    lr_mult: 0
    decay_mult: 0
  }
  param {
    lr_mult: 0
    decay_mult: 0
  }
  scale_param {
    bias_term: true
  }
}
layer {
  name: "res3d"
  type: "Eltwise"
  bottom: "res3c"
  bottom: "res3d_branch2c"
  top: "res3d"
}
layer {
  name: "res3d_relu"
  type: "ReLU"
  bottom: "res3d"
  top: "res3d"
}
layer {
  name: "res4a_branch1"
  type: "Convolution"
  bottom: "res3d"
  top: "res4a_branch1"
  param {
    lr_mult: 1
  }
  convolution_param {
    num_output: 1024
    bias_term: false
    pad: 0
    kernel_size: 1
    stride: 2
  }
}
layer {
  name: "bn4a_branch1"
  type: "BatchNorm"
  bottom: "res4a_branch1"
  top: "res4a_branch1"
  batch_norm_param {
    use_global_stats: true
  }
}
layer {
  name: "scale4a_branch1"
  type: "Scale"
  bottom: "res4a_branch1"
  top: "res4a_branch1"
  param {
    lr_mult: 0
    decay_mult: 0
  }
  param {
    lr_mult: 0
    decay_mult: 0
  }
  scale_param {
    bias_term: true
  }
}
layer {
  name: "res4a_branch2a"
  type: "Convolution"
  bottom: "res3d"
  top: "res4a_branch2a"
  param {
    lr_mult: 1
  }
  convolution_param {
    num_output: 256
    bias_term: false
    pad: 0
    kernel_size: 1
    stride: 2
  }
}
layer {
  name: "bn4a_branch2a"
  type: "BatchNorm"
  bottom: "res4a_branch2a"
  top: "res4a_branch2a"
  batch_norm_param {
    use_global_stats: true
  }
}
layer {
  name: "scale4a_branch2a"
  type: "Scale"
  bottom: "res4a_branch2a"
  top: "res4a_branch2a"
  param {
    lr_mult: 0
    decay_mult: 0
  }
  param {
    lr_mult: 0
    decay_mult: 0
  }
  scale_param {
    bias_term: true
  }
}
layer {
  name: "res4a_branch2a_relu"
  type: "ReLU"
  bottom: "res4a_branch2a"
  top: "res4a_branch2a"
}
layer {
  name: "res4a_branch2b"
  type: "Convolution"
  bottom: "res4a_branch2a"
  top: "res4a_branch2b"
  param {
    lr_mult: 1
  }
  convolution_param {
    num_output: 256
    bias_term: false
    pad: 1
    kernel_size: 3
    stride: 1
  }
}
layer {
  name: "bn4a_branch2b"
  type: "BatchNorm"
  bottom: "res4a_branch2b"
  top: "res4a_branch2b"
  batch_norm_param {
    use_global_stats: true
  }
}
layer {
  name: "scale4a_branch2b"
  type: "Scale"
  bottom: "res4a_branch2b"
  top: "res4a_branch2b"
  param {
    lr_mult: 0
    decay_mult: 0
  }
  param {
    lr_mult: 0
    decay_mult: 0
  }
  scale_param {
    bias_term: true
  }
}
layer {
  name: "res4a_branch2b_relu"
  type: "ReLU"
  bottom: "res4a_branch2b"
  top: "res4a_branch2b"
}
layer {
  name: "res4a_branch2c"
  type: "Convolution"
  bottom: "res4a_branch2b"
  top: "res4a_branch2c"
  param {
    lr_mult: 1
  }
  convolution_param {
    num_output: 1024
    bias_term: false
    pad: 0
    kernel_size: 1
    stride: 1
  }
}
layer {
  name: "bn4a_branch2c"
  type: "BatchNorm"
  bottom: "res4a_branch2c"
  top: "res4a_branch2c"
  batch_norm_param {
    use_global_stats: true
  }
}
layer {
  name: "scale4a_branch2c"
  type: "Scale"
  bottom: "res4a_branch2c"
  top: "res4a_branch2c"
  param {
    lr_mult: 0
    decay_mult: 0
  }
  param {
    lr_mult: 0
    decay_mult: 0
  }
  scale_param {
    bias_term: true
  }
}
layer {
  name: "res4a"
  type: "Eltwise"
  bottom: "res4a_branch1"
  bottom: "res4a_branch2c"
  top: "res4a"
}
layer {
  name: "res4a_relu"
  type: "ReLU"
  bottom: "res4a"
  top: "res4a"
}
layer {
  name: "res4b_branch2a"
  type: "Convolution"
  bottom: "res4a"
  top: "res4b_branch2a"
  param {
    lr_mult: 1
  }
  convolution_param {
    num_output: 256
    bias_term: false
    pad: 0
    kernel_size: 1
    stride: 1
  }
}
layer {
  name: "bn4b_branch2a"
  type: "BatchNorm"
  bottom: "res4b_branch2a"
  top: "res4b_branch2a"
  batch_norm_param {
    use_global_stats: true
  }
}
layer {
  name: "scale4b_branch2a"
  type: "Scale"
  bottom: "res4b_branch2a"
  top: "res4b_branch2a"
  param {
    lr_mult: 0
    decay_mult: 0
  }
  param {
    lr_mult: 0
    decay_mult: 0
  }
  scale_param {
    bias_term: true
  }
}
layer {
  name: "res4b_branch2a_relu"
  type: "ReLU"
  bottom: "res4b_branch2a"
  top: "res4b_branch2a"
}
layer {
  name: "res4b_branch2b"
  type: "Convolution"
  bottom: "res4b_branch2a"
  top: "res4b_branch2b"
  param {
    lr_mult: 1
  }
  convolution_param {
    num_output: 256
    bias_term: false
    pad: 1
    kernel_size: 3
    stride: 1
  }
}
layer {
  name: "bn4b_branch2b"
  type: "BatchNorm"
  bottom: "res4b_branch2b"
  top: "res4b_branch2b"
  batch_norm_param {
    use_global_stats: true
  }
}
layer {
  name: "scale4b_branch2b"
  type: "Scale"
  bottom: "res4b_branch2b"
  top: "res4b_branch2b"
  param {
    lr_mult: 0
    decay_mult: 0
  }
  param {
    lr_mult: 0
    decay_mult: 0
  }
  scale_param {
    bias_term: true
  }
}
layer {
  name: "res4b_branch2b_relu"
  type: "ReLU"
  bottom: "res4b_branch2b"
  top: "res4b_branch2b"
}
layer {
  name: "res4b_branch2c"
  type: "Convolution"
  bottom: "res4b_branch2b"
  top: "res4b_branch2c"
  param {
    lr_mult: 1
  }
  convolution_param {
    num_output: 1024
    bias_term: false
    pad: 0
    kernel_size: 1
    stride: 1
  }
}
layer {
  name: "bn4b_branch2c"
  type: "BatchNorm"
  bottom: "res4b_branch2c"
  top: "res4b_branch2c"
  batch_norm_param {
    use_global_stats: true
  }
}
layer {
  name: "scale4b_branch2c"
  type: "Scale"
  bottom: "res4b_branch2c"
  top: "res4b_branch2c"
  param {
    lr_mult: 0
    decay_mult: 0
  }
  param {
    lr_mult: 0
    decay_mult: 0
  }
  scale_param {
    bias_term: true
  }
}
layer {
  name: "res4b"
  type: "Eltwise"
  bottom: "res4a"
  bottom: "res4b_branch2c"
  top: "res4b"
}
layer {
  name: "res4b_relu"
  type: "ReLU"
  bottom: "res4b"
  top: "res4b"
}
layer {
  name: "res4c_branch2a"
  type: "Convolution"
  bottom: "res4b"
  top: "res4c_branch2a"
  param {
    lr_mult: 1
  }
  convolution_param {
    num_output: 256
    bias_term: false
    pad: 0
    kernel_size: 1
    stride: 1
  }
}
layer {
  name: "bn4c_branch2a"
  type: "BatchNorm"
  bottom: "res4c_branch2a"
  top: "res4c_branch2a"
  batch_norm_param {
    use_global_stats: true
  }
}
layer {
  name: "scale4c_branch2a"
  type: "Scale"
  bottom: "res4c_branch2a"
  top: "res4c_branch2a"
  param {
    lr_mult: 0
    decay_mult: 0
  }
  param {
    lr_mult: 0
    decay_mult: 0
  }
  scale_param {
    bias_term: true
  }
}
layer {
  name: "res4c_branch2a_relu"
  type: "ReLU"
  bottom: "res4c_branch2a"
  top: "res4c_branch2a"
}
layer {
  name: "res4c_branch2b"
  type: "Convolution"
  bottom: "res4c_branch2a"
  top: "res4c_branch2b"
  param {
    lr_mult: 1
  }
  convolution_param {
    num_output: 256
    bias_term: false
    pad: 1
    kernel_size: 3
    stride: 1
  }
}
layer {
  name: "bn4c_branch2b"
  type: "BatchNorm"
  bottom: "res4c_branch2b"
  top: "res4c_branch2b"
  batch_norm_param {
    use_global_stats: true
  }
}
layer {
  name: "scale4c_branch2b"
  type: "Scale"
  bottom: "res4c_branch2b"
  top: "res4c_branch2b"
  param {
    lr_mult: 0
    decay_mult: 0
  }
  param {
    lr_mult: 0
    decay_mult: 0
  }
  scale_param {
    bias_term: true
  }
}
layer {
  name: "res4c_branch2b_relu"
  type: "ReLU"
  bottom: "res4c_branch2b"
  top: "res4c_branch2b"
}
layer {
  name: "res4c_branch2c"
  type: "Convolution"
  bottom: "res4c_branch2b"
  top: "res4c_branch2c"
  param {
    lr_mult: 1
  }
  convolution_param {
    num_output: 1024
    bias_term: false
    pad: 0
    kernel_size: 1
    stride: 1
  }
}
layer {
  name: "bn4c_branch2c"
  type: "BatchNorm"
  bottom: "res4c_branch2c"
  top: "res4c_branch2c"
  batch_norm_param {
    use_global_stats: true
  }
}
layer {
  name: "scale4c_branch2c"
  type: "Scale"
  bottom: "res4c_branch2c"
  top: "res4c_branch2c"
  param {
    lr_mult: 0
    decay_mult: 0
  }
  param {
    lr_mult: 0
    decay_mult: 0
  }
  scale_param {
    bias_term: true
  }
}
layer {
  name: "res4c"
  type: "Eltwise"
  bottom: "res4b"
  bottom: "res4c_branch2c"
  top: "res4c"
}
layer {
  name: "res4c_relu"
  type: "ReLU"
  bottom: "res4c"
  top: "res4c"
}
layer {
  name: "res4d_branch2a"
  type: "Convolution"
  bottom: "res4c"
  top: "res4d_branch2a"
  param {
    lr_mult: 1
  }
  convolution_param {
    num_output: 256
    bias_term: false
    pad: 0
    kernel_size: 1
    stride: 1
  }
}
layer {
  name: "bn4d_branch2a"
  type: "BatchNorm"
  bottom: "res4d_branch2a"
  top: "res4d_branch2a"
  batch_norm_param {
    use_global_stats: true
  }
}
layer {
  name: "scale4d_branch2a"
  type: "Scale"
  bottom: "res4d_branch2a"
  top: "res4d_branch2a"
  param {
    lr_mult: 0
    decay_mult: 0
  }
  param {
    lr_mult: 0
    decay_mult: 0
  }
  scale_param {
    bias_term: true
  }
}
layer {
  name: "res4d_branch2a_relu"
  type: "ReLU"
  bottom: "res4d_branch2a"
  top: "res4d_branch2a"
}
layer {
  name: "res4d_branch2b"
  type: "Convolution"
  bottom: "res4d_branch2a"
  top: "res4d_branch2b"
  param {
    lr_mult: 1
  }
  convolution_param {
    num_output: 256
    bias_term: false
    pad: 1
    kernel_size: 3
    stride: 1
  }
}
layer {
  name: "bn4d_branch2b"
  type: "BatchNorm"
  bottom: "res4d_branch2b"
  top: "res4d_branch2b"
  batch_norm_param {
    use_global_stats: true
  }
}
layer {
  name: "scale4d_branch2b"
  type: "Scale"
  bottom: "res4d_branch2b"
  top: "res4d_branch2b"
  param {
    lr_mult: 0
    decay_mult: 0
  }
  param {
    lr_mult: 0
    decay_mult: 0
  }
  scale_param {
    bias_term: true
  }
}
layer {
  name: "res4d_branch2b_relu"
  type: "ReLU"
  bottom: "res4d_branch2b"
  top: "res4d_branch2b"
}
layer {
  name: "res4d_branch2c"
  type: "Convolution"
  bottom: "res4d_branch2b"
  top: "res4d_branch2c"
  param {
    lr_mult: 1
  }
  convolution_param {
    num_output: 1024
    bias_term: false
    pad: 0
    kernel_size: 1
    stride: 1
  }
}
layer {
  name: "bn4d_branch2c"
  type: "BatchNorm"
  bottom: "res4d_branch2c"
  top: "res4d_branch2c"
  batch_norm_param {
    use_global_stats: true
  }
}
layer {
  name: "scale4d_branch2c"
  type: "Scale"
  bottom: "res4d_branch2c"
  top: "res4d_branch2c"
  param {
    lr_mult: 0
    decay_mult: 0
  }
  param {
    lr_mult: 0
    decay_mult: 0
  }
  scale_param {
    bias_term: true
  }
}
layer {
  name: "res4d"
  type: "Eltwise"
  bottom: "res4c"
  bottom: "res4d_branch2c"
  top: "res4d"
}
layer {
  name: "res4d_relu"
  type: "ReLU"
  bottom: "res4d"
  top: "res4d"
}
layer {
  name: "res4e_branch2a"
  type: "Convolution"
  bottom: "res4d"
  top: "res4e_branch2a"
  param {
    lr_mult: 1
  }
  convolution_param {
    num_output: 256
    bias_term: false
    pad: 0
    kernel_size: 1
    stride: 1
  }
}
layer {
  name: "bn4e_branch2a"
  type: "BatchNorm"
  bottom: "res4e_branch2a"
  top: "res4e_branch2a"
  batch_norm_param {
    use_global_stats: true
  }
}
layer {
  name: "scale4e_branch2a"
  type: "Scale"
  bottom: "res4e_branch2a"
  top: "res4e_branch2a"
  param {
    lr_mult: 0
    decay_mult: 0
  }
  param {
    lr_mult: 0
    decay_mult: 0
  }
  scale_param {
    bias_term: true
  }
}
layer {
  name: "res4e_branch2a_relu"
  type: "ReLU"
  bottom: "res4e_branch2a"
  top: "res4e_branch2a"
}
layer {
  name: "res4e_branch2b"
  type: "Convolution"
  bottom: "res4e_branch2a"
  top: "res4e_branch2b"
  param {
    lr_mult: 1
  }
  convolution_param {
    num_output: 256
    bias_term: false
    pad: 1
    kernel_size: 3
    stride: 1
  }
}
layer {
  name: "bn4e_branch2b"
  type: "BatchNorm"
  bottom: "res4e_branch2b"
  top: "res4e_branch2b"
  batch_norm_param {
    use_global_stats: true
  }
}
layer {
  name: "scale4e_branch2b"
  type: "Scale"
  bo
I0403 17:26:09.410996  8794 net.cpp:70] Memory required for data: 0
I0403 17:26:09.411026  8794 layer_factory.hpp:77] Creating layer data
I0403 17:26:09.411044  8794 net.cpp:103] Creating Layer data
I0403 17:26:09.411048  8794 net.cpp:430] data -> data
I0403 17:26:09.411063  8794 net.cpp:430] data -> label
I0403 17:26:09.411109  8794 image_data_layer.cpp:41] Opening file data/apple_disease/train.txt
I0403 17:26:09.411962  8794 image_data_layer.cpp:56] Shuffling data
I0403 17:26:09.412206  8794 image_data_layer.cpp:61] A total of 2392 images.
I0403 17:26:09.515981  8794 image_data_layer.cpp:88] output data size: 16,3,224,224
I0403 17:26:09.528306  8794 net.cpp:153] Setting up data
I0403 17:26:09.528336  8794 net.cpp:160] Top shape: 16 3 224 224 (2408448)
I0403 17:26:09.528339  8794 net.cpp:160] Top shape: 16 (16)
I0403 17:26:09.528342  8794 net.cpp:168] Memory required for data: 9633856
I0403 17:26:09.528348  8794 layer_factory.hpp:77] Creating layer label_data_1_split
I0403 17:26:09.528360  8794 net.cpp:103] Creating Layer label_data_1_split
I0403 17:26:09.528365  8794 net.cpp:456] label_data_1_split <- label
I0403 17:26:09.528375  8794 net.cpp:430] label_data_1_split -> label_data_1_split_0
I0403 17:26:09.528385  8794 net.cpp:430] label_data_1_split -> label_data_1_split_1
I0403 17:26:09.528447  8794 net.cpp:153] Setting up label_data_1_split
I0403 17:26:09.528463  8794 net.cpp:160] Top shape: 16 (16)
I0403 17:26:09.528465  8794 net.cpp:160] Top shape: 16 (16)
I0403 17:26:09.528467  8794 net.cpp:168] Memory required for data: 9633984
I0403 17:26:09.528479  8794 layer_factory.hpp:77] Creating layer conv1
I0403 17:26:09.528488  8794 net.cpp:103] Creating Layer conv1
I0403 17:26:09.528491  8794 net.cpp:456] conv1 <- data
I0403 17:26:09.528508  8794 net.cpp:430] conv1 -> conv1
I0403 17:26:09.857338  8794 net.cpp:153] Setting up conv1
I0403 17:26:09.857362  8794 net.cpp:160] Top shape: 16 64 112 112 (12845056)
I0403 17:26:09.857364  8794 net.cpp:168] Memory required for data: 61014208
I0403 17:26:09.857378  8794 layer_factory.hpp:77] Creating layer bn_conv1
I0403 17:26:09.857396  8794 net.cpp:103] Creating Layer bn_conv1
I0403 17:26:09.857399  8794 net.cpp:456] bn_conv1 <- conv1
I0403 17:26:09.857404  8794 net.cpp:417] bn_conv1 -> conv1 (in-place)
I0403 17:26:09.857554  8794 net.cpp:153] Setting up bn_conv1
I0403 17:26:09.857560  8794 net.cpp:160] Top shape: 16 64 112 112 (12845056)
I0403 17:26:09.857561  8794 net.cpp:168] Memory required for data: 112394432
I0403 17:26:09.857579  8794 layer_factory.hpp:77] Creating layer scale_conv1
I0403 17:26:09.857586  8794 net.cpp:103] Creating Layer scale_conv1
I0403 17:26:09.857589  8794 net.cpp:456] scale_conv1 <- conv1
I0403 17:26:09.857592  8794 net.cpp:417] scale_conv1 -> conv1 (in-place)
I0403 17:26:09.857631  8794 layer_factory.hpp:77] Creating layer scale_conv1
I0403 17:26:09.857731  8794 net.cpp:153] Setting up scale_conv1
I0403 17:26:09.857736  8794 net.cpp:160] Top shape: 16 64 112 112 (12845056)
I0403 17:26:09.857738  8794 net.cpp:168] Memory required for data: 163774656
I0403 17:26:09.857743  8794 layer_factory.hpp:77] Creating layer conv1_relu
I0403 17:26:09.857756  8794 net.cpp:103] Creating Layer conv1_relu
I0403 17:26:09.857758  8794 net.cpp:456] conv1_relu <- conv1
I0403 17:26:09.857761  8794 net.cpp:417] conv1_relu -> conv1 (in-place)
I0403 17:26:09.857908  8794 net.cpp:153] Setting up conv1_relu
I0403 17:26:09.857914  8794 net.cpp:160] Top shape: 16 64 112 112 (12845056)
I0403 17:26:09.857916  8794 net.cpp:168] Memory required for data: 215154880
I0403 17:26:09.857918  8794 layer_factory.hpp:77] Creating layer pool1
I0403 17:26:09.857933  8794 net.cpp:103] Creating Layer pool1
I0403 17:26:09.857936  8794 net.cpp:456] pool1 <- conv1
I0403 17:26:09.857940  8794 net.cpp:430] pool1 -> pool1
I0403 17:26:09.858108  8794 net.cpp:153] Setting up pool1
I0403 17:26:09.858116  8794 net.cpp:160] Top shape: 16 64 56 56 (3211264)
I0403 17:26:09.858119  8794 net.cpp:168] Memory required for data: 227999936
I0403 17:26:09.858120  8794 layer_factory.hpp:77] Creating layer pool1_pool1_0_split
I0403 17:26:09.858135  8794 net.cpp:103] Creating Layer pool1_pool1_0_split
I0403 17:26:09.858137  8794 net.cpp:456] pool1_pool1_0_split <- pool1
I0403 17:26:09.858141  8794 net.cpp:430] pool1_pool1_0_split -> pool1_pool1_0_split_0
I0403 17:26:09.858150  8794 net.cpp:430] pool1_pool1_0_split -> pool1_pool1_0_split_1
I0403 17:26:09.858176  8794 net.cpp:153] Setting up pool1_pool1_0_split
I0403 17:26:09.858191  8794 net.cpp:160] Top shape: 16 64 56 56 (3211264)
I0403 17:26:09.858196  8794 net.cpp:160] Top shape: 16 64 56 56 (3211264)
I0403 17:26:09.858211  8794 net.cpp:168] Memory required for data: 253690048
I0403 17:26:09.858212  8794 layer_factory.hpp:77] Creating layer res2a_branch1
I0403 17:26:09.858222  8794 net.cpp:103] Creating Layer res2a_branch1
I0403 17:26:09.858224  8794 net.cpp:456] res2a_branch1 <- pool1_pool1_0_split_0
I0403 17:26:09.858229  8794 net.cpp:430] res2a_branch1 -> res2a_branch1
I0403 17:26:09.859042  8794 net.cpp:153] Setting up res2a_branch1
I0403 17:26:09.859052  8794 net.cpp:160] Top shape: 16 256 56 56 (12845056)
I0403 17:26:09.859056  8794 net.cpp:168] Memory required for data: 305070272
I0403 17:26:09.859073  8794 layer_factory.hpp:77] Creating layer bn2a_branch1
I0403 17:26:09.859081  8794 net.cpp:103] Creating Layer bn2a_branch1
I0403 17:26:09.859084  8794 net.cpp:456] bn2a_branch1 <- res2a_branch1
I0403 17:26:09.859089  8794 net.cpp:417] bn2a_branch1 -> res2a_branch1 (in-place)
I0403 17:26:09.859730  8794 net.cpp:153] Setting up bn2a_branch1
I0403 17:26:09.859740  8794 net.cpp:160] Top shape: 16 256 56 56 (12845056)
I0403 17:26:09.859741  8794 net.cpp:168] Memory required for data: 356450496
I0403 17:26:09.859760  8794 layer_factory.hpp:77] Creating layer scale2a_branch1
I0403 17:26:09.859776  8794 net.cpp:103] Creating Layer scale2a_branch1
I0403 17:26:09.859779  8794 net.cpp:456] scale2a_branch1 <- res2a_branch1
I0403 17:26:09.859783  8794 net.cpp:417] scale2a_branch1 -> res2a_branch1 (in-place)
I0403 17:26:09.859817  8794 layer_factory.hpp:77] Creating layer scale2a_branch1
I0403 17:26:09.859921  8794 net.cpp:153] Setting up scale2a_branch1
I0403 17:26:09.859926  8794 net.cpp:160] Top shape: 16 256 56 56 (12845056)
I0403 17:26:09.859930  8794 net.cpp:168] Memory required for data: 407830720
I0403 17:26:09.859946  8794 layer_factory.hpp:77] Creating layer res2a_branch2a
I0403 17:26:09.859953  8794 net.cpp:103] Creating Layer res2a_branch2a
I0403 17:26:09.859957  8794 net.cpp:456] res2a_branch2a <- pool1_pool1_0_split_1
I0403 17:26:09.859962  8794 net.cpp:430] res2a_branch2a -> res2a_branch2a
I0403 17:26:09.860754  8794 net.cpp:153] Setting up res2a_branch2a
I0403 17:26:09.860762  8794 net.cpp:160] Top shape: 16 64 56 56 (3211264)
I0403 17:26:09.860765  8794 net.cpp:168] Memory required for data: 420675776
I0403 17:26:09.860769  8794 layer_factory.hpp:77] Creating layer bn2a_branch2a
I0403 17:26:09.860775  8794 net.cpp:103] Creating Layer bn2a_branch2a
I0403 17:26:09.860780  8794 net.cpp:456] bn2a_branch2a <- res2a_branch2a
I0403 17:26:09.860787  8794 net.cpp:417] bn2a_branch2a -> res2a_branch2a (in-place)
I0403 17:26:09.860918  8794 net.cpp:153] Setting up bn2a_branch2a
I0403 17:26:09.860924  8794 net.cpp:160] Top shape: 16 64 56 56 (3211264)
I0403 17:26:09.860927  8794 net.cpp:168] Memory required for data: 433520832
I0403 17:26:09.860949  8794 layer_factory.hpp:77] Creating layer scale2a_branch2a
I0403 17:26:09.860954  8794 net.cpp:103] Creating Layer scale2a_branch2a
I0403 17:26:09.860958  8794 net.cpp:456] scale2a_branch2a <- res2a_branch2a
I0403 17:26:09.860963  8794 net.cpp:417] scale2a_branch2a -> res2a_branch2a (in-place)
I0403 17:26:09.861002  8794 layer_factory.hpp:77] Creating layer scale2a_branch2a
I0403 17:26:09.861090  8794 net.cpp:153] Setting up scale2a_branch2a
I0403 17:26:09.861095  8794 net.cpp:160] Top shape: 16 64 56 56 (3211264)
I0403 17:26:09.861099  8794 net.cpp:168] Memory required for data: 446365888
I0403 17:26:09.861106  8794 layer_factory.hpp:77] Creating layer res2a_branch2a_relu
I0403 17:26:09.861111  8794 net.cpp:103] Creating Layer res2a_branch2a_relu
I0403 17:26:09.861114  8794 net.cpp:456] res2a_branch2a_relu <- res2a_branch2a
I0403 17:26:09.861116  8794 net.cpp:417] res2a_branch2a_relu -> res2a_branch2a (in-place)
I0403 17:26:09.861521  8794 net.cpp:153] Setting up res2a_branch2a_relu
I0403 17:26:09.861531  8794 net.cpp:160] Top shape: 16 64 56 56 (3211264)
I0403 17:26:09.861536  8794 net.cpp:168] Memory required for data: 459210944
I0403 17:26:09.861539  8794 layer_factory.hpp:77] Creating layer res2a_branch2b
I0403 17:26:09.861546  8794 net.cpp:103] Creating Layer res2a_branch2b
I0403 17:26:09.861549  8794 net.cpp:456] res2a_branch2b <- res2a_branch2a
I0403 17:26:09.861553  8794 net.cpp:430] res2a_branch2b -> res2a_branch2b
I0403 17:26:09.862862  8794 net.cpp:153] Setting up res2a_branch2b
I0403 17:26:09.862874  8794 net.cpp:160] Top shape: 16 64 56 56 (3211264)
I0403 17:26:09.862879  8794 net.cpp:168] Memory required for data: 472056000
I0403 17:26:09.862885  8794 layer_factory.hpp:77] Creating layer bn2a_branch2b
I0403 17:26:09.862895  8794 net.cpp:103] Creating Layer bn2a_branch2b
I0403 17:26:09.862898  8794 net.cpp:456] bn2a_branch2b <- res2a_branch2b
I0403 17:26:09.862905  8794 net.cpp:417] bn2a_branch2b -> res2a_branch2b (in-place)
I0403 17:26:09.863034  8794 net.cpp:153] Setting up bn2a_branch2b
I0403 17:26:09.863039  8794 net.cpp:160] Top shape: 16 64 56 56 (3211264)
I0403 17:26:09.863040  8794 net.cpp:168] Memory required for data: 484901056
I0403 17:26:09.863049  8794 layer_factory.hpp:77] Creating layer scale2a_branch2b
I0403 17:26:09.863055  8794 net.cpp:103] Creating Layer scale2a_branch2b
I0403 17:26:09.863059  8794 net.cpp:456] scale2a_branch2b <- res2a_branch2b
I0403 17:26:09.863065  8794 net.cpp:417] scale2a_branch2b -> res2a_branch2b (in-place)
I0403 17:26:09.863103  8794 layer_factory.hpp:77] Creating layer scale2a_branch2b
I0403 17:26:09.863178  8794 net.cpp:153] Setting up scale2a_branch2b
I0403 17:26:09.863183  8794 net.cpp:160] Top shape: 16 64 56 56 (3211264)
I0403 17:26:09.863186  8794 net.cpp:168] Memory required for data: 497746112
I0403 17:26:09.863189  8794 layer_factory.hpp:77] Creating layer res2a_branch2b_relu
I0403 17:26:09.863195  8794 net.cpp:103] Creating Layer res2a_branch2b_relu
I0403 17:26:09.863199  8794 net.cpp:456] res2a_branch2b_relu <- res2a_branch2b
I0403 17:26:09.863204  8794 net.cpp:417] res2a_branch2b_relu -> res2a_branch2b (in-place)
I0403 17:26:09.863332  8794 net.cpp:153] Setting up res2a_branch2b_relu
I0403 17:26:09.863339  8794 net.cpp:160] Top shape: 16 64 56 56 (3211264)
I0403 17:26:09.863343  8794 net.cpp:168] Memory required for data: 510591168
I0403 17:26:09.863348  8794 layer_factory.hpp:77] Creating layer res2a_branch2c
I0403 17:26:09.863354  8794 net.cpp:103] Creating Layer res2a_branch2c
I0403 17:26:09.863358  8794 net.cpp:456] res2a_branch2c <- res2a_branch2b
I0403 17:26:09.863360  8794 net.cpp:430] res2a_branch2c -> res2a_branch2c
I0403 17:26:09.864145  8794 net.cpp:153] Setting up res2a_branch2c
I0403 17:26:09.864153  8794 net.cpp:160] Top shape: 16 256 56 56 (12845056)
I0403 17:26:09.864156  8794 net.cpp:168] Memory required for data: 561971392
I0403 17:26:09.864161  8794 layer_factory.hpp:77] Creating layer bn2a_branch2c
I0403 17:26:09.864167  8794 net.cpp:103] Creating Layer bn2a_branch2c
I0403 17:26:09.864171  8794 net.cpp:456] bn2a_branch2c <- res2a_branch2c
I0403 17:26:09.864177  8794 net.cpp:417] bn2a_branch2c -> res2a_branch2c (in-place)
I0403 17:26:09.864301  8794 net.cpp:153] Setting up bn2a_branch2c
I0403 17:26:09.864306  8794 net.cpp:160] Top shape: 16 256 56 56 (12845056)
I0403 17:26:09.864310  8794 net.cpp:168] Memory required for data: 613351616
I0403 17:26:09.864318  8794 layer_factory.hpp:77] Creating layer scale2a_branch2c
I0403 17:26:09.864323  8794 net.cpp:103] Creating Layer scale2a_branch2c
I0403 17:26:09.864327  8794 net.cpp:456] scale2a_branch2c <- res2a_branch2c
I0403 17:26:09.864333  8794 net.cpp:417] scale2a_branch2c -> res2a_branch2c (in-place)
I0403 17:26:09.864362  8794 layer_factory.hpp:77] Creating layer scale2a_branch2c
I0403 17:26:09.864434  8794 net.cpp:153] Setting up scale2a_branch2c
I0403 17:26:09.864439  8794 net.cpp:160] Top shape: 16 256 56 56 (12845056)
I0403 17:26:09.864444  8794 net.cpp:168] Memory required for data: 664731840
I0403 17:26:09.864450  8794 layer_factory.hpp:77] Creating layer res2a
I0403 17:26:09.864456  8794 net.cpp:103] Creating Layer res2a
I0403 17:26:09.864460  8794 net.cpp:456] res2a <- res2a_branch1
I0403 17:26:09.864464  8794 net.cpp:456] res2a <- res2a_branch2c
I0403 17:26:09.864470  8794 net.cpp:430] res2a -> res2a
I0403 17:26:09.864496  8794 net.cpp:153] Setting up res2a
I0403 17:26:09.864500  8794 net.cpp:160] Top shape: 16 256 56 56 (12845056)
I0403 17:26:09.864504  8794 net.cpp:168] Memory required for data: 716112064
I0403 17:26:09.864508  8794 layer_factory.hpp:77] Creating layer res2a_relu
I0403 17:26:09.864513  8794 net.cpp:103] Creating Layer res2a_relu
I0403 17:26:09.864516  8794 net.cpp:456] res2a_relu <- res2a
I0403 17:26:09.864519  8794 net.cpp:417] res2a_relu -> res2a (in-place)
I0403 17:26:09.864648  8794 net.cpp:153] Setting up res2a_relu
I0403 17:26:09.864655  8794 net.cpp:160] Top shape: 16 256 56 56 (12845056)
I0403 17:26:09.864658  8794 net.cpp:168] Memory required for data: 767492288
I0403 17:26:09.864662  8794 layer_factory.hpp:77] Creating layer res2a_res2a_relu_0_split
I0403 17:26:09.864670  8794 net.cpp:103] Creating Layer res2a_res2a_relu_0_split
I0403 17:26:09.864673  8794 net.cpp:456] res2a_res2a_relu_0_split <- res2a
I0403 17:26:09.864677  8794 net.cpp:430] res2a_res2a_relu_0_split -> res2a_res2a_relu_0_split_0
I0403 17:26:09.864684  8794 net.cpp:430] res2a_res2a_relu_0_split -> res2a_res2a_relu_0_split_1
I0403 17:26:09.864712  8794 net.cpp:153] Setting up res2a_res2a_relu_0_split
I0403 17:26:09.864724  8794 net.cpp:160] Top shape: 16 256 56 56 (12845056)
I0403 17:26:09.864730  8794 net.cpp:160] Top shape: 16 256 56 56 (12845056)
I0403 17:26:09.864733  8794 net.cpp:168] Memory required for data: 870252736
I0403 17:26:09.864737  8794 layer_factory.hpp:77] Creating layer res2b_branch2a
I0403 17:26:09.864743  8794 net.cpp:103] Creating Layer res2b_branch2a
I0403 17:26:09.864747  8794 net.cpp:456] res2b_branch2a <- res2a_res2a_relu_0_split_0
I0403 17:26:09.864750  8794 net.cpp:430] res2b_branch2a -> res2b_branch2a
I0403 17:26:09.865517  8794 net.cpp:153] Setting up res2b_branch2a
I0403 17:26:09.865526  8794 net.cpp:160] Top shape: 16 64 56 56 (3211264)
I0403 17:26:09.865530  8794 net.cpp:168] Memory required for data: 883097792
I0403 17:26:09.865532  8794 layer_factory.hpp:77] Creating layer bn2b_branch2a
I0403 17:26:09.865537  8794 net.cpp:103] Creating Layer bn2b_branch2a
I0403 17:26:09.865540  8794 net.cpp:456] bn2b_branch2a <- res2b_branch2a
I0403 17:26:09.865545  8794 net.cpp:417] bn2b_branch2a -> res2b_branch2a (in-place)
I0403 17:26:09.865675  8794 net.cpp:153] Setting up bn2b_branch2a
I0403 17:26:09.865680  8794 net.cpp:160] Top shape: 16 64 56 56 (3211264)
I0403 17:26:09.865684  8794 net.cpp:168] Memory required for data: 895942848
I0403 17:26:09.865695  8794 layer_factory.hpp:77] Creating layer scale2b_branch2a
I0403 17:26:09.865701  8794 net.cpp:103] Creating Layer scale2b_branch2a
I0403 17:26:09.865706  8794 net.cpp:456] scale2b_branch2a <- res2b_branch2a
I0403 17:26:09.865710  8794 net.cpp:417] scale2b_branch2a -> res2b_branch2a (in-place)
I0403 17:26:09.865738  8794 layer_factory.hpp:77] Creating layer scale2b_branch2a
I0403 17:26:09.865813  8794 net.cpp:153] Setting up scale2b_branch2a
I0403 17:26:09.865818  8794 net.cpp:160] Top shape: 16 64 56 56 (3211264)
I0403 17:26:09.865819  8794 net.cpp:168] Memory required for data: 908787904
I0403 17:26:09.865823  8794 layer_factory.hpp:77] Creating layer res2b_branch2a_relu
I0403 17:26:09.865829  8794 net.cpp:103] Creating Layer res2b_branch2a_relu
I0403 17:26:09.865833  8794 net.cpp:456] res2b_branch2a_relu <- res2b_branch2a
I0403 17:26:09.865839  8794 net.cpp:417] res2b_branch2a_relu -> res2b_branch2a (in-place)
I0403 17:26:09.866250  8794 net.cpp:153] Setting up res2b_branch2a_relu
I0403 17:26:09.866259  8794 net.cpp:160] Top shape: 16 64 56 56 (3211264)
I0403 17:26:09.866263  8794 net.cpp:168] Memory required for data: 921632960
I0403 17:26:09.866267  8794 layer_factory.hpp:77] Creating layer res2b_branch2b
I0403 17:26:09.866276  8794 net.cpp:103] Creating Layer res2b_branch2b
I0403 17:26:09.866281  8794 net.cpp:456] res2b_branch2b <- res2b_branch2a
I0403 17:26:09.866286  8794 net.cpp:430] res2b_branch2b -> res2b_branch2b
I0403 17:26:09.867079  8794 net.cpp:153] Setting up res2b_branch2b
I0403 17:26:09.867089  8794 net.cpp:160] Top shape: 16 64 56 56 (3211264)
I0403 17:26:09.867090  8794 net.cpp:168] Memory required for data: 934478016
I0403 17:26:09.867094  8794 layer_factory.hpp:77] Creating layer bn2b_branch2b
I0403 17:26:09.867102  8794 net.cpp:103] Creating Layer bn2b_branch2b
I0403 17:26:09.867106  8794 net.cpp:456] bn2b_branch2b <- res2b_branch2b
I0403 17:26:09.867110  8794 net.cpp:417] bn2b_branch2b -> res2b_branch2b (in-place)
I0403 17:26:09.867240  8794 net.cpp:153] Setting up bn2b_branch2b
I0403 17:26:09.867245  8794 net.cpp:160] Top shape: 16 64 56 56 (3211264)
I0403 17:26:09.867247  8794 net.cpp:168] Memory required for data: 947323072
I0403 17:26:09.867254  8794 layer_factory.hpp:77] Creating layer scale2b_branch2b
I0403 17:26:09.867259  8794 net.cpp:103] Creating Layer scale2b_branch2b
I0403 17:26:09.867264  8794 net.cpp:456] scale2b_branch2b <- res2b_branch2b
I0403 17:26:09.867269  8794 net.cpp:417] scale2b_branch2b -> res2b_branch2b (in-place)
I0403 17:26:09.867300  8794 layer_factory.hpp:77] Creating layer scale2b_branch2b
I0403 17:26:09.867377  8794 net.cpp:153] Setting up scale2b_branch2b
I0403 17:26:09.867383  8794 net.cpp:160] Top shape: 16 64 56 56 (3211264)
I0403 17:26:09.867386  8794 net.cpp:168] Memory required for data: 960168128
I0403 17:26:09.867403  8794 layer_factory.hpp:77] Creating layer res2b_branch2b_relu
I0403 17:26:09.867413  8794 net.cpp:103] Creating Layer res2b_branch2b_relu
I0403 17:26:09.867415  8794 net.cpp:456] res2b_branch2b_relu <- res2b_branch2b
I0403 17:26:09.867419  8794 net.cpp:417] res2b_branch2b_relu -> res2b_branch2b (in-place)
I0403 17:26:09.867547  8794 net.cpp:153] Setting up res2b_branch2b_relu
I0403 17:26:09.867553  8794 net.cpp:160] Top shape: 16 64 56 56 (3211264)
I0403 17:26:09.867555  8794 net.cpp:168] Memory required for data: 973013184
I0403 17:26:09.867558  8794 layer_factory.hpp:77] Creating layer res2b_branch2c
I0403 17:26:09.867563  8794 net.cpp:103] Creating Layer res2b_branch2c
I0403 17:26:09.867565  8794 net.cpp:456] res2b_branch2c <- res2b_branch2b
I0403 17:26:09.867568  8794 net.cpp:430] res2b_branch2c -> res2b_branch2c
I0403 17:26:09.868353  8794 net.cpp:153] Setting up res2b_branch2c
I0403 17:26:09.868362  8794 net.cpp:160] Top shape: 16 256 56 56 (12845056)
I0403 17:26:09.868365  8794 net.cpp:168] Memory required for data: 1024393408
I0403 17:26:09.868368  8794 layer_factory.hpp:77] Creating layer bn2b_branch2c
I0403 17:26:09.868373  8794 net.cpp:103] Creating Layer bn2b_branch2c
I0403 17:26:09.868376  8794 net.cpp:456] bn2b_branch2c <- res2b_branch2c
I0403 17:26:09.868379  8794 net.cpp:417] bn2b_branch2c -> res2b_branch2c (in-place)
I0403 17:26:09.868502  8794 net.cpp:153] Setting up bn2b_branch2c
I0403 17:26:09.868507  8794 net.cpp:160] Top shape: 16 256 56 56 (12845056)
I0403 17:26:09.868508  8794 net.cpp:168] Memory required for data: 1075773632
I0403 17:26:09.868516  8794 layer_factory.hpp:77] Creating layer scale2b_branch2c
I0403 17:26:09.868521  8794 net.cpp:103] Creating Layer scale2b_branch2c
I0403 17:26:09.868525  8794 net.cpp:456] scale2b_branch2c <- res2b_branch2c
I0403 17:26:09.868530  8794 net.cpp:417] scale2b_branch2c -> res2b_branch2c (in-place)
I0403 17:26:09.868559  8794 layer_factory.hpp:77] Creating layer scale2b_branch2c
I0403 17:26:09.868630  8794 net.cpp:153] Setting up scale2b_branch2c
I0403 17:26:09.868635  8794 net.cpp:160] Top shape: 16 256 56 56 (12845056)
I0403 17:26:09.868639  8794 net.cpp:168] Memory required for data: 1127153856
I0403 17:26:09.868645  8794 layer_factory.hpp:77] Creating layer res2b
I0403 17:26:09.868650  8794 net.cpp:103] Creating Layer res2b
I0403 17:26:09.868654  8794 net.cpp:456] res2b <- res2a_res2a_relu_0_split_1
I0403 17:26:09.868659  8794 net.cpp:456] res2b <- res2b_branch2c
I0403 17:26:09.868664  8794 net.cpp:430] res2b -> res2b
I0403 17:26:09.868690  8794 net.cpp:153] Setting up res2b
I0403 17:26:09.868695  8794 net.cpp:160] Top shape: 16 256 56 56 (12845056)
I0403 17:26:09.868697  8794 net.cpp:168] Memory required for data: 1178534080
I0403 17:26:09.868700  8794 layer_factory.hpp:77] Creating layer res2b_relu
I0403 17:26:09.868705  8794 net.cpp:103] Creating Layer res2b_relu
I0403 17:26:09.868710  8794 net.cpp:456] res2b_relu <- res2b
I0403 17:26:09.868713  8794 net.cpp:417] res2b_relu -> res2b (in-place)
I0403 17:26:09.868860  8794 net.cpp:153] Setting up res2b_relu
I0403 17:26:09.868870  8794 net.cpp:160] Top shape: 16 256 56 56 (12845056)
I0403 17:26:09.868872  8794 net.cpp:168] Memory required for data: 1229914304
I0403 17:26:09.868876  8794 layer_factory.hpp:77] Creating layer res2b_res2b_relu_0_split
I0403 17:26:09.868882  8794 net.cpp:103] Creating Layer res2b_res2b_relu_0_split
I0403 17:26:09.868886  8794 net.cpp:456] res2b_res2b_relu_0_split <- res2b
I0403 17:26:09.868891  8794 net.cpp:430] res2b_res2b_relu_0_split -> res2b_res2b_relu_0_split_0
I0403 17:26:09.868898  8794 net.cpp:430] res2b_res2b_relu_0_split -> res2b_res2b_relu_0_split_1
I0403 17:26:09.868937  8794 net.cpp:153] Setting up res2b_res2b_relu_0_split
I0403 17:26:09.868944  8794 net.cpp:160] Top shape: 16 256 56 56 (12845056)
I0403 17:26:09.868947  8794 net.cpp:160] Top shape: 16 256 56 56 (12845056)
I0403 17:26:09.868949  8794 net.cpp:168] Memory required for data: 1332674752
I0403 17:26:09.868952  8794 layer_factory.hpp:77] Creating layer res2c_branch2a
I0403 17:26:09.868964  8794 net.cpp:103] Creating Layer res2c_branch2a
I0403 17:26:09.868968  8794 net.cpp:456] res2c_branch2a <- res2b_res2b_relu_0_split_0
I0403 17:26:09.868971  8794 net.cpp:430] res2c_branch2a -> res2c_branch2a
I0403 17:26:09.869777  8794 net.cpp:153] Setting up res2c_branch2a
I0403 17:26:09.869787  8794 net.cpp:160] Top shape: 16 64 56 56 (3211264)
I0403 17:26:09.869789  8794 net.cpp:168] Memory required for data: 1345519808
I0403 17:26:09.869792  8794 layer_factory.hpp:77] Creating layer bn2c_branch2a
I0403 17:26:09.869797  8794 net.cpp:103] Creating Layer bn2c_branch2a
I0403 17:26:09.869801  8794 net.cpp:456] bn2c_branch2a <- res2c_branch2a
I0403 17:26:09.869804  8794 net.cpp:417] bn2c_branch2a -> res2c_branch2a (in-place)
I0403 17:26:09.869932  8794 net.cpp:153] Setting up bn2c_branch2a
I0403 17:26:09.869937  8794 net.cpp:160] Top shape: 16 64 56 56 (3211264)
I0403 17:26:09.869940  8794 net.cpp:168] Memory required for data: 1358364864
I0403 17:26:09.869943  8794 layer_factory.hpp:77] Creating layer scale2c_branch2a
I0403 17:26:09.869952  8794 net.cpp:103] Creating Layer scale2c_branch2a
I0403 17:26:09.869956  8794 net.cpp:456] scale2c_branch2a <- res2c_branch2a
I0403 17:26:09.869959  8794 net.cpp:417] scale2c_branch2a -> res2c_branch2a (in-place)
I0403 17:26:09.869987  8794 layer_factory.hpp:77] Creating layer scale2c_branch2a
I0403 17:26:09.870060  8794 net.cpp:153] Setting up scale2c_branch2a
I0403 17:26:09.870065  8794 net.cpp:160] Top shape: 16 64 56 56 (3211264)
I0403 17:26:09.870066  8794 net.cpp:168] Memory required for data: 1371209920
I0403 17:26:09.870070  8794 layer_factory.hpp:77] Creating layer res2c_branch2a_relu
I0403 17:26:09.870074  8794 net.cpp:103] Creating Layer res2c_branch2a_relu
I0403 17:26:09.870075  8794 net.cpp:456] res2c_branch2a_relu <- res2c_branch2a
I0403 17:26:09.870079  8794 net.cpp:417] res2c_branch2a_relu -> res2c_branch2a (in-place)
I0403 17:26:09.870225  8794 net.cpp:153] Setting up res2c_branch2a_relu
I0403 17:26:09.870232  8794 net.cpp:160] Top shape: 16 64 56 56 (3211264)
I0403 17:26:09.870234  8794 net.cpp:168] Memory required for data: 1384054976
I0403 17:26:09.870236  8794 layer_factory.hpp:77] Creating layer res2c_branch2b
I0403 17:26:09.870242  8794 net.cpp:103] Creating Layer res2c_branch2b
I0403 17:26:09.870245  8794 net.cpp:456] res2c_branch2b <- res2c_branch2a
I0403 17:26:09.870249  8794 net.cpp:430] res2c_branch2b -> res2c_branch2b
I0403 17:26:09.871110  8794 net.cpp:153] Setting up res2c_branch2b
I0403 17:26:09.871119  8794 net.cpp:160] Top shape: 16 64 56 56 (3211264)
I0403 17:26:09.871131  8794 net.cpp:168] Memory required for data: 1396900032
I0403 17:26:09.871135  8794 layer_factory.hpp:77] Creating layer bn2c_branch2b
I0403 17:26:09.871140  8794 net.cpp:103] Creating Layer bn2c_branch2b
I0403 17:26:09.871142  8794 net.cpp:456] bn2c_branch2b <- res2c_branch2b
I0403 17:26:09.871146  8794 net.cpp:417] bn2c_branch2b -> res2c_branch2b (in-place)
I0403 17:26:09.871281  8794 net.cpp:153] Setting up bn2c_branch2b
I0403 17:26:09.871285  8794 net.cpp:160] Top shape: 16 64 56 56 (3211264)
I0403 17:26:09.871287  8794 net.cpp:168] Memory required for data: 1409745088
I0403 17:26:09.871292  8794 layer_factory.hpp:77] Creating layer scale2c_branch2b
I0403 17:26:09.871297  8794 net.cpp:103] Creating Layer scale2c_branch2b
I0403 17:26:09.871300  8794 net.cpp:456] scale2c_branch2b <- res2c_branch2b
I0403 17:26:09.871304  8794 net.cpp:417] scale2c_branch2b -> res2c_branch2b (in-place)
I0403 17:26:09.871340  8794 layer_factory.hpp:77] Creating layer scale2c_branch2b
I0403 17:26:09.871428  8794 net.cpp:153] Setting up scale2c_branch2b
I0403 17:26:09.871433  8794 net.cpp:160] Top shape: 16 64 56 56 (3211264)
I0403 17:26:09.871434  8794 net.cpp:168] Memory required for data: 1422590144
I0403 17:26:09.871438  8794 layer_factory.hpp:77] Creating layer res2c_branch2b_relu
I0403 17:26:09.871441  8794 net.cpp:103] Creating Layer res2c_branch2b_relu
I0403 17:26:09.871444  8794 net.cpp:456] res2c_branch2b_relu <- res2c_branch2b
I0403 17:26:09.871448  8794 net.cpp:417] res2c_branch2b_relu -> res2c_branch2b (in-place)
I0403 17:26:09.871870  8794 net.cpp:153] Setting up res2c_branch2b_relu
I0403 17:26:09.871878  8794 net.cpp:160] Top shape: 16 64 56 56 (3211264)
I0403 17:26:09.871881  8794 net.cpp:168] Memory required for data: 1435435200
I0403 17:26:09.871882  8794 layer_factory.hpp:77] Creating layer res2c_branch2c
I0403 17:26:09.871888  8794 net.cpp:103] Creating Layer res2c_branch2c
I0403 17:26:09.871891  8794 net.cpp:456] res2c_branch2c <- res2c_branch2b
I0403 17:26:09.871896  8794 net.cpp:430] res2c_branch2c -> res2c_branch2c
I0403 17:26:09.872717  8794 net.cpp:153] Setting up res2c_branch2c
I0403 17:26:09.872726  8794 net.cpp:160] Top shape: 16 256 56 56 (12845056)
I0403 17:26:09.872728  8794 net.cpp:168] Memory required for data: 1486815424
I0403 17:26:09.872732  8794 layer_factory.hpp:77] Creating layer bn2c_branch2c
I0403 17:26:09.872737  8794 net.cpp:103] Creating Layer bn2c_branch2c
I0403 17:26:09.872740  8794 net.cpp:456] bn2c_branch2c <- res2c_branch2c
I0403 17:26:09.872743  8794 net.cpp:417] bn2c_branch2c -> res2c_branch2c (in-place)
I0403 17:26:09.872874  8794 net.cpp:153] Setting up bn2c_branch2c
I0403 17:26:09.872877  8794 net.cpp:160] Top shape: 16 256 56 56 (12845056)
I0403 17:26:09.872879  8794 net.cpp:168] Memory required for data: 1538195648
I0403 17:26:09.872890  8794 layer_factory.hpp:77] Creating layer scale2c_branch2c
I0403 17:26:09.872896  8794 net.cpp:103] Creating Layer scale2c_branch2c
I0403 17:26:09.872900  8794 net.cpp:456] scale2c_branch2c <- res2c_branch2c
I0403 17:26:09.872902  8794 net.cpp:417] scale2c_branch2c -> res2c_branch2c (in-place)
I0403 17:26:09.872931  8794 layer_factory.hpp:77] Creating layer scale2c_branch2c
I0403 17:26:09.873006  8794 net.cpp:153] Setting up scale2c_branch2c
I0403 17:26:09.873010  8794 net.cpp:160] Top shape: 16 256 56 56 (12845056)
I0403 17:26:09.873013  8794 net.cpp:168] Memory required for data: 1589575872
I0403 17:26:09.873015  8794 layer_factory.hpp:77] Creating layer res2c
I0403 17:26:09.873019  8794 net.cpp:103] Creating Layer res2c
I0403 17:26:09.873023  8794 net.cpp:456] res2c <- res2b_res2b_relu_0_split_1
I0403 17:26:09.873025  8794 net.cpp:456] res2c <- res2c_branch2c
I0403 17:26:09.873029  8794 net.cpp:430] res2c -> res2c
I0403 17:26:09.873052  8794 net.cpp:153] Setting up res2c
I0403 17:26:09.873056  8794 net.cpp:160] Top shape: 16 256 56 56 (12845056)
I0403 17:26:09.873059  8794 net.cpp:168] Memory required for data: 1640956096
I0403 17:26:09.873059  8794 layer_factory.hpp:77] Creating layer res2c_relu
I0403 17:26:09.873064  8794 net.cpp:103] Creating Layer res2c_relu
I0403 17:26:09.873065  8794 net.cpp:456] res2c_relu <- res2c
I0403 17:26:09.873069  8794 net.cpp:417] res2c_relu -> res2c (in-place)
I0403 17:26:09.873210  8794 net.cpp:153] Setting up res2c_relu
I0403 17:26:09.873216  8794 net.cpp:160] Top shape: 16 256 56 56 (12845056)
I0403 17:26:09.873219  8794 net.cpp:168] Memory required for data: 1692336320
I0403 17:26:09.873221  8794 layer_factory.hpp:77] Creating layer res2c_res2c_relu_0_split
I0403 17:26:09.873226  8794 net.cpp:103] Creating Layer res2c_res2c_relu_0_split
I0403 17:26:09.873229  8794 net.cpp:456] res2c_res2c_relu_0_split <- res2c
I0403 17:26:09.873231  8794 net.cpp:430] res2c_res2c_relu_0_split -> res2c_res2c_relu_0_split_0
I0403 17:26:09.873236  8794 net.cpp:430] res2c_res2c_relu_0_split -> res2c_res2c_relu_0_split_1
I0403 17:26:09.873263  8794 net.cpp:153] Setting up res2c_res2c_relu_0_split
I0403 17:26:09.873267  8794 net.cpp:160] Top shape: 16 256 56 56 (12845056)
I0403 17:26:09.873270  8794 net.cpp:160] Top shape: 16 256 56 56 (12845056)
I0403 17:26:09.873271  8794 net.cpp:168] Memory required for data: 1795096768
I0403 17:26:09.873273  8794 layer_factory.hpp:77] Creating layer res3a_branch1
I0403 17:26:09.873277  8794 net.cpp:103] Creating Layer res3a_branch1
I0403 17:26:09.873281  8794 net.cpp:456] res3a_branch1 <- res2c_res2c_relu_0_split_0
I0403 17:26:09.873286  8794 net.cpp:430] res3a_branch1 -> res3a_branch1
I0403 17:26:09.874979  8794 net.cpp:153] Setting up res3a_branch1
I0403 17:26:09.875001  8794 net.cpp:160] Top shape: 16 512 28 28 (6422528)
I0403 17:26:09.875005  8794 net.cpp:168] Memory required for data: 1820786880
I0403 17:26:09.875008  8794 layer_factory.hpp:77] Creating layer bn3a_branch1
I0403 17:26:09.875015  8794 net.cpp:103] Creating Layer bn3a_branch1
I0403 17:26:09.875016  8794 net.cpp:456] bn3a_branch1 <- res3a_branch1
I0403 17:26:09.875021  8794 net.cpp:417] bn3a_branch1 -> res3a_branch1 (in-place)
I0403 17:26:09.875668  8794 net.cpp:153] Setting up bn3a_branch1
I0403 17:26:09.875676  8794 net.cpp:160] Top shape: 16 512 28 28 (6422528)
I0403 17:26:09.875679  8794 net.cpp:168] Memory required for data: 1846476992
I0403 17:26:09.875684  8794 layer_factory.hpp:77] Creating layer scale3a_branch1
I0403 17:26:09.875689  8794 net.cpp:103] Creating Layer scale3a_branch1
I0403 17:26:09.875692  8794 net.cpp:456] scale3a_branch1 <- res3a_branch1
I0403 17:26:09.875695  8794 net.cpp:417] scale3a_branch1 -> res3a_branch1 (in-place)
I0403 17:26:09.875738  8794 layer_factory.hpp:77] Creating layer scale3a_branch1
I0403 17:26:09.875830  8794 net.cpp:153] Setting up scale3a_branch1
I0403 17:26:09.875835  8794 net.cpp:160] Top shape: 16 512 28 28 (6422528)
I0403 17:26:09.875838  8794 net.cpp:168] Memory required for data: 1872167104
I0403 17:26:09.875840  8794 layer_factory.hpp:77] Creating layer res3a_branch2a
I0403 17:26:09.875856  8794 net.cpp:103] Creating Layer res3a_branch2a
I0403 17:26:09.875859  8794 net.cpp:456] res3a_branch2a <- res2c_res2c_relu_0_split_1
I0403 17:26:09.875864  8794 net.cpp:430] res3a_branch2a -> res3a_branch2a
I0403 17:26:09.876987  8794 net.cpp:153] Setting up res3a_branch2a
I0403 17:26:09.876997  8794 net.cpp:160] Top shape: 16 128 28 28 (1605632)
I0403 17:26:09.877001  8794 net.cpp:168] Memory required for data: 1878589632
I0403 17:26:09.877004  8794 layer_factory.hpp:77] Creating layer bn3a_branch2a
I0403 17:26:09.877008  8794 net.cpp:103] Creating Layer bn3a_branch2a
I0403 17:26:09.877010  8794 net.cpp:456] bn3a_branch2a <- res3a_branch2a
I0403 17:26:09.877014  8794 net.cpp:417] bn3a_branch2a -> res3a_branch2a (in-place)
I0403 17:26:09.877148  8794 net.cpp:153] Setting up bn3a_branch2a
I0403 17:26:09.877152  8794 net.cpp:160] Top shape: 16 128 28 28 (1605632)
I0403 17:26:09.877154  8794 net.cpp:168] Memory required for data: 1885012160
I0403 17:26:09.877159  8794 layer_factory.hpp:77] Creating layer scale3a_branch2a
I0403 17:26:09.877163  8794 net.cpp:103] Creating Layer scale3a_branch2a
I0403 17:26:09.877166  8794 net.cpp:456] scale3a_branch2a <- res3a_branch2a
I0403 17:26:09.877171  8794 net.cpp:417] scale3a_branch2a -> res3a_branch2a (in-place)
I0403 17:26:09.877197  8794 layer_factory.hpp:77] Creating layer scale3a_branch2a
I0403 17:26:09.877270  8794 net.cpp:153] Setting up scale3a_branch2a
I0403 17:26:09.877275  8794 net.cpp:160] Top shape: 16 128 28 28 (1605632)
I0403 17:26:09.877276  8794 net.cpp:168] Memory required for data: 1891434688
I0403 17:26:09.877280  8794 layer_factory.hpp:77] Creating layer res3a_branch2a_relu
I0403 17:26:09.877284  8794 net.cpp:103] Creating Layer res3a_branch2a_relu
I0403 17:26:09.877285  8794 net.cpp:456] res3a_branch2a_relu <- res3a_branch2a
I0403 17:26:09.877290  8794 net.cpp:417] res3a_branch2a_relu -> res3a_branch2a (in-place)
I0403 17:26:09.877426  8794 net.cpp:153] Setting up res3a_branch2a_relu
I0403 17:26:09.877432  8794 net.cpp:160] Top shape: 16 128 28 28 (1605632)
I0403 17:26:09.877434  8794 net.cpp:168] Memory required for data: 1897857216
I0403 17:26:09.877435  8794 layer_factory.hpp:77] Creating layer res3a_branch2b
I0403 17:26:09.877441  8794 net.cpp:103] Creating Layer res3a_branch2b
I0403 17:26:09.877444  8794 net.cpp:456] res3a_branch2b <- res3a_branch2a
I0403 17:26:09.877449  8794 net.cpp:430] res3a_branch2b -> res3a_branch2b
I0403 17:26:09.878612  8794 net.cpp:153] Setting up res3a_branch2b
I0403 17:26:09.878621  8794 net.cpp:160] Top shape: 16 128 28 28 (1605632)
I0403 17:26:09.878623  8794 net.cpp:168] Memory required for data: 1904279744
I0403 17:26:09.878628  8794 layer_factory.hpp:77] Creating layer bn3a_branch2b
I0403 17:26:09.878643  8794 net.cpp:103] Creating Layer bn3a_branch2b
I0403 17:26:09.878645  8794 net.cpp:456] bn3a_branch2b <- res3a_branch2b
I0403 17:26:09.878660  8794 net.cpp:417] bn3a_branch2b -> res3a_branch2b (in-place)
I0403 17:26:09.878818  8794 net.cpp:153] Setting up bn3a_branch2b
I0403 17:26:09.878821  8794 net.cpp:160] Top shape: 16 128 28 28 (1605632)
I0403 17:26:09.878823  8794 net.cpp:168] Memory required for data: 1910702272
I0403 17:26:09.878828  8794 layer_factory.hpp:77] Creating layer scale3a_branch2b
I0403 17:26:09.878844  8794 net.cpp:103] Creating Layer scale3a_branch2b
I0403 17:26:09.878846  8794 net.cpp:456] scale3a_branch2b <- res3a_branch2b
I0403 17:26:09.878849  8794 net.cpp:417] scale3a_branch2b -> res3a_branch2b (in-place)
I0403 17:26:09.878887  8794 layer_factory.hpp:77] Creating layer scale3a_branch2b
I0403 17:26:09.878983  8794 net.cpp:153] Setting up scale3a_branch2b
I0403 17:26:09.878986  8794 net.cpp:160] Top shape: 16 128 28 28 (1605632)
I0403 17:26:09.878988  8794 net.cpp:168] Memory required for data: 1917124800
I0403 17:26:09.878991  8794 layer_factory.hpp:77] Creating layer res3a_branch2b_relu
I0403 17:26:09.879006  8794 net.cpp:103] Creating Layer res3a_branch2b_relu
I0403 17:26:09.879009  8794 net.cpp:456] res3a_branch2b_relu <- res3a_branch2b
I0403 17:26:09.879012  8794 net.cpp:417] res3a_branch2b_relu -> res3a_branch2b (in-place)
I0403 17:26:09.879422  8794 net.cpp:153] Setting up res3a_branch2b_relu
I0403 17:26:09.879431  8794 net.cpp:160] Top shape: 16 128 28 28 (1605632)
I0403 17:26:09.879433  8794 net.cpp:168] Memory required for data: 1923547328
I0403 17:26:09.879436  8794 layer_factory.hpp:77] Creating layer res3a_branch2c
I0403 17:26:09.879448  8794 net.cpp:103] Creating Layer res3a_branch2c
I0403 17:26:09.879451  8794 net.cpp:456] res3a_branch2c <- res3a_branch2b
I0403 17:26:09.879456  8794 net.cpp:430] res3a_branch2c -> res3a_branch2c
I0403 17:26:09.880309  8794 net.cpp:153] Setting up res3a_branch2c
I0403 17:26:09.880318  8794 net.cpp:160] Top shape: 16 512 28 28 (6422528)
I0403 17:26:09.880321  8794 net.cpp:168] Memory required for data: 1949237440
I0403 17:26:09.880336  8794 layer_factory.hpp:77] Creating layer bn3a_branch2c
I0403 17:26:09.880340  8794 net.cpp:103] Creating Layer bn3a_branch2c
I0403 17:26:09.880343  8794 net.cpp:456] bn3a_branch2c <- res3a_branch2c
I0403 17:26:09.880347  8794 net.cpp:417] bn3a_branch2c -> res3a_branch2c (in-place)
I0403 17:26:09.880486  8794 net.cpp:153] Setting up bn3a_branch2c
I0403 17:26:09.880491  8794 net.cpp:160] Top shape: 16 512 28 28 (6422528)
I0403 17:26:09.880491  8794 net.cpp:168] Memory required for data: 1974927552
I0403 17:26:09.880506  8794 layer_factory.hpp:77] Creating layer scale3a_branch2c
I0403 17:26:09.880512  8794 net.cpp:103] Creating Layer scale3a_branch2c
I0403 17:26:09.880514  8794 net.cpp:456] scale3a_branch2c <- res3a_branch2c
I0403 17:26:09.880517  8794 net.cpp:417] scale3a_branch2c -> res3a_branch2c (in-place)
I0403 17:26:09.880555  8794 layer_factory.hpp:77] Creating layer scale3a_branch2c
I0403 17:26:09.880647  8794 net.cpp:153] Setting up scale3a_branch2c
I0403 17:26:09.880652  8794 net.cpp:160] Top shape: 16 512 28 28 (6422528)
I0403 17:26:09.880655  8794 net.cpp:168] Memory required for data: 2000617664
I0403 17:26:09.880657  8794 layer_factory.hpp:77] Creating layer res3a
I0403 17:26:09.880671  8794 net.cpp:103] Creating Layer res3a
I0403 17:26:09.880674  8794 net.cpp:456] res3a <- res3a_branch1
I0403 17:26:09.880677  8794 net.cpp:456] res3a <- res3a_branch2c
I0403 17:26:09.880681  8794 net.cpp:430] res3a -> res3a
I0403 17:26:09.880705  8794 net.cpp:153] Setting up res3a
I0403 17:26:09.880709  8794 net.cpp:160] Top shape: 16 512 28 28 (6422528)
I0403 17:26:09.880712  8794 net.cpp:168] Memory required for data: 2026307776
I0403 17:26:09.880712  8794 layer_factory.hpp:77] Creating layer res3a_relu
I0403 17:26:09.880715  8794 net.cpp:103] Creating Layer res3a_relu
I0403 17:26:09.880717  8794 net.cpp:456] res3a_relu <- res3a
I0403 17:26:09.880720  8794 net.cpp:417] res3a_relu -> res3a (in-place)
I0403 17:26:09.880865  8794 net.cpp:153] Setting up res3a_relu
I0403 17:26:09.880872  8794 net.cpp:160] Top shape: 16 512 28 28 (6422528)
I0403 17:26:09.880874  8794 net.cpp:168] Memory required for data: 2051997888
I0403 17:26:09.880877  8794 layer_factory.hpp:77] Creating layer res3a_res3a_relu_0_split
I0403 17:26:09.880880  8794 net.cpp:103] Creating Layer res3a_res3a_relu_0_split
I0403 17:26:09.880882  8794 net.cpp:456] res3a_res3a_relu_0_split <- res3a
I0403 17:26:09.880887  8794 net.cpp:430] res3a_res3a_relu_0_split -> res3a_res3a_relu_0_split_0
I0403 17:26:09.880894  8794 net.cpp:430] res3a_res3a_relu_0_split -> res3a_res3a_relu_0_split_1
I0403 17:26:09.880923  8794 net.cpp:153] Setting up res3a_res3a_relu_0_split
I0403 17:26:09.880928  8794 net.cpp:160] Top shape: 16 512 28 28 (6422528)
I0403 17:26:09.880931  8794 net.cpp:160] Top shape: 16 512 28 28 (6422528)
I0403 17:26:09.880934  8794 net.cpp:168] Memory required for data: 2103378112
I0403 17:26:09.880934  8794 layer_factory.hpp:77] Creating layer res3b_branch2a
I0403 17:26:09.880939  8794 net.cpp:103] Creating Layer res3b_branch2a
I0403 17:26:09.880942  8794 net.cpp:456] res3b_branch2a <- res3a_res3a_relu_0_split_0
I0403 17:26:09.880946  8794 net.cpp:430] res3b_branch2a -> res3b_branch2a
I0403 17:26:09.881795  8794 net.cpp:153] Setting up res3b_branch2a
I0403 17:26:09.881804  8794 net.cpp:160] Top shape: 16 128 28 28 (1605632)
I0403 17:26:09.881808  8794 net.cpp:168] Memory required for data: 2109800640
I0403 17:26:09.881810  8794 layer_factory.hpp:77] Creating layer bn3b_branch2a
I0403 17:26:09.881815  8794 net.cpp:103] Creating Layer bn3b_branch2a
I0403 17:26:09.881819  8794 net.cpp:456] bn3b_branch2a <- res3b_branch2a
I0403 17:26:09.881822  8794 net.cpp:417] bn3b_branch2a -> res3b_branch2a (in-place)
I0403 17:26:09.881956  8794 net.cpp:153] Setting up bn3b_branch2a
I0403 17:26:09.881961  8794 net.cpp:160] Top shape: 16 128 28 28 (1605632)
I0403 17:26:09.881963  8794 net.cpp:168] Memory required for data: 2116223168
I0403 17:26:09.881968  8794 layer_factory.hpp:77] Creating layer scale3b_branch2a
I0403 17:26:09.881971  8794 net.cpp:103] Creating Layer scale3b_branch2a
I0403 17:26:09.881974  8794 net.cpp:456] scale3b_branch2a <- res3b_branch2a
I0403 17:26:09.881978  8794 net.cpp:417] scale3b_branch2a -> res3b_branch2a (in-place)
I0403 17:26:09.882005  8794 layer_factory.hpp:77] Creating layer scale3b_branch2a
I0403 17:26:09.882082  8794 net.cpp:153] Setting up scale3b_branch2a
I0403 17:26:09.882095  8794 net.cpp:160] Top shape: 16 128 28 28 (1605632)
I0403 17:26:09.882097  8794 net.cpp:168] Memory required for data: 2122645696
I0403 17:26:09.882102  8794 layer_factory.hpp:77] Creating layer res3b_branch2a_relu
I0403 17:26:09.882105  8794 net.cpp:103] Creating Layer res3b_branch2a_relu
I0403 17:26:09.882107  8794 net.cpp:456] res3b_branch2a_relu <- res3b_branch2a
I0403 17:26:09.882112  8794 net.cpp:417] res3b_branch2a_relu -> res3b_branch2a (in-place)
I0403 17:26:09.882247  8794 net.cpp:153] Setting up res3b_branch2a_relu
I0403 17:26:09.882253  8794 net.cpp:160] Top shape: 16 128 28 28 (1605632)
I0403 17:26:09.882256  8794 net.cpp:168] Memory required for data: 2129068224
I0403 17:26:09.882257  8794 layer_factory.hpp:77] Creating layer res3b_branch2b
I0403 17:26:09.882263  8794 net.cpp:103] Creating Layer res3b_branch2b
I0403 17:26:09.882266  8794 net.cpp:456] res3b_branch2b <- res3b_branch2a
I0403 17:26:09.882270  8794 net.cpp:430] res3b_branch2b -> res3b_branch2b
I0403 17:26:09.883471  8794 net.cpp:153] Setting up res3b_branch2b
I0403 17:26:09.883481  8794 net.cpp:160] Top shape: 16 128 28 28 (1605632)
I0403 17:26:09.883483  8794 net.cpp:168] Memory required for data: 2135490752
I0403 17:26:09.883486  8794 layer_factory.hpp:77] Creating layer bn3b_branch2b
I0403 17:26:09.883491  8794 net.cpp:103] Creating Layer bn3b_branch2b
I0403 17:26:09.883494  8794 net.cpp:456] bn3b_branch2b <- res3b_branch2b
I0403 17:26:09.883498  8794 net.cpp:417] bn3b_branch2b -> res3b_branch2b (in-place)
I0403 17:26:09.883641  8794 net.cpp:153] Setting up bn3b_branch2b
I0403 17:26:09.883656  8794 net.cpp:160] Top shape: 16 128 28 28 (1605632)
I0403 17:26:09.883658  8794 net.cpp:168] Memory required for data: 2141913280
I0403 17:26:09.883662  8794 layer_factory.hpp:77] Creating layer scale3b_branch2b
I0403 17:26:09.883667  8794 net.cpp:103] Creating Layer scale3b_branch2b
I0403 17:26:09.883671  8794 net.cpp:456] scale3b_branch2b <- res3b_branch2b
I0403 17:26:09.883674  8794 net.cpp:417] scale3b_branch2b -> res3b_branch2b (in-place)
I0403 17:26:09.883704  8794 layer_factory.hpp:77] Creating layer scale3b_branch2b
I0403 17:26:09.883780  8794 net.cpp:153] Setting up scale3b_branch2b
I0403 17:26:09.883785  8794 net.cpp:160] Top shape: 16 128 28 28 (1605632)
I0403 17:26:09.883786  8794 net.cpp:168] Memory required for data: 2148335808
I0403 17:26:09.883790  8794 layer_factory.hpp:77] Creating layer res3b_branch2b_relu
I0403 17:26:09.883793  8794 net.cpp:103] Creating Layer res3b_branch2b_relu
I0403 17:26:09.883795  8794 net.cpp:456] res3b_branch2b_relu <- res3b_branch2b
I0403 17:26:09.883800  8794 net.cpp:417] res3b_branch2b_relu -> res3b_branch2b (in-place)
I0403 17:26:09.884213  8794 net.cpp:153] Setting up res3b_branch2b_relu
I0403 17:26:09.884222  8794 net.cpp:160] Top shape: 16 128 28 28 (1605632)
I0403 17:26:09.884223  8794 net.cpp:168] Memory required for data: 2154758336
I0403 17:26:09.884225  8794 layer_factory.hpp:77] Creating layer res3b_branch2c
I0403 17:26:09.884232  8794 net.cpp:103] Creating Layer res3b_branch2c
I0403 17:26:09.884235  8794 net.cpp:456] res3b_branch2c <- res3b_branch2b
I0403 17:26:09.884239  8794 net.cpp:430] res3b_branch2c -> res3b_branch2c
I0403 17:26:09.885092  8794 net.cpp:153] Setting up res3b_branch2c
I0403 17:26:09.885100  8794 net.cpp:160] Top shape: 16 512 28 28 (6422528)
I0403 17:26:09.885102  8794 net.cpp:168] Memory required for data: 2180448448
I0403 17:26:09.885107  8794 layer_factory.hpp:77] Creating layer bn3b_branch2c
I0403 17:26:09.885112  8794 net.cpp:103] Creating Layer bn3b_branch2c
I0403 17:26:09.885114  8794 net.cpp:456] bn3b_branch2c <- res3b_branch2c
I0403 17:26:09.885118  8794 net.cpp:417] bn3b_branch2c -> res3b_branch2c (in-place)
I0403 17:26:09.885257  8794 net.cpp:153] Setting up bn3b_branch2c
I0403 17:26:09.885262  8794 net.cpp:160] Top shape: 16 512 28 28 (6422528)
I0403 17:26:09.885262  8794 net.cpp:168] Memory required for data: 2206138560
I0403 17:26:09.885267  8794 layer_factory.hpp:77] Creating layer scale3b_branch2c
I0403 17:26:09.885272  8794 net.cpp:103] Creating Layer scale3b_branch2c
I0403 17:26:09.885274  8794 net.cpp:456] scale3b_branch2c <- res3b_branch2c
I0403 17:26:09.885277  8794 net.cpp:417] scale3b_branch2c -> res3b_branch2c (in-place)
I0403 17:26:09.885313  8794 layer_factory.hpp:77] Creating layer scale3b_branch2c
I0403 17:26:09.885409  8794 net.cpp:153] Setting up scale3b_branch2c
I0403 17:26:09.885416  8794 net.cpp:160] Top shape: 16 512 28 28 (6422528)
I0403 17:26:09.885417  8794 net.cpp:168] Memory required for data: 2231828672
I0403 17:26:09.885423  8794 layer_factory.hpp:77] Creating layer res3b
I0403 17:26:09.885432  8794 net.cpp:103] Creating Layer res3b
I0403 17:26:09.885435  8794 net.cpp:456] res3b <- res3a_res3a_relu_0_split_1
I0403 17:26:09.885440  8794 net.cpp:456] res3b <- res3b_branch2c
I0403 17:26:09.885445  8794 net.cpp:430] res3b -> res3b
I0403 17:26:09.885488  8794 net.cpp:153] Setting up res3b
I0403 17:26:09.885495  8794 net.cpp:160] Top shape: 16 512 28 28 (6422528)
I0403 17:26:09.885498  8794 net.cpp:168] Memory required for data: 2257518784
I0403 17:26:09.885499  8794 layer_factory.hpp:77] Creating layer res3b_relu
I0403 17:26:09.885502  8794 net.cpp:103] Creating Layer res3b_relu
I0403 17:26:09.885505  8794 net.cpp:456] res3b_relu <- res3b
I0403 17:26:09.885509  8794 net.cpp:417] res3b_relu -> res3b (in-place)
I0403 17:26:09.885648  8794 net.cpp:153] Setting up res3b_relu
I0403 17:26:09.885654  8794 net.cpp:160] Top shape: 16 512 28 28 (6422528)
I0403 17:26:09.885656  8794 net.cpp:168] Memory required for data: 2283208896
I0403 17:26:09.885658  8794 layer_factory.hpp:77] Creating layer res3b_res3b_relu_0_split
I0403 17:26:09.885670  8794 net.cpp:103] Creating Layer res3b_res3b_relu_0_split
I0403 17:26:09.885673  8794 net.cpp:456] res3b_res3b_relu_0_split <- res3b
I0403 17:26:09.885676  8794 net.cpp:430] res3b_res3b_relu_0_split -> res3b_res3b_relu_0_split_0
I0403 17:26:09.885681  8794 net.cpp:430] res3b_res3b_relu_0_split -> res3b_res3b_relu_0_split_1
I0403 17:26:09.885711  8794 net.cpp:153] Setting up res3b_res3b_relu_0_split
I0403 17:26:09.885715  8794 net.cpp:160] Top shape: 16 512 28 28 (6422528)
I0403 17:26:09.885718  8794 net.cpp:160] Top shape: 16 512 28 28 (6422528)
I0403 17:26:09.885720  8794 net.cpp:168] Memory required for data: 2334589120
I0403 17:26:09.885722  8794 layer_factory.hpp:77] Creating layer res3c_branch2a
I0403 17:26:09.885728  8794 net.cpp:103] Creating Layer res3c_branch2a
I0403 17:26:09.885731  8794 net.cpp:456] res3c_branch2a <- res3b_res3b_relu_0_split_0
I0403 17:26:09.885735  8794 net.cpp:430] res3c_branch2a -> res3c_branch2a
I0403 17:26:09.887109  8794 net.cpp:153] Setting up res3c_branch2a
I0403 17:26:09.887118  8794 net.cpp:160] Top shape: 16 128 28 28 (1605632)
I0403 17:26:09.887121  8794 net.cpp:168] Memory required for data: 2341011648
I0403 17:26:09.887125  8794 layer_factory.hpp:77] Creating layer bn3c_branch2a
I0403 17:26:09.887130  8794 net.cpp:103] Creating Layer bn3c_branch2a
I0403 17:26:09.887132  8794 net.cpp:456] bn3c_branch2a <- res3c_branch2a
I0403 17:26:09.887136  8794 net.cpp:417] bn3c_branch2a -> res3c_branch2a (in-place)
I0403 17:26:09.887279  8794 net.cpp:153] Setting up bn3c_branch2a
I0403 17:26:09.887282  8794 net.cpp:160] Top shape: 16 128 28 28 (1605632)
I0403 17:26:09.887284  8794 net.cpp:168] Memory required for data: 2347434176
I0403 17:26:09.887290  8794 layer_factory.hpp:77] Creating layer scale3c_branch2a
I0403 17:26:09.887293  8794 net.cpp:103] Creating Layer scale3c_branch2a
I0403 17:26:09.887296  8794 net.cpp:456] scale3c_branch2a <- res3c_branch2a
I0403 17:26:09.887300  8794 net.cpp:417] scale3c_branch2a -> res3c_branch2a (in-place)
I0403 17:26:09.887329  8794 layer_factory.hpp:77] Creating layer scale3c_branch2a
I0403 17:26:09.887406  8794 net.cpp:153] Setting up scale3c_branch2a
I0403 17:26:09.887411  8794 net.cpp:160] Top shape: 16 128 28 28 (1605632)
I0403 17:26:09.887413  8794 net.cpp:168] Memory required for data: 2353856704
I0403 17:26:09.887416  8794 layer_factory.hpp:77] Creating layer res3c_branch2a_relu
I0403 17:26:09.887420  8794 net.cpp:103] Creating Layer res3c_branch2a_relu
I0403 17:26:09.887423  8794 net.cpp:456] res3c_branch2a_relu <- res3c_branch2a
I0403 17:26:09.887426  8794 net.cpp:417] res3c_branch2a_relu -> res3c_branch2a (in-place)
I0403 17:26:09.887564  8794 net.cpp:153] Setting up res3c_branch2a_relu
I0403 17:26:09.887570  8794 net.cpp:160] Top shape: 16 128 28 28 (1605632)
I0403 17:26:09.887573  8794 net.cpp:168] Memory required for data: 2360279232
I0403 17:26:09.887574  8794 layer_factory.hpp:77] Creating layer res3c_branch2b
I0403 17:26:09.887579  8794 net.cpp:103] Creating Layer res3c_branch2b
I0403 17:26:09.887583  8794 net.cpp:456] res3c_branch2b <- res3c_branch2a
I0403 17:26:09.887586  8794 net.cpp:430] res3c_branch2b -> res3c_branch2b
I0403 17:26:09.889394  8794 net.cpp:153] Setting up res3c_branch2b
I0403 17:26:09.889405  8794 net.cpp:160] Top shape: 16 128 28 28 (1605632)
I0403 17:26:09.889406  8794 net.cpp:168] Memory required for data: 2366701760
I0403 17:26:09.889410  8794 layer_factory.hpp:77] Creating layer bn3c_branch2b
I0403 17:26:09.889416  8794 net.cpp:103] Creating Layer bn3c_branch2b
I0403 17:26:09.889420  8794 net.cpp:456] bn3c_branch2b <- res3c_branch2b
I0403 17:26:09.889425  8794 net.cpp:417] bn3c_branch2b -> res3c_branch2b (in-place)
I0403 17:26:09.889572  8794 net.cpp:153] Setting up bn3c_branch2b
I0403 17:26:09.889577  8794 net.cpp:160] Top shape: 16 128 28 28 (1605632)
I0403 17:26:09.889578  8794 net.cpp:168] Memory required for data: 2373124288
I0403 17:26:09.889583  8794 layer_factory.hpp:77] Creating layer scale3c_branch2b
I0403 17:26:09.889588  8794 net.cpp:103] Creating Layer scale3c_branch2b
I0403 17:26:09.889600  8794 net.cpp:456] scale3c_branch2b <- res3c_branch2b
I0403 17:26:09.889605  8794 net.cpp:417] scale3c_branch2b -> res3c_branch2b (in-place)
I0403 17:26:09.889647  8794 layer_factory.hpp:77] Creating layer scale3c_branch2b
I0403 17:26:09.889739  8794 net.cpp:153] Setting up scale3c_branch2b
I0403 17:26:09.889744  8794 net.cpp:160] Top shape: 16 128 28 28 (1605632)
I0403 17:26:09.889745  8794 net.cpp:168] Memory required for data: 2379546816
I0403 17:26:09.889749  8794 layer_factory.hpp:77] Creating layer res3c_branch2b_relu
I0403 17:26:09.889752  8794 net.cpp:103] Creating Layer res3c_branch2b_relu
I0403 17:26:09.889755  8794 net.cpp:456] res3c_branch2b_relu <- res3c_branch2b
I0403 17:26:09.889760  8794 net.cpp:417] res3c_branch2b_relu -> res3c_branch2b (in-place)
I0403 17:26:09.889899  8794 net.cpp:153] Setting up res3c_branch2b_relu
I0403 17:26:09.889905  8794 net.cpp:160] Top shape: 16 128 28 28 (1605632)
I0403 17:26:09.889907  8794 net.cpp:168] Memory required for data: 2385969344
I0403 17:26:09.889909  8794 layer_factory.hpp:77] Creating layer res3c_branch2c
I0403 17:26:09.889915  8794 net.cpp:103] Creating Layer res3c_branch2c
I0403 17:26:09.889919  8794 net.cpp:456] res3c_branch2c <- res3c_branch2b
I0403 17:26:09.889922  8794 net.cpp:430] res3c_branch2c -> res3c_branch2c
I0403 17:26:09.890810  8794 net.cpp:153] Setting up res3c_branch2c
I0403 17:26:09.890820  8794 net.cpp:160] Top shape: 16 512 28 28 (6422528)
I0403 17:26:09.890823  8794 net.cpp:168] Memory required for data: 2411659456
I0403 17:26:09.890826  8794 layer_factory.hpp:77] Creating layer bn3c_branch2c
I0403 17:26:09.890830  8794 net.cpp:103] Creating Layer bn3c_branch2c
I0403 17:26:09.890832  8794 net.cpp:456] bn3c_branch2c <- res3c_branch2c
I0403 17:26:09.890836  8794 net.cpp:417] bn3c_branch2c -> res3c_branch2c (in-place)
I0403 17:26:09.890985  8794 net.cpp:153] Setting up bn3c_branch2c
I0403 17:26:09.890988  8794 net.cpp:160] Top shape: 16 512 28 28 (6422528)
I0403 17:26:09.890990  8794 net.cpp:168] Memory required for data: 2437349568
I0403 17:26:09.891005  8794 layer_factory.hpp:77] Creating layer scale3c_branch2c
I0403 17:26:09.891008  8794 net.cpp:103] Creating Layer scale3c_branch2c
I0403 17:26:09.891010  8794 net.cpp:456] scale3c_branch2c <- res3c_branch2c
I0403 17:26:09.891014  8794 net.cpp:417] scale3c_branch2c -> res3c_branch2c (in-place)
I0403 17:26:09.891052  8794 layer_factory.hpp:77] Creating layer scale3c_branch2c
I0403 17:26:09.891149  8794 net.cpp:153] Setting up scale3c_branch2c
I0403 17:26:09.891153  8794 net.cpp:160] Top shape: 16 512 28 28 (6422528)
I0403 17:26:09.891155  8794 net.cpp:168] Memory required for data: 2463039680
I0403 17:26:09.891167  8794 layer_factory.hpp:77] Creating layer res3c
I0403 17:26:09.891171  8794 net.cpp:103] Creating Layer res3c
I0403 17:26:09.891173  8794 net.cpp:456] res3c <- res3b_res3b_relu_0_split_1
I0403 17:26:09.891176  8794 net.cpp:456] res3c <- res3c_branch2c
I0403 17:26:09.891181  8794 net.cpp:430] res3c -> res3c
I0403 17:26:09.891219  8794 net.cpp:153] Setting up res3c
I0403 17:26:09.891222  8794 net.cpp:160] Top shape: 16 512 28 28 (6422528)
I0403 17:26:09.891224  8794 net.cpp:168] Memory required for data: 2488729792
I0403 17:26:09.891227  8794 layer_factory.hpp:77] Creating layer res3c_relu
I0403 17:26:09.891239  8794 net.cpp:103] Creating Layer res3c_relu
I0403 17:26:09.891242  8794 net.cpp:456] res3c_relu <- res3c
I0403 17:26:09.891244  8794 net.cpp:417] res3c_relu -> res3c (in-place)
I0403 17:26:09.891667  8794 net.cpp:153] Setting up res3c_relu
I0403 17:26:09.891676  8794 net.cpp:160] Top shape: 16 512 28 28 (6422528)
I0403 17:26:09.891687  8794 net.cpp:168] Memory required for data: 2514419904
I0403 17:26:09.891690  8794 layer_factory.hpp:77] Creating layer res3c_res3c_relu_0_split
I0403 17:26:09.891695  8794 net.cpp:103] Creating Layer res3c_res3c_relu_0_split
I0403 17:26:09.891696  8794 net.cpp:456] res3c_res3c_relu_0_split <- res3c
I0403 17:26:09.891701  8794 net.cpp:430] res3c_res3c_relu_0_split -> res3c_res3c_relu_0_split_0
I0403 17:26:09.891705  8794 net.cpp:430] res3c_res3c_relu_0_split -> res3c_res3c_relu_0_split_1
I0403 17:26:09.891746  8794 net.cpp:153] Setting up res3c_res3c_relu_0_split
I0403 17:26:09.891750  8794 net.cpp:160] Top shape: 16 512 28 28 (6422528)
I0403 17:26:09.891753  8794 net.cpp:160] Top shape: 16 512 28 28 (6422528)
I0403 17:26:09.891755  8794 net.cpp:168] Memory required for data: 2565800128
I0403 17:26:09.891757  8794 layer_factory.hpp:77] Creating layer res3d_branch2a
I0403 17:26:09.891762  8794 net.cpp:103] Creating Layer res3d_branch2a
I0403 17:26:09.891767  8794 net.cpp:456] res3d_branch2a <- res3c_res3c_relu_0_split_0
I0403 17:26:09.891769  8794 net.cpp:430] res3d_branch2a -> res3d_branch2a
I0403 17:26:09.893151  8794 net.cpp:153] Setting up res3d_branch2a
I0403 17:26:09.893160  8794 net.cpp:160] Top shape: 16 128 28 28 (1605632)
I0403 17:26:09.893163  8794 net.cpp:168] Memory required for data: 2572222656
I0403 17:26:09.893167  8794 layer_factory.hpp:77] Creating layer bn3d_branch2a
I0403 17:26:09.893172  8794 net.cpp:103] Creating Layer bn3d_branch2a
I0403 17:26:09.893175  8794 net.cpp:456] bn3d_branch2a <- res3d_branch2a
I0403 17:26:09.893178  8794 net.cpp:417] bn3d_branch2a -> res3d_branch2a (in-place)
I0403 17:26:09.893323  8794 net.cpp:153] Setting up bn3d_branch2a
I0403 17:26:09.893327  8794 net.cpp:160] Top shape: 16 128 28 28 (1605632)
I0403 17:26:09.893329  8794 net.cpp:168] Memory required for data: 2578645184
I0403 17:26:09.893343  8794 layer_factory.hpp:77] Creating layer scale3d_branch2a
I0403 17:26:09.893349  8794 net.cpp:103] Creating Layer scale3d_branch2a
I0403 17:26:09.893352  8794 net.cpp:456] scale3d_branch2a <- res3d_branch2a
I0403 17:26:09.893355  8794 net.cpp:417] scale3d_branch2a -> res3d_branch2a (in-place)
I0403 17:26:09.893386  8794 layer_factory.hpp:77] Creating layer scale3d_branch2a
I0403 17:26:09.893466  8794 net.cpp:153] Setting up scale3d_branch2a
I0403 17:26:09.893471  8794 net.cpp:160] Top shape: 16 128 28 28 (1605632)
I0403 17:26:09.893473  8794 net.cpp:168] Memory required for data: 2585067712
I0403 17:26:09.893476  8794 layer_factory.hpp:77] Creating layer res3d_branch2a_relu
I0403 17:26:09.893482  8794 net.cpp:103] Creating Layer res3d_branch2a_relu
I0403 17:26:09.893484  8794 net.cpp:456] res3d_branch2a_relu <- res3d_branch2a
I0403 17:26:09.893487  8794 net.cpp:417] res3d_branch2a_relu -> res3d_branch2a (in-place)
I0403 17:26:09.893632  8794 net.cpp:153] Setting up res3d_branch2a_relu
I0403 17:26:09.893638  8794 net.cpp:160] Top shape: 16 128 28 28 (1605632)
I0403 17:26:09.893640  8794 net.cpp:168] Memory required for data: 2591490240
I0403 17:26:09.893642  8794 layer_factory.hpp:77] Creating layer res3d_branch2b
I0403 17:26:09.893647  8794 net.cpp:103] Creating Layer res3d_branch2b
I0403 17:26:09.893651  8794 net.cpp:456] res3d_branch2b <- res3d_branch2a
I0403 17:26:09.893656  8794 net.cpp:430] res3d_branch2b -> res3d_branch2b
I0403 17:26:09.894810  8794 net.cpp:153] Setting up res3d_branch2b
I0403 17:26:09.894820  8794 net.cpp:160] Top shape: 16 128 28 28 (1605632)
I0403 17:26:09.894831  8794 net.cpp:168] Memory required for data: 2597912768
I0403 17:26:09.894835  8794 layer_factory.hpp:77] Creating layer bn3d_branch2b
I0403 17:26:09.894840  8794 net.cpp:103] Creating Layer bn3d_branch2b
I0403 17:26:09.894845  8794 net.cpp:456] bn3d_branch2b <- res3d_branch2b
I0403 17:26:09.894847  8794 net.cpp:417] bn3d_branch2b -> res3d_branch2b (in-place)
I0403 17:26:09.895000  8794 net.cpp:153] Setting up bn3d_branch2b
I0403 17:26:09.895005  8794 net.cpp:160] Top shape: 16 128 28 28 (1605632)
I0403 17:26:09.895007  8794 net.cpp:168] Memory required for data: 2604335296
I0403 17:26:09.895021  8794 layer_factory.hpp:77] Creating layer scale3d_branch2b
I0403 17:26:09.895025  8794 net.cpp:103] Creating Layer scale3d_branch2b
I0403 17:26:09.895027  8794 net.cpp:456] scale3d_branch2b <- res3d_branch2b
I0403 17:26:09.895030  8794 net.cpp:417] scale3d_branch2b -> res3d_branch2b (in-place)
I0403 17:26:09.895071  8794 layer_factory.hpp:77] Creating layer scale3d_branch2b
I0403 17:26:09.895169  8794 net.cpp:153] Setting up scale3d_branch2b
I0403 17:26:09.895182  8794 net.cpp:160] Top shape: 16 128 28 28 (1605632)
I0403 17:26:09.895195  8794 net.cpp:168] Memory required for data: 2610757824
I0403 17:26:09.895198  8794 layer_factory.hpp:77] Creating layer res3d_branch2b_relu
I0403 17:26:09.895202  8794 net.cpp:103] Creating Layer res3d_branch2b_relu
I0403 17:26:09.895205  8794 net.cpp:456] res3d_branch2b_relu <- res3d_branch2b
I0403 17:26:09.895207  8794 net.cpp:417] res3d_branch2b_relu -> res3d_branch2b (in-place)
I0403 17:26:09.895360  8794 net.cpp:153] Setting up res3d_branch2b_relu
I0403 17:26:09.895366  8794 net.cpp:160] Top shape: 16 128 28 28 (1605632)
I0403 17:26:09.895367  8794 net.cpp:168] Memory required for data: 2617180352
I0403 17:26:09.895380  8794 layer_factory.hpp:77] Creating layer res3d_branch2c
I0403 17:26:09.895385  8794 net.cpp:103] Creating Layer res3d_branch2c
I0403 17:26:09.895387  8794 net.cpp:456] res3d_branch2c <- res3d_branch2b
I0403 17:26:09.895390  8794 net.cpp:430] res3d_branch2c -> res3d_branch2c
I0403 17:26:09.896263  8794 net.cpp:153] Setting up res3d_branch2c
I0403 17:26:09.896271  8794 net.cpp:160] Top shape: 16 512 28 28 (6422528)
I0403 17:26:09.896283  8794 net.cpp:168] Memory required for data: 2642870464
I0403 17:26:09.896286  8794 layer_factory.hpp:77] Creating layer bn3d_branch2c
I0403 17:26:09.896291  8794 net.cpp:103] Creating Layer bn3d_branch2c
I0403 17:26:09.896293  8794 net.cpp:456] bn3d_branch2c <- res3d_branch2c
I0403 17:26:09.896297  8794 net.cpp:417] bn3d_branch2c -> res3d_branch2c (in-place)
I0403 17:26:09.896445  8794 net.cpp:153] Setting up bn3d_branch2c
I0403 17:26:09.896450  8794 net.cpp:160] Top shape: 16 512 28 28 (6422528)
I0403 17:26:09.896451  8794 net.cpp:168] Memory required for data: 2668560576
I0403 17:26:09.896466  8794 layer_factory.hpp:77] Creating layer scale3d_branch2c
I0403 17:26:09.896471  8794 net.cpp:103] Creating Layer scale3d_branch2c
I0403 17:26:09.896472  8794 net.cpp:456] scale3d_branch2c <- res3d_branch2c
I0403 17:26:09.896476  8794 net.cpp:417] scale3d_branch2c -> res3d_branch2c (in-place)
I0403 17:26:09.896515  8794 layer_factory.hpp:77] Creating layer scale3d_branch2c
I0403 17:26:09.896612  8794 net.cpp:153] Setting up scale3d_branch2c
I0403 17:26:09.896617  8794 net.cpp:160] Top shape: 16 512 28 28 (6422528)
I0403 17:26:09.896618  8794 net.cpp:168] Memory required for data: 2694250688
I0403 17:26:09.896631  8794 layer_factory.hpp:77] Creating layer res3d
I0403 17:26:09.896636  8794 net.cpp:103] Creating Layer res3d
I0403 17:26:09.896639  8794 net.cpp:456] res3d <- res3c_res3c_relu_0_split_1
I0403 17:26:09.896641  8794 net.cpp:456] res3d <- res3d_branch2c
I0403 17:26:09.896644  8794 net.cpp:430] res3d -> res3d
I0403 17:26:09.896672  8794 net.cpp:153] Setting up res3d
I0403 17:26:09.896675  8794 net.cpp:160] Top shape: 16 512 28 28 (6422528)
I0403 17:26:09.896677  8794 net.cpp:168] Memory required for data: 2719940800
I0403 17:26:09.896679  8794 layer_factory.hpp:77] Creating layer res3d_relu
I0403 17:26:09.896682  8794 net.cpp:103] Creating Layer res3d_relu
I0403 17:26:09.896684  8794 net.cpp:456] res3d_relu <- res3d
I0403 17:26:09.896687  8794 net.cpp:417] res3d_relu -> res3d (in-place)
I0403 17:26:09.897104  8794 net.cpp:153] Setting up res3d_relu
I0403 17:26:09.897112  8794 net.cpp:160] Top shape: 16 512 28 28 (6422528)
I0403 17:26:09.897114  8794 net.cpp:168] Memory required for data: 2745630912
I0403 17:26:09.897116  8794 layer_factory.hpp:77] Creating layer res3d_res3d_relu_0_split
I0403 17:26:09.897121  8794 net.cpp:103] Creating Layer res3d_res3d_relu_0_split
I0403 17:26:09.897123  8794 net.cpp:456] res3d_res3d_relu_0_split <- res3d
I0403 17:26:09.897127  8794 net.cpp:430] res3d_res3d_relu_0_split -> res3d_res3d_relu_0_split_0
I0403 17:26:09.897131  8794 net.cpp:430] res3d_res3d_relu_0_split -> res3d_res3d_relu_0_split_1
I0403 17:26:09.897163  8794 net.cpp:153] Setting up res3d_res3d_relu_0_split
I0403 17:26:09.897167  8794 net.cpp:160] Top shape: 16 512 28 28 (6422528)
I0403 17:26:09.897169  8794 net.cpp:160] Top shape: 16 512 28 28 (6422528)
I0403 17:26:09.897179  8794 net.cpp:168] Memory required for data: 2797011136
I0403 17:26:09.897182  8794 layer_factory.hpp:77] Creating layer res4a_branch1
I0403 17:26:09.897188  8794 net.cpp:103] Creating Layer res4a_branch1
I0403 17:26:09.897191  8794 net.cpp:456] res4a_branch1 <- res3d_res3d_relu_0_split_0
I0403 17:26:09.897194  8794 net.cpp:430] res4a_branch1 -> res4a_branch1
I0403 17:26:09.898736  8794 net.cpp:153] Setting up res4a_branch1
I0403 17:26:09.898746  8794 net.cpp:160] Top shape: 16 1024 14 14 (3211264)
I0403 17:26:09.898747  8794 net.cpp:168] Memory required for data: 2809856192
I0403 17:26:09.898751  8794 layer_factory.hpp:77] Creating layer bn4a_branch1
I0403 17:26:09.898756  8794 net.cpp:103] Creating Layer bn4a_branch1
I0403 17:26:09.898758  8794 net.cpp:456] bn4a_branch1 <- res4a_branch1
I0403 17:26:09.898764  8794 net.cpp:417] bn4a_branch1 -> res4a_branch1 (in-place)
I0403 17:26:09.898916  8794 net.cpp:153] Setting up bn4a_branch1
I0403 17:26:09.898921  8794 net.cpp:160] Top shape: 16 1024 14 14 (3211264)
I0403 17:26:09.898923  8794 net.cpp:168] Memory required for data: 2822701248
I0403 17:26:09.898927  8794 layer_factory.hpp:77] Creating layer scale4a_branch1
I0403 17:26:09.898932  8794 net.cpp:103] Creating Layer scale4a_branch1
I0403 17:26:09.898934  8794 net.cpp:456] scale4a_branch1 <- res4a_branch1
I0403 17:26:09.898937  8794 net.cpp:417] scale4a_branch1 -> res4a_branch1 (in-place)
I0403 17:26:09.898975  8794 layer_factory.hpp:77] Creating layer scale4a_branch1
I0403 17:26:09.899078  8794 net.cpp:153] Setting up scale4a_branch1
I0403 17:26:09.899082  8794 net.cpp:160] Top shape: 16 1024 14 14 (3211264)
I0403 17:26:09.899085  8794 net.cpp:168] Memory required for data: 2835546304
I0403 17:26:09.899097  8794 layer_factory.hpp:77] Creating layer res4a_branch2a
I0403 17:26:09.899103  8794 net.cpp:103] Creating Layer res4a_branch2a
I0403 17:26:09.899106  8794 net.cpp:456] res4a_branch2a <- res3d_res3d_relu_0_split_1
I0403 17:26:09.899111  8794 net.cpp:430] res4a_branch2a -> res4a_branch2a
I0403 17:26:09.899998  8794 net.cpp:153] Setting up res4a_branch2a
I0403 17:26:09.900007  8794 net.cpp:160] Top shape: 16 256 14 14 (802816)
I0403 17:26:09.900019  8794 net.cpp:168] Memory required for data: 2838757568
I0403 17:26:09.900022  8794 layer_factory.hpp:77] Creating layer bn4a_branch2a
I0403 17:26:09.900028  8794 net.cpp:103] Creating Layer bn4a_branch2a
I0403 17:26:09.900032  8794 net.cpp:456] bn4a_branch2a <- res4a_branch2a
I0403 17:26:09.900035  8794 net.cpp:417] bn4a_branch2a -> res4a_branch2a (in-place)
I0403 17:26:09.900187  8794 net.cpp:153] Setting up bn4a_branch2a
I0403 17:26:09.900192  8794 net.cpp:160] Top shape: 16 256 14 14 (802816)
I0403 17:26:09.900193  8794 net.cpp:168] Memory required for data: 2841968832
I0403 17:26:09.900207  8794 layer_factory.hpp:77] Creating layer scale4a_branch2a
I0403 17:26:09.900212  8794 net.cpp:103] Creating Layer scale4a_branch2a
I0403 17:26:09.900214  8794 net.cpp:456] scale4a_branch2a <- res4a_branch2a
I0403 17:26:09.900218  8794 net.cpp:417] scale4a_branch2a -> res4a_branch2a (in-place)
I0403 17:26:09.900256  8794 layer_factory.hpp:77] Creating layer scale4a_branch2a
I0403 17:26:09.900348  8794 net.cpp:153] Setting up scale4a_branch2a
I0403 17:26:09.900352  8794 net.cpp:160] Top shape: 16 256 14 14 (802816)
I0403 17:26:09.900354  8794 net.cpp:168] Memory required for data: 2845180096
I0403 17:26:09.900358  8794 layer_factory.hpp:77] Creating layer res4a_branch2a_relu
I0403 17:26:09.900362  8794 net.cpp:103] Creating Layer res4a_branch2a_relu
I0403 17:26:09.900365  8794 net.cpp:456] res4a_branch2a_relu <- res4a_branch2a
I0403 17:26:09.900368  8794 net.cpp:417] res4a_branch2a_relu -> res4a_branch2a (in-place)
I0403 17:26:09.900506  8794 net.cpp:153] Setting up res4a_branch2a_relu
I0403 17:26:09.900512  8794 net.cpp:160] Top shape: 16 256 14 14 (802816)
I0403 17:26:09.900514  8794 net.cpp:168] Memory required for data: 2848391360
I0403 17:26:09.900516  8794 layer_factory.hpp:77] Creating layer res4a_branch2b
I0403 17:26:09.900521  8794 net.cpp:103] Creating Layer res4a_branch2b
I0403 17:26:09.900533  8794 net.cpp:456] res4a_branch2b <- res4a_branch2a
I0403 17:26:09.900538  8794 net.cpp:430] res4a_branch2b -> res4a_branch2b
I0403 17:26:09.902426  8794 net.cpp:153] Setting up res4a_branch2b
I0403 17:26:09.902436  8794 net.cpp:160] Top shape: 16 256 14 14 (802816)
I0403 17:26:09.902448  8794 net.cpp:168] Memory required for data: 2851602624
I0403 17:26:09.902452  8794 layer_factory.hpp:77] Creating layer bn4a_branch2b
I0403 17:26:09.902458  8794 net.cpp:103] Creating Layer bn4a_branch2b
I0403 17:26:09.902462  8794 net.cpp:456] bn4a_branch2b <- res4a_branch2b
I0403 17:26:09.902467  8794 net.cpp:417] bn4a_branch2b -> res4a_branch2b (in-place)
I0403 17:26:09.902626  8794 net.cpp:153] Setting up bn4a_branch2b
I0403 17:26:09.902631  8794 net.cpp:160] Top shape: 16 256 14 14 (802816)
I0403 17:26:09.902632  8794 net.cpp:168] Memory required for data: 2854813888
I0403 17:26:09.902647  8794 layer_factory.hpp:77] Creating layer scale4a_branch2b
I0403 17:26:09.902652  8794 net.cpp:103] Creating Layer scale4a_branch2b
I0403 17:26:09.902654  8794 net.cpp:456] scale4a_branch2b <- res4a_branch2b
I0403 17:26:09.902657  8794 net.cpp:417] scale4a_branch2b -> res4a_branch2b (in-place)
I0403 17:26:09.902699  8794 layer_factory.hpp:77] Creating layer scale4a_branch2b
I0403 17:26:09.902791  8794 net.cpp:153] Setting up scale4a_branch2b
I0403 17:26:09.902796  8794 net.cpp:160] Top shape: 16 256 14 14 (802816)
I0403 17:26:09.902798  8794 net.cpp:168] Memory required for data: 2858025152
I0403 17:26:09.902801  8794 layer_factory.hpp:77] Creating layer res4a_branch2b_relu
I0403 17:26:09.902806  8794 net.cpp:103] Creating Layer res4a_branch2b_relu
I0403 17:26:09.902808  8794 net.cpp:456] res4a_branch2b_relu <- res4a_branch2b
I0403 17:26:09.902812  8794 net.cpp:417] res4a_branch2b_relu -> res4a_branch2b (in-place)
I0403 17:26:09.902954  8794 net.cpp:153] Setting up res4a_branch2b_relu
I0403 17:26:09.902961  8794 net.cpp:160] Top shape: 16 256 14 14 (802816)
I0403 17:26:09.902962  8794 net.cpp:168] Memory required for data: 2861236416
I0403 17:26:09.902964  8794 layer_factory.hpp:77] Creating layer res4a_branch2c
I0403 17:26:09.902971  8794 net.cpp:103] Creating Layer res4a_branch2c
I0403 17:26:09.902973  8794 net.cpp:456] res4a_branch2c <- res4a_branch2b
I0403 17:26:09.902976  8794 net.cpp:430] res4a_branch2c -> res4a_branch2c
I0403 17:26:09.904954  8794 net.cpp:153] Setting up res4a_branch2c
I0403 17:26:09.904979  8794 net.cpp:160] Top shape: 16 1024 14 14 (3211264)
I0403 17:26:09.904981  8794 net.cpp:168] Memory required for data: 2874081472
I0403 17:26:09.904986  8794 layer_factory.hpp:77] Creating layer bn4a_branch2c
I0403 17:26:09.904994  8794 net.cpp:103] Creating Layer bn4a_branch2c
I0403 17:26:09.904997  8794 net.cpp:456] bn4a_branch2c <- res4a_branch2c
I0403 17:26:09.905002  8794 net.cpp:417] bn4a_branch2c -> res4a_branch2c (in-place)
I0403 17:26:09.905179  8794 net.cpp:153] Setting up bn4a_branch2c
I0403 17:26:09.905184  8794 net.cpp:160] Top shape: 16 1024 14 14 (3211264)
I0403 17:26:09.905185  8794 net.cpp:168] Memory required for data: 2886926528
I0403 17:26:09.905190  8794 layer_factory.hpp:77] Creating layer scale4a_branch2c
I0403 17:26:09.905195  8794 net.cpp:103] Creating Layer scale4a_branch2c
I0403 17:26:09.905200  8794 net.cpp:456] scale4a_branch2c <- res4a_branch2c
I0403 17:26:09.905202  8794 net.cpp:417] scale4a_branch2c -> res4a_branch2c (in-place)
I0403 17:26:09.905254  8794 layer_factory.hpp:77] Creating layer scale4a_branch2c
I0403 17:26:09.905341  8794 net.cpp:153] Setting up scale4a_branch2c
I0403 17:26:09.905346  8794 net.cpp:160] Top shape: 16 1024 14 14 (3211264)
I0403 17:26:09.905349  8794 net.cpp:168] Memory required for data: 2899771584
I0403 17:26:09.905351  8794 layer_factory.hpp:77] Creating layer res4a
I0403 17:26:09.905356  8794 net.cpp:103] Creating Layer res4a
I0403 17:26:09.905359  8794 net.cpp:456] res4a <- res4a_branch1
I0403 17:26:09.905361  8794 net.cpp:456] res4a <- res4a_branch2c
I0403 17:26:09.905365  8794 net.cpp:430] res4a -> res4a
I0403 17:26:09.905392  8794 net.cpp:153] Setting up res4a
I0403 17:26:09.905406  8794 net.cpp:160] Top shape: 16 1024 14 14 (3211264)
I0403 17:26:09.905408  8794 net.cpp:168] Memory required for data: 2912616640
I0403 17:26:09.905411  8794 layer_factory.hpp:77] Creating layer res4a_relu
I0403 17:26:09.905414  8794 net.cpp:103] Creating Layer res4a_relu
I0403 17:26:09.905417  8794 net.cpp:456] res4a_relu <- res4a
I0403 17:26:09.905421  8794 net.cpp:417] res4a_relu -> res4a (in-place)
I0403 17:26:09.905858  8794 net.cpp:153] Setting up res4a_relu
I0403 17:26:09.905866  8794 net.cpp:160] Top shape: 16 1024 14 14 (3211264)
I0403 17:26:09.905869  8794 net.cpp:168] Memory required for data: 2925461696
I0403 17:26:09.905870  8794 layer_factory.hpp:77] Creating layer res4a_res4a_relu_0_split
I0403 17:26:09.905890  8794 net.cpp:103] Creating Layer res4a_res4a_relu_0_split
I0403 17:26:09.905894  8794 net.cpp:456] res4a_res4a_relu_0_split <- res4a
I0403 17:26:09.905897  8794 net.cpp:430] res4a_res4a_relu_0_split -> res4a_res4a_relu_0_split_0
I0403 17:26:09.905902  8794 net.cpp:430] res4a_res4a_relu_0_split -> res4a_res4a_relu_0_split_1
I0403 17:26:09.905933  8794 net.cpp:153] Setting up res4a_res4a_relu_0_split
I0403 17:26:09.905938  8794 net.cpp:160] Top shape: 16 1024 14 14 (3211264)
I0403 17:26:09.905941  8794 net.cpp:160] Top shape: 16 1024 14 14 (3211264)
I0403 17:26:09.905942  8794 net.cpp:168] Memory required for data: 2951151808
I0403 17:26:09.905944  8794 layer_factory.hpp:77] Creating layer res4b_branch2a
I0403 17:26:09.905951  8794 net.cpp:103] Creating Layer res4b_branch2a
I0403 17:26:09.905954  8794 net.cpp:456] res4b_branch2a <- res4a_res4a_relu_0_split_0
I0403 17:26:09.905957  8794 net.cpp:430] res4b_branch2a -> res4b_branch2a
I0403 17:26:09.906924  8794 net.cpp:153] Setting up res4b_branch2a
I0403 17:26:09.906934  8794 net.cpp:160] Top shape: 16 256 14 14 (802816)
I0403 17:26:09.906935  8794 net.cpp:168] Memory required for data: 2954363072
I0403 17:26:09.906939  8794 layer_factory.hpp:77] Creating layer bn4b_branch2a
I0403 17:26:09.906944  8794 net.cpp:103] Creating Layer bn4b_branch2a
I0403 17:26:09.906945  8794 net.cpp:456] bn4b_branch2a <- res4b_branch2a
I0403 17:26:09.906949  8794 net.cpp:417] bn4b_branch2a -> res4b_branch2a (in-place)
I0403 17:26:09.907099  8794 net.cpp:153] Setting up bn4b_branch2a
I0403 17:26:09.907104  8794 net.cpp:160] Top shape: 16 256 14 14 (802816)
I0403 17:26:09.907105  8794 net.cpp:168] Memory required for data: 2957574336
I0403 17:26:09.907110  8794 layer_factory.hpp:77] Creating layer scale4b_branch2a
I0403 17:26:09.907114  8794 net.cpp:103] Creating Layer scale4b_branch2a
I0403 17:26:09.907116  8794 net.cpp:456] scale4b_branch2a <- res4b_branch2a
I0403 17:26:09.907120  8794 net.cpp:417] scale4b_branch2a -> res4b_branch2a (in-place)
I0403 17:26:09.907151  8794 layer_factory.hpp:77] Creating layer scale4b_branch2a
I0403 17:26:09.907232  8794 net.cpp:153] Setting up scale4b_branch2a
I0403 17:26:09.907238  8794 net.cpp:160] Top shape: 16 256 14 14 (802816)
I0403 17:26:09.907238  8794 net.cpp:168] Memory required for data: 2960785600
I0403 17:26:09.907243  8794 layer_factory.hpp:77] Creating layer res4b_branch2a_relu
I0403 17:26:09.907245  8794 net.cpp:103] Creating Layer res4b_branch2a_relu
I0403 17:26:09.907248  8794 net.cpp:456] res4b_branch2a_relu <- res4b_branch2a
I0403 17:26:09.907251  8794 net.cpp:417] res4b_branch2a_relu -> res4b_branch2a (in-place)
I0403 17:26:09.907388  8794 net.cpp:153] Setting up res4b_branch2a_relu
I0403 17:26:09.907395  8794 net.cpp:160] Top shape: 16 256 14 14 (802816)
I0403 17:26:09.907397  8794 net.cpp:168] Memory required for data: 2963996864
I0403 17:26:09.907398  8794 layer_factory.hpp:77] Creating layer res4b_branch2b
I0403 17:26:09.907404  8794 net.cpp:103] Creating Layer res4b_branch2b
I0403 17:26:09.907407  8794 net.cpp:456] res4b_branch2b <- res4b_branch2a
I0403 17:26:09.907411  8794 net.cpp:430] res4b_branch2b -> res4b_branch2b
I0403 17:26:09.909307  8794 net.cpp:153] Setting up res4b_branch2b
I0403 17:26:09.909317  8794 net.cpp:160] Top shape: 16 256 14 14 (802816)
I0403 17:26:09.909329  8794 net.cpp:168] Memory required for data: 2967208128
I0403 17:26:09.909334  8794 layer_factory.hpp:77] Creating layer bn4b_branch2b
I0403 17:26:09.909343  8794 net.cpp:103] Creating Layer bn4b_branch2b
I0403 17:26:09.909345  8794 net.cpp:456] bn4b_branch2b <- res4b_branch2b
I0403 17:26:09.909350  8794 net.cpp:417] bn4b_branch2b -> res4b_branch2b (in-place)
I0403 17:26:09.909512  8794 net.cpp:153] Setting up bn4b_branch2b
I0403 17:26:09.909515  8794 net.cpp:160] Top shape: 16 256 14 14 (802816)
I0403 17:26:09.909518  8794 net.cpp:168] Memory required for data: 2970419392
I0403 17:26:09.909523  8794 layer_factory.hpp:77] Creating layer scale4b_branch2b
I0403 17:26:09.909526  8794 net.cpp:103] Creating Layer scale4b_branch2b
I0403 17:26:09.909528  8794 net.cpp:456] scale4b_branch2b <- res4b_branch2b
I0403 17:26:09.909533  8794 net.cpp:417] scale4b_branch2b -> res4b_branch2b (in-place)
I0403 17:26:09.909564  8794 layer_factory.hpp:77] Creating layer scale4b_branch2b
I0403 17:26:09.909647  8794 net.cpp:153] Setting up scale4b_branch2b
I0403 17:26:09.909652  8794 net.cpp:160] Top shape: 16 256 14 14 (802816)
I0403 17:26:09.909653  8794 net.cpp:168] Memory required for data: 2973630656
I0403 17:26:09.909657  8794 layer_factory.hpp:77] Creating layer res4b_branch2b_relu
I0403 17:26:09.909662  8794 net.cpp:103] Creating Layer res4b_branch2b_relu
I0403 17:26:09.909663  8794 net.cpp:456] res4b_branch2b_relu <- res4b_branch2b
I0403 17:26:09.909667  8794 net.cpp:417] res4b_branch2b_relu -> res4b_branch2b (in-place)
I0403 17:26:09.909818  8794 net.cpp:153] Setting up res4b_branch2b_relu
I0403 17:26:09.909824  8794 net.cpp:160] Top shape: 16 256 14 14 (802816)
I0403 17:26:09.909826  8794 net.cpp:168] Memory required for data: 2976841920
I0403 17:26:09.909828  8794 layer_factory.hpp:77] Creating layer res4b_branch2c
I0403 17:26:09.909844  8794 net.cpp:103] Creating Layer res4b_branch2c
I0403 17:26:09.909847  8794 net.cpp:456] res4b_branch2c <- res4b_branch2b
I0403 17:26:09.909852  8794 net.cpp:430] res4b_branch2c -> res4b_branch2c
I0403 17:26:09.911362  8794 net.cpp:153] Setting up res4b_branch2c
I0403 17:26:09.911373  8794 net.cpp:160] Top shape: 16 1024 14 14 (3211264)
I0403 17:26:09.911375  8794 net.cpp:168] Memory required for data: 2989686976
I0403 17:26:09.911379  8794 layer_factory.hpp:77] Creating layer bn4b_branch2c
I0403 17:26:09.911384  8794 net.cpp:103] Creating Layer bn4b_branch2c
I0403 17:26:09.911387  8794 net.cpp:456] bn4b_branch2c <- res4b_branch2c
I0403 17:26:09.911391  8794 net.cpp:417] bn4b_branch2c -> res4b_branch2c (in-place)
I0403 17:26:09.911547  8794 net.cpp:153] Setting up bn4b_branch2c
I0403 17:26:09.911552  8794 net.cpp:160] Top shape: 16 1024 14 14 (3211264)
I0403 17:26:09.911554  8794 net.cpp:168] Memory required for data: 3002532032
I0403 17:26:09.911558  8794 layer_factory.hpp:77] Creating layer scale4b_branch2c
I0403 17:26:09.911563  8794 net.cpp:103] Creating Layer scale4b_branch2c
I0403 17:26:09.911566  8794 net.cpp:456] scale4b_branch2c <- res4b_branch2c
I0403 17:26:09.911569  8794 net.cpp:417] scale4b_branch2c -> res4b_branch2c (in-place)
I0403 17:26:09.911599  8794 layer_factory.hpp:77] Creating layer scale4b_branch2c
I0403 17:26:09.911687  8794 net.cpp:153] Setting up scale4b_branch2c
I0403 17:26:09.911692  8794 net.cpp:160] Top shape: 16 1024 14 14 (3211264)
I0403 17:26:09.911694  8794 net.cpp:168] Memory required for data: 3015377088
I0403 17:26:09.911697  8794 layer_factory.hpp:77] Creating layer res4b
I0403 17:26:09.911702  8794 net.cpp:103] Creating Layer res4b
I0403 17:26:09.911705  8794 net.cpp:456] res4b <- res4a_res4a_relu_0_split_1
I0403 17:26:09.911707  8794 net.cpp:456] res4b <- res4b_branch2c
I0403 17:26:09.911711  8794 net.cpp:430] res4b -> res4b
I0403 17:26:09.911741  8794 net.cpp:153] Setting up res4b
I0403 17:26:09.911744  8794 net.cpp:160] Top shape: 16 1024 14 14 (3211264)
I0403 17:26:09.911746  8794 net.cpp:168] Memory required for data: 3028222144
I0403 17:26:09.911747  8794 layer_factory.hpp:77] Creating layer res4b_relu
I0403 17:26:09.911751  8794 net.cpp:103] Creating Layer res4b_relu
I0403 17:26:09.911763  8794 net.cpp:456] res4b_relu <- res4b
I0403 17:26:09.911767  8794 net.cpp:417] res4b_relu -> res4b (in-place)
I0403 17:26:09.911907  8794 net.cpp:153] Setting up res4b_relu
I0403 17:26:09.911913  8794 net.cpp:160] Top shape: 16 1024 14 14 (3211264)
I0403 17:26:09.911916  8794 net.cpp:168] Memory required for data: 3041067200
I0403 17:26:09.911917  8794 layer_factory.hpp:77] Creating layer res4b_res4b_relu_0_split
I0403 17:26:09.911921  8794 net.cpp:103] Creating Layer res4b_res4b_relu_0_split
I0403 17:26:09.911923  8794 net.cpp:456] res4b_res4b_relu_0_split <- res4b
I0403 17:26:09.911927  8794 net.cpp:430] res4b_res4b_relu_0_split -> res4b_res4b_relu_0_split_0
I0403 17:26:09.911932  8794 net.cpp:430] res4b_res4b_relu_0_split -> res4b_res4b_relu_0_split_1
I0403 17:26:09.911970  8794 net.cpp:153] Setting up res4b_res4b_relu_0_split
I0403 17:26:09.911975  8794 net.cpp:160] Top shape: 16 1024 14 14 (3211264)
I0403 17:26:09.911978  8794 net.cpp:160] Top shape: 16 1024 14 14 (3211264)
I0403 17:26:09.911980  8794 net.cpp:168] Memory required for data: 3066757312
I0403 17:26:09.911983  8794 layer_factory.hpp:77] Creating layer res4c_branch2a
I0403 17:26:09.911988  8794 net.cpp:103] Creating Layer res4c_branch2a
I0403 17:26:09.911990  8794 net.cpp:456] res4c_branch2a <- res4b_res4b_relu_0_split_0
I0403 17:26:09.911993  8794 net.cpp:430] res4c_branch2a -> res4c_branch2a
I0403 17:26:09.912955  8794 net.cpp:153] Setting up res4c_branch2a
I0403 17:26:09.912966  8794 net.cpp:160] Top shape: 16 256 14 14 (802816)
I0403 17:26:09.912968  8794 net.cpp:168] Memory required for data: 3069968576
I0403 17:26:09.912972  8794 layer_factory.hpp:77] Creating layer bn4c_branch2a
I0403 17:26:09.912976  8794 net.cpp:103] Creating Layer bn4c_branch2a
I0403 17:26:09.912978  8794 net.cpp:456] bn4c_branch2a <- res4c_branch2a
I0403 17:26:09.912983  8794 net.cpp:417] bn4c_branch2a -> res4c_branch2a (in-place)
I0403 17:26:09.913136  8794 net.cpp:153] Setting up bn4c_branch2a
I0403 17:26:09.913141  8794 net.cpp:160] Top shape: 16 256 14 14 (802816)
I0403 17:26:09.913142  8794 net.cpp:168] Memory required for data: 3073179840
I0403 17:26:09.913147  8794 layer_factory.hpp:77] Creating layer scale4c_branch2a
I0403 17:26:09.913152  8794 net.cpp:103] Creating Layer scale4c_branch2a
I0403 17:26:09.913154  8794 net.cpp:456] scale4c_branch2a <- res4c_branch2a
I0403 17:26:09.913158  8794 net.cpp:417] scale4c_branch2a -> res4c_branch2a (in-place)
I0403 17:26:09.913189  8794 layer_factory.hpp:77] Creating layer scale4c_branch2a
I0403 17:26:09.913274  8794 net.cpp:153] Setting up scale4c_branch2a
I0403 17:26:09.913278  8794 net.cpp:160] Top shape: 16 256 14 14 (802816)
I0403 17:26:09.913280  8794 net.cpp:168] Memory required for data: 3076391104
I0403 17:26:09.913283  8794 layer_factory.hpp:77] Creating layer res4c_branch2a_relu
I0403 17:26:09.913287  8794 net.cpp:103] Creating Layer res4c_branch2a_relu
I0403 17:26:09.913290  8794 net.cpp:456] res4c_branch2a_relu <- res4c_branch2a
I0403 17:26:09.913292  8794 net.cpp:417] res4c_branch2a_relu -> res4c_branch2a (in-place)
I0403 17:26:09.913724  8794 net.cpp:153] Setting up res4c_branch2a_relu
I0403 17:26:09.913733  8794 net.cpp:160] Top shape: 16 256 14 14 (802816)
I0403 17:26:09.913734  8794 net.cpp:168] Memory required for data: 3079602368
I0403 17:26:09.913738  8794 layer_factory.hpp:77] Creating layer res4c_branch2b
I0403 17:26:09.913743  8794 net.cpp:103] Creating Layer res4c_branch2b
I0403 17:26:09.913745  8794 net.cpp:456] res4c_branch2b <- res4c_branch2a
I0403 17:26:09.913750  8794 net.cpp:430] res4c_branch2b -> res4c_branch2b
I0403 17:26:09.915660  8794 net.cpp:153] Setting up res4c_branch2b
I0403 17:26:09.915670  8794 net.cpp:160] Top shape: 16 256 14 14 (802816)
I0403 17:26:09.915673  8794 net.cpp:168] Memory required for data: 3082813632
I0403 17:26:09.915676  8794 layer_factory.hpp:77] Creating layer bn4c_branch2b
I0403 17:26:09.915683  8794 net.cpp:103] Creating Layer bn4c_branch2b
I0403 17:26:09.915686  8794 net.cpp:456] bn4c_branch2b <- res4c_branch2b
I0403 17:26:09.915699  8794 net.cpp:417] bn4c_branch2b -> res4c_branch2b (in-place)
I0403 17:26:09.915863  8794 net.cpp:153] Setting up bn4c_branch2b
I0403 17:26:09.915868  8794 net.cpp:160] Top shape: 16 256 14 14 (802816)
I0403 17:26:09.915870  8794 net.cpp:168] Memory required for data: 3086024896
I0403 17:26:09.915875  8794 layer_factory.hpp:77] Creating layer scale4c_branch2b
I0403 17:26:09.915880  8794 net.cpp:103] Creating Layer scale4c_branch2b
I0403 17:26:09.915884  8794 net.cpp:456] scale4c_branch2b <- res4c_branch2b
I0403 17:26:09.915886  8794 net.cpp:417] scale4c_branch2b -> res4c_branch2b (in-place)
I0403 17:26:09.915918  8794 layer_factory.hpp:77] Creating layer scale4c_branch2b
I0403 17:26:09.916004  8794 net.cpp:153] Setting up scale4c_branch2b
I0403 17:26:09.916009  8794 net.cpp:160] Top shape: 16 256 14 14 (802816)
I0403 17:26:09.916012  8794 net.cpp:168] Memory required for data: 3089236160
I0403 17:26:09.916015  8794 layer_factory.hpp:77] Creating layer res4c_branch2b_relu
I0403 17:26:09.916019  8794 net.cpp:103] Creating Layer res4c_branch2b_relu
I0403 17:26:09.916021  8794 net.cpp:456] res4c_branch2b_relu <- res4c_branch2b
I0403 17:26:09.916024  8794 net.cpp:417] res4c_branch2b_relu -> res4c_branch2b (in-place)
I0403 17:26:09.916174  8794 net.cpp:153] Setting up res4c_branch2b_relu
I0403 17:26:09.916182  8794 net.cpp:160] Top shape: 16 256 14 14 (802816)
I0403 17:26:09.916182  8794 net.cpp:168] Memory required for data: 3092447424
I0403 17:26:09.916184  8794 layer_factory.hpp:77] Creating layer res4c_branch2c
I0403 17:26:09.916191  8794 net.cpp:103] Creating Layer res4c_branch2c
I0403 17:26:09.916195  8794 net.cpp:456] res4c_branch2c <- res4c_branch2b
I0403 17:26:09.916198  8794 net.cpp:430] res4c_branch2c -> res4c_branch2c
I0403 17:26:09.917726  8794 net.cpp:153] Setting up res4c_branch2c
I0403 17:26:09.917737  8794 net.cpp:160] Top shape: 16 1024 14 14 (3211264)
I0403 17:26:09.917738  8794 net.cpp:168] Memory required for data: 3105292480
I0403 17:26:09.917742  8794 layer_factory.hpp:77] Creating layer bn4c_branch2c
I0403 17:26:09.917748  8794 net.cpp:103] Creating Layer bn4c_branch2c
I0403 17:26:09.917752  8794 net.cpp:456] bn4c_branch2c <- res4c_branch2c
I0403 17:26:09.917754  8794 net.cpp:417] bn4c_branch2c -> res4c_branch2c (in-place)
I0403 17:26:09.917917  8794 net.cpp:153] Setting up bn4c_branch2c
I0403 17:26:09.917922  8794 net.cpp:160] Top shape: 16 1024 14 14 (3211264)
I0403 17:26:09.917923  8794 net.cpp:168] Memory required for data: 3118137536
I0403 17:26:09.917928  8794 layer_factory.hpp:77] Creating layer scale4c_branch2c
I0403 17:26:09.917932  8794 net.cpp:103] Creating Layer scale4c_branch2c
I0403 17:26:09.917934  8794 net.cpp:456] scale4c_branch2c <- res4c_branch2c
I0403 17:26:09.917937  8794 net.cpp:417] scale4c_branch2c -> res4c_branch2c (in-place)
I0403 17:26:09.917971  8794 layer_factory.hpp:77] Creating layer scale4c_branch2c
I0403 17:26:09.918063  8794 net.cpp:153] Setting up scale4c_branch2c
I0403 17:26:09.918068  8794 net.cpp:160] Top shape: 16 1024 14 14 (3211264)
I0403 17:26:09.918071  8794 net.cpp:168] Memory required for data: 3130982592
I0403 17:26:09.918073  8794 layer_factory.hpp:77] Creating layer res4c
I0403 17:26:09.918077  8794 net.cpp:103] Creating Layer res4c
I0403 17:26:09.918079  8794 net.cpp:456] res4c <- res4b_res4b_relu_0_split_1
I0403 17:26:09.918082  8794 net.cpp:456] res4c <- res4c_branch2c
I0403 17:26:09.918094  8794 net.cpp:430] res4c -> res4c
I0403 17:26:09.918130  8794 net.cpp:153] Setting up res4c
I0403 17:26:09.918134  8794 net.cpp:160] Top shape: 16 1024 14 14 (3211264)
I0403 17:26:09.918136  8794 net.cpp:168] Memory required for data: 3143827648
I0403 17:26:09.918138  8794 layer_factory.hpp:77] Creating layer res4c_relu
I0403 17:26:09.918141  8794 net.cpp:103] Creating Layer res4c_relu
I0403 17:26:09.918143  8794 net.cpp:456] res4c_relu <- res4c
I0403 17:26:09.918148  8794 net.cpp:417] res4c_relu -> res4c (in-place)
I0403 17:26:09.918287  8794 net.cpp:153] Setting up res4c_relu
I0403 17:26:09.918293  8794 net.cpp:160] Top shape: 16 1024 14 14 (3211264)
I0403 17:26:09.918304  8794 net.cpp:168] Memory required for data: 3156672704
I0403 17:26:09.918308  8794 layer_factory.hpp:77] Creating layer res4c_res4c_relu_0_split
I0403 17:26:09.918313  8794 net.cpp:103] Creating Layer res4c_res4c_relu_0_split
I0403 17:26:09.918314  8794 net.cpp:456] res4c_res4c_relu_0_split <- res4c
I0403 17:26:09.918318  8794 net.cpp:430] res4c_res4c_relu_0_split -> res4c_res4c_relu_0_split_0
I0403 17:26:09.918323  8794 net.cpp:430] res4c_res4c_relu_0_split -> res4c_res4c_relu_0_split_1
I0403 17:26:09.918356  8794 net.cpp:153] Setting up res4c_res4c_relu_0_split
I0403 17:26:09.918361  8794 net.cpp:160] Top shape: 16 1024 14 14 (3211264)
I0403 17:26:09.918364  8794 net.cpp:160] Top shape: 16 1024 14 14 (3211264)
I0403 17:26:09.918365  8794 net.cpp:168] Memory required for data: 3182362816
I0403 17:26:09.918366  8794 layer_factory.hpp:77] Creating layer res4d_branch2a
I0403 17:26:09.918372  8794 net.cpp:103] Creating Layer res4d_branch2a
I0403 17:26:09.918375  8794 net.cpp:456] res4d_branch2a <- res4c_res4c_relu_0_split_0
I0403 17:26:09.918380  8794 net.cpp:430] res4d_branch2a -> res4d_branch2a
I0403 17:26:09.919338  8794 net.cpp:153] Setting up res4d_branch2a
I0403 17:26:09.919348  8794 net.cpp:160] Top shape: 16 256 14 14 (802816)
I0403 17:26:09.919349  8794 net.cpp:168] Memory required for data: 3185574080
I0403 17:26:09.919353  8794 layer_factory.hpp:77] Creating layer bn4d_branch2a
I0403 17:26:09.919358  8794 net.cpp:103] Creating Layer bn4d_branch2a
I0403 17:26:09.919361  8794 net.cpp:456] bn4d_branch2a <- res4d_branch2a
I0403 17:26:09.919365  8794 net.cpp:417] bn4d_branch2a -> res4d_branch2a (in-place)
I0403 17:26:09.919523  8794 net.cpp:153] Setting up bn4d_branch2a
I0403 17:26:09.919528  8794 net.cpp:160] Top shape: 16 256 14 14 (802816)
I0403 17:26:09.919529  8794 net.cpp:168] Memory required for data: 3188785344
I0403 17:26:09.919533  8794 layer_factory.hpp:77] Creating layer scale4d_branch2a
I0403 17:26:09.919538  8794 net.cpp:103] Creating Layer scale4d_branch2a
I0403 17:26:09.919541  8794 net.cpp:456] scale4d_branch2a <- res4d_branch2a
I0403 17:26:09.919544  8794 net.cpp:417] scale4d_branch2a -> res4d_branch2a (in-place)
I0403 17:26:09.919576  8794 layer_factory.hpp:77] Creating layer scale4d_branch2a
I0403 17:26:09.919663  8794 net.cpp:153] Setting up scale4d_branch2a
I0403 17:26:09.919668  8794 net.cpp:160] Top shape: 16 256 14 14 (802816)
I0403 17:26:09.919670  8794 net.cpp:168] Memory required for data: 3191996608
I0403 17:26:09.919673  8794 layer_factory.hpp:77] Creating layer res4d_branch2a_relu
I0403 17:26:09.919677  8794 net.cpp:103] Creating Layer res4d_branch2a_relu
I0403 17:26:09.919679  8794 net.cpp:456] res4d_branch2a_relu <- res4d_branch2a
I0403 17:26:09.919683  8794 net.cpp:417] res4d_branch2a_relu -> res4d_branch2a (in-place)
I0403 17:26:09.920171  8794 net.cpp:153] Setting up res4d_branch2a_relu
I0403 17:26:09.920181  8794 net.cpp:160] Top shape: 16 256 14 14 (802816)
I0403 17:26:09.920182  8794 net.cpp:168] Memory required for data: 3195207872
I0403 17:26:09.920186  8794 layer_factory.hpp:77] Creating layer res4d_branch2b
I0403 17:26:09.920192  8794 net.cpp:103] Creating Layer res4d_branch2b
I0403 17:26:09.920194  8794 net.cpp:456] res4d_branch2b <- res4d_branch2a
I0403 17:26:09.920199  8794 net.cpp:430] res4d_branch2b -> res4d_branch2b
I0403 17:26:09.922410  8794 net.cpp:153] Setting up res4d_branch2b
I0403 17:26:09.922423  8794 net.cpp:160] Top shape: 16 256 14 14 (802816)
I0403 17:26:09.922425  8794 net.cpp:168] Memory required for data: 3198419136
I0403 17:26:09.922430  8794 layer_factory.hpp:77] Creating layer bn4d_branch2b
I0403 17:26:09.922446  8794 net.cpp:103] Creating Layer bn4d_branch2b
I0403 17:26:09.922449  8794 net.cpp:456] bn4d_branch2b <- res4d_branch2b
I0403 17:26:09.922453  8794 net.cpp:417] bn4d_branch2b -> res4d_branch2b (in-place)
I0403 17:26:09.922633  8794 net.cpp:153] Setting up bn4d_branch2b
I0403 17:26:09.922638  8794 net.cpp:160] Top shape: 16 256 14 14 (802816)
I0403 17:26:09.922641  8794 net.cpp:168] Memory required for data: 3201630400
I0403 17:26:09.922667  8794 layer_factory.hpp:77] Creating layer scale4d_branch2b
I0403 17:26:09.922672  8794 net.cpp:103] Creating Layer scale4d_branch2b
I0403 17:26:09.922674  8794 net.cpp:456] scale4d_branch2b <- res4d_branch2b
I0403 17:26:09.922677  8794 net.cpp:417] scale4d_branch2b -> res4d_branch2b (in-place)
I0403 17:26:09.922716  8794 layer_factory.hpp:77] Creating layer scale4d_branch2b
I0403 17:26:09.922807  8794 net.cpp:153] Setting up scale4d_branch2b
I0403 17:26:09.922812  8794 net.cpp:160] Top shape: 16 256 14 14 (802816)
I0403 17:26:09.922814  8794 net.cpp:168] Memory required for data: 3204841664
I0403 17:26:09.922818  8794 layer_factory.hpp:77] Creating layer res4d_branch2b_relu
I0403 17:26:09.922822  8794 net.cpp:103] Creating Layer res4d_branch2b_relu
I0403 17:26:09.922824  8794 net.cpp:456] res4d_branch2b_relu <- res4d_branch2b
I0403 17:26:09.922827  8794 net.cpp:417] res4d_branch2b_relu -> res4d_branch2b (in-place)
I0403 17:26:09.922976  8794 net.cpp:153] Setting up res4d_branch2b_relu
I0403 17:26:09.922982  8794 net.cpp:160] Top shape: 16 256 14 14 (802816)
I0403 17:26:09.922983  8794 net.cpp:168] Memory required for data: 3208052928
I0403 17:26:09.922986  8794 layer_factory.hpp:77] Creating layer res4d_branch2c
I0403 17:26:09.922992  8794 net.cpp:103] Creating Layer res4d_branch2c
I0403 17:26:09.922996  8794 net.cpp:456] res4d_branch2c <- res4d_branch2b
I0403 17:26:09.922998  8794 net.cpp:430] res4d_branch2c -> res4d_branch2c
I0403 17:26:09.924643  8794 net.cpp:153] Setting up res4d_branch2c
I0403 17:26:09.924655  8794 net.cpp:160] Top shape: 16 1024 14 14 (3211264)
I0403 17:26:09.924657  8794 net.cpp:168] Memory required for data: 3220897984
I0403 17:26:09.924661  8794 layer_factory.hpp:77] Creating layer bn4d_branch2c
I0403 17:26:09.924679  8794 net.cpp:103] Creating Layer bn4d_branch2c
I0403 17:26:09.924693  8794 net.cpp:456] bn4d_branch2c <- res4d_branch2c
I0403 17:26:09.924697  8794 net.cpp:417] bn4d_branch2c -> res4d_branch2c (in-place)
I0403 17:26:09.924888  8794 net.cpp:153] Setting up bn4d_branch2c
I0403 17:26:09.924893  8794 net.cpp:160] Top shape: 16 1024 14 14 (3211264)
I0403 17:26:09.924895  8794 net.cpp:168] Memory required for data: 3233743040
I0403 17:26:09.924909  8794 layer_factory.hpp:77] Creating layer scale4d_branch2c
I0403 17:26:09.924916  8794 net.cpp:103] Creating Layer scale4d_branch2c
I0403 17:26:09.924927  8794 net.cpp:456] scale4d_branch2c <- res4d_branch2c
I0403 17:26:09.924931  8794 net.cpp:417] scale4d_branch2c -> res4d_branch2c (in-place)
I0403 17:26:09.924973  8794 layer_factory.hpp:77] Creating layer scale4d_branch2c
I0403 17:26:09.925086  8794 net.cpp:153] Setting up scale4d_branch2c
I0403 17:26:09.925089  8794 net.cpp:160] Top shape: 16 1024 14 14 (3211264)
I0403 17:26:09.925091  8794 net.cpp:168] Memory required for data: 3246588096
I0403 17:26:09.925094  8794 layer_factory.hpp:77] Creating layer res4d
I0403 17:26:09.925109  8794 net.cpp:103] Creating Layer res4d
I0403 17:26:09.925112  8794 net.cpp:456] res4d <- res4c_res4c_relu_0_split_1
I0403 17:26:09.925115  8794 net.cpp:456] res4d <- res4d_branch2c
I0403 17:26:09.925119  8794 net.cpp:430] res4d -> res4d
I0403 17:26:09.925148  8794 net.cpp:153] Setting up res4d
I0403 17:26:09.925163  8794 net.cpp:160] Top shape: 16 1024 14 14 (3211264)
I0403 17:26:09.925164  8794 net.cpp:168] Memory required for data: 3259433152
I0403 17:26:09.925165  8794 layer_factory.hpp:77] Creating layer res4d_relu
I0403 17:26:09.925169  8794 net.cpp:103] Creating Layer res4d_relu
I0403 17:26:09.925180  8794 net.cpp:456] res4d_relu <- res4d
I0403 17:26:09.925184  8794 net.cpp:417] res4d_relu -> res4d (in-place)
I0403 17:26:09.925324  8794 net.cpp:153] Setting up res4d_relu
I0403 17:26:09.925330  8794 net.cpp:160] Top shape: 16 1024 14 14 (3211264)
I0403 17:26:09.925333  8794 net.cpp:168] Memory required for data: 3272278208
I0403 17:26:09.925334  8794 layer_factory.hpp:77] Creating layer res4d_res4d_relu_0_split
I0403 17:26:09.925339  8794 net.cpp:103] Creating Layer res4d_res4d_relu_0_split
I0403 17:26:09.925341  8794 net.cpp:456] res4d_res4d_relu_0_split <- res4d
I0403 17:26:09.925355  8794 net.cpp:430] res4d_res4d_relu_0_split -> res4d_res4d_relu_0_split_0
I0403 17:26:09.925361  8794 net.cpp:430] res4d_res4d_relu_0_split -> res4d_res4d_relu_0_split_1
I0403 17:26:09.925395  8794 net.cpp:153] Setting up res4d_res4d_relu_0_split
I0403 17:26:09.925400  8794 net.cpp:160] Top shape: 16 1024 14 14 (3211264)
I0403 17:26:09.925401  8794 net.cpp:160] Top shape: 16 1024 14 14 (3211264)
I0403 17:26:09.925403  8794 net.cpp:168] Memory required for data: 3297968320
I0403 17:26:09.925405  8794 layer_factory.hpp:77] Creating layer res4e_branch2a
I0403 17:26:09.925411  8794 net.cpp:103] Creating Layer res4e_branch2a
I0403 17:26:09.925413  8794 net.cpp:456] res4e_branch2a <- res4d_res4d_relu_0_split_0
I0403 17:26:09.925418  8794 net.cpp:430] res4e_branch2a -> res4e_branch2a
I0403 17:26:09.926404  8794 net.cpp:153] Setting up res4e_branch2a
I0403 17:26:09.926414  8794 net.cpp:160] Top shape: 16 256 14 14 (802816)
I0403 17:26:09.926416  8794 net.cpp:168] Memory required for data: 3301179584
I0403 17:26:09.926419  8794 layer_factory.hpp:77] Creating layer bn4e_branch2a
I0403 17:26:09.926424  8794 net.cpp:103] Creating Layer bn4e_branch2a
I0403 17:26:09.926426  8794 net.cpp:456] bn4e_branch2a <- res4e_branch2a
I0403 17:26:09.926430  8794 net.cpp:417] bn4e_branch2a -> res4e_branch2a (in-place)
I0403 17:26:09.926589  8794 net.cpp:153] Setting up bn4e_branch2a
I0403 17:26:09.926592  8794 net.cpp:160] Top shape: 16 256 14 14 (802816)
I0403 17:26:09.926594  8794 net.cpp:168] Memory required for data: 3304390848
I0403 17:26:09.926599  8794 layer_factory.hpp:77] Creating layer scale4e_branch2a
I0403 17:26:09.926604  8794 net.cpp:103] Creating Layer scale4e_branch2a
I0403 17:26:09.926605  8794 net.cpp:456] scale4e_branch2a <- res4e_branch2a
I0403 17:26:09.926609  8794 net.cpp:417] scale4e_branch2a -> res4e_branch2a (in-place)
I0403 17:26:09.926659  8794 layer_factory.hpp:77] Creating layer scale4e_branch2a
I0403 17:26:09.926774  8794 net.cpp:153] Setting up scale4e_branch2a
I0403 17:26:09.926779  8794 net.cpp:160] Top shape: 16 256 14 14 (802816)
I0403 17:26:09.926780  8794 net.cpp:168] Memory required for data: 3307602112
I0403 17:26:09.926784  8794 layer_factory.hpp:77] Creating layer res4e_branch2a_relu
I0403 17:26:09.926797  8794 net.cpp:103] Creating Layer res4e_branch2a_relu
I0403 17:26:09.926800  8794 net.cpp:456] res4e_branch2a_relu <- res4e_branch2a
I0403 17:26:09.926802  8794 net.cpp:417] res4e_branch2a_relu -> res4e_branch2a (in-place)
I0403 17:26:09.927235  8794 net.cpp:153] Setting up res4e_branch2a_relu
I0403 17:26:09.927244  8794 net.cpp:160] Top shape: 16 256 14 14 (802816)
I0403 17:26:09.927247  8794 net.cpp:168] Memory required for data: 3310813376
I0403 17:26:09.927248  8794 layer_factory.hpp:77] Creating layer res4e_branch2b
I0403 17:26:09.927263  8794 net.cpp:103] Creating Layer res4e_branch2b
I0403 17:26:09.927266  8794 net.cpp:456] res4e_branch2b <- res4e_branch2a
I0403 17:26:09.927271  8794 net.cpp:430] res4e_branch2b -> res4e_branch2b
I0403 17:26:09.929198  8794 net.cpp:153] Setting up res4e_branch2b
I0403 17:26:09.929210  8794 net.cpp:160] Top shape: 16 256 14 14 (802816)
I0403 17:26:09.929213  8794 net.cpp:168] Memory required for data: 3314024640
I0403 17:26:09.929217  8794 layer_factory.hpp:77] Creating layer bn4e_branch2b
I0403 17:26:09.929234  8794 net.cpp:103] Creating Layer bn4e_branch2b
I0403 17:26:09.929237  8794 net.cpp:456] bn4e_branch2b <- res4e_branch2b
I0403 17:26:09.929242  8794 net.cpp:417] bn4e_branch2b -> res4e_branch2b (in-place)
I0403 17:26:09.929421  8794 net.cpp:153] Setting up bn4e_branch2b
I0403 17:26:09.929425  8794 net.cpp:160] Top shape: 16 256 14 14 (802816)
I0403 17:26:09.929427  8794 net.cpp:168] Memory required for data: 3317235904
I0403 17:26:09.929432  8794 layer_factory.hpp:77] Creating layer scale4e_branch2b
I0403 17:26:09.929446  8794 net.cpp:103] Creating Layer scale4e_branch2b
I0403 17:26:09.929450  8794 net.cpp:456] scale4e_branch2b <- res4e_branch2b
I0403 17:26:09.929453  8794 net.cpp:417] scale4e_branch2b -> res4e_branch2b (in-place)
I0403 17:26:09.929502  8794 layer_factory.hpp:77] Creating layer scale4e_branch2b
I0403 17:26:09.929592  8794 net.cpp:153] Setting up scale4e_branch2b
I0403 17:26:09.929596  8794 net.cpp:160] Top shape: 16 256 14 14 (802816)
I0403 17:26:09.929599  8794 net.cpp:168] Memory required for data: 3320447168
I0403 17:26:09.929602  8794 layer_factory.hpp:77] Creating layer res4e_branch2b_relu
I0403 17:26:09.929606  8794 net.cpp:103] Creating Layer res4e_branch2b_relu
I0403 17:26:09.929608  8794 net.cpp:456] res4e_branch2b_relu <- res4e_branch2b
I0403 17:26:09.929611  8794 net.cpp:417] res4e_branch2b_relu -> res4e_branch2b (in-place)
I0403 17:26:09.929761  8794 net.cpp:153] Setting up res4e_branch2b_relu
I0403 17:26:09.929767  8794 net.cpp:160] Top shape: 16 256 14 14 (802816)
I0403 17:26:09.929769  8794 net.cpp:168] Memory required for data: 3323658432
I0403 17:26:09.929771  8794 layer_factory.hpp:77] Creating layer res4e_branch2c
I0403 17:26:09.929777  8794 net.cpp:103] Creating Layer res4e_branch2c
I0403 17:26:09.929780  8794 net.cpp:456] res4e_branch2c <- res4e_branch2b
I0403 17:26:09.929783  8794 net.cpp:430] res4e_branch2c -> res4e_branch2c
I0403 17:26:09.931354  8794 net.cpp:153] Setting up res4e_branch2c
I0403 17:26:09.931365  8794 net.cpp:160] Top shape: 16 1024 14 14 (3211264)
I0403 17:26:09.931366  8794 net.cpp:168] Memory required for data: 3336503488
I0403 17:26:09.931370  8794 layer_factory.hpp:77] Creating layer bn4e_branch2c
I0403 17:26:09.931375  8794 net.cpp:103] Creating Layer bn4e_branch2c
I0403 17:26:09.931378  8794 net.cpp:456] bn4e_branch2c <- res4e_branch2c
I0403 17:26:09.931381  8794 net.cpp:417] bn4e_branch2c -> res4e_branch2c (in-place)
I0403 17:26:09.931556  8794 net.cpp:153] Setting up bn4e_branch2c
I0403 17:26:09.931561  8794 net.cpp:160] Top shape: 16 1024 14 14 (3211264)
I0403 17:26:09.931563  8794 net.cpp:168] Memory required for data: 3349348544
I0403 17:26:09.931567  8794 layer_factory.hpp:77] Creating layer scale4e_branch2c
I0403 17:26:09.931581  8794 net.cpp:103] Creating Layer scale4e_branch2c
I0403 17:26:09.931584  8794 net.cpp:456] scale4e_branch2c <- res4e_branch2c
I0403 17:26:09.931588  8794 net.cpp:417] scale4e_branch2c -> res4e_branch2c (in-place)
I0403 17:26:09.931632  8794 layer_factory.hpp:77] Creating layer scale4e_branch2c
I0403 17:26:09.931744  8794 net.cpp:153] Setting up scale4e_branch2c
I0403 17:26:09.931749  8794 net.cpp:160] Top shape: 16 1024 14 14 (3211264)
I0403 17:26:09.931751  8794 net.cpp:168] Memory required for data: 3362193600
I0403 17:26:09.931754  8794 layer_factory.hpp:77] Creating layer res4e
I0403 17:26:09.931768  8794 net.cpp:103] Creating Layer res4e
I0403 17:26:09.931771  8794 net.cpp:456] res4e <- res4d_res4d_relu_0_split_1
I0403 17:26:09.931774  8794 net.cpp:456] res4e <- res4e_branch2c
I0403 17:26:09.931777  8794 net.cpp:430] res4e -> res4e
I0403 17:26:09.931808  8794 net.cpp:153] Setting up res4e
I0403 17:26:09.931813  8794 net.cpp:160] Top shape: 16 1024 14 14 (3211264)
I0403 17:26:09.931813  8794 net.cpp:168] Memory required for data: 3375038656
I0403 17:26:09.931815  8794 layer_factory.hpp:77] Creating layer res4e_relu
I0403 17:26:09.931819  8794 net.cpp:103] Creating Layer res4e_relu
I0403 17:26:09.931821  8794 net.cpp:456] res4e_relu <- res4e
I0403 17:26:09.931824  8794 net.cpp:417] res4e_relu -> res4e (in-place)
I0403 17:26:09.931969  8794 net.cpp:153] Setting up res4e_relu
I0403 17:26:09.931975  8794 net.cpp:160] Top shape: 16 1024 14 14 (3211264)
I0403 17:26:09.931977  8794 net.cpp:168] Memory required for data: 3387883712
I0403 17:26:09.931979  8794 layer_factory.hpp:77] Creating layer res4e_res4e_relu_0_split
I0403 17:26:09.931984  8794 net.cpp:103] Creating Layer res4e_res4e_relu_0_split
I0403 17:26:09.931987  8794 net.cpp:456] res4e_res4e_relu_0_split <- res4e
I0403 17:26:09.931990  8794 net.cpp:430] res4e_res4e_relu_0_split -> res4e_res4e_relu_0_split_0
I0403 17:26:09.931995  8794 net.cpp:430] res4e_res4e_relu_0_split -> res4e_res4e_relu_0_split_1
I0403 17:26:09.932027  8794 net.cpp:153] Setting up res4e_res4e_relu_0_split
I0403 17:26:09.932041  8794 net.cpp:160] Top shape: 16 1024 14 14 (3211264)
I0403 17:26:09.932044  8794 net.cpp:160] Top shape: 16 1024 14 14 (3211264)
I0403 17:26:09.932046  8794 net.cpp:168] Memory required for data: 3413573824
I0403 17:26:09.932049  8794 layer_factory.hpp:77] Creating layer res4f_branch2a
I0403 17:26:09.932054  8794 net.cpp:103] Creating Layer res4f_branch2a
I0403 17:26:09.932055  8794 net.cpp:456] res4f_branch2a <- res4e_res4e_relu_0_split_0
I0403 17:26:09.932060  8794 net.cpp:430] res4f_branch2a -> res4f_branch2a
I0403 17:26:09.933059  8794 net.cpp:153] Setting up res4f_branch2a
I0403 17:26:09.933068  8794 net.cpp:160] Top shape: 16 256 14 14 (802816)
I0403 17:26:09.933070  8794 net.cpp:168] Memory required for data: 3416785088
I0403 17:26:09.933073  8794 layer_factory.hpp:77] Creating layer bn4f_branch2a
I0403 17:26:09.933079  8794 net.cpp:103] Creating Layer bn4f_branch2a
I0403 17:26:09.933080  8794 net.cpp:456] bn4f_branch2a <- res4f_branch2a
I0403 17:26:09.933084  8794 net.cpp:417] bn4f_branch2a -> res4f_branch2a (in-place)
I0403 17:26:09.933246  8794 net.cpp:153] Setting up bn4f_branch2a
I0403 17:26:09.933250  8794 net.cpp:160] Top shape: 16 256 14 14 (802816)
I0403 17:26:09.933253  8794 net.cpp:168] Memory required for data: 3419996352
I0403 17:26:09.933256  8794 layer_factory.hpp:77] Creating layer scale4f_branch2a
I0403 17:26:09.933261  8794 net.cpp:103] Creating Layer scale4f_branch2a
I0403 17:26:09.933265  8794 net.cpp:456] scale4f_branch2a <- res4f_branch2a
I0403 17:26:09.933269  8794 net.cpp:417] scale4f_branch2a -> res4f_branch2a (in-place)
I0403 17:26:09.933302  8794 layer_factory.hpp:77] Creating layer scale4f_branch2a
I0403 17:26:09.933390  8794 net.cpp:153] Setting up scale4f_branch2a
I0403 17:26:09.933395  8794 net.cpp:160] Top shape: 16 256 14 14 (802816)
I0403 17:26:09.933396  8794 net.cpp:168] Memory required for data: 3423207616
I0403 17:26:09.933400  8794 layer_factory.hpp:77] Creating layer res4f_branch2a_relu
I0403 17:26:09.933404  8794 net.cpp:103] Creating Layer res4f_branch2a_relu
I0403 17:26:09.933405  8794 net.cpp:456] res4f_branch2a_relu <- res4f_branch2a
I0403 17:26:09.933409  8794 net.cpp:417] res4f_branch2a_relu -> res4f_branch2a (in-place)
I0403 17:26:09.933552  8794 net.cpp:153] Setting up res4f_branch2a_relu
I0403 17:26:09.933557  8794 net.cpp:160] Top shape: 16 256 14 14 (802816)
I0403 17:26:09.933559  8794 net.cpp:168] Memory required for data: 3426418880
I0403 17:26:09.933562  8794 layer_factory.hpp:77] Creating layer res4f_branch2b
I0403 17:26:09.933568  8794 net.cpp:103] Creating Layer res4f_branch2b
I0403 17:26:09.933569  8794 net.cpp:456] res4f_branch2b <- res4f_branch2a
I0403 17:26:09.933573  8794 net.cpp:430] res4f_branch2b -> res4f_branch2b
I0403 17:26:09.935495  8794 net.cpp:153] Setting up res4f_branch2b
I0403 17:26:09.935506  8794 net.cpp:160] Top shape: 16 256 14 14 (802816)
I0403 17:26:09.935508  8794 net.cpp:168] Memory required for data: 3429630144
I0403 17:26:09.935511  8794 layer_factory.hpp:77] Creating layer bn4f_branch2b
I0403 17:26:09.935529  8794 net.cpp:103] Creating Layer bn4f_branch2b
I0403 17:26:09.935533  8794 net.cpp:456] bn4f_branch2b <- res4f_branch2b
I0403 17:26:09.935536  8794 net.cpp:417] bn4f_branch2b -> res4f_branch2b (in-place)
I0403 17:26:09.935714  8794 net.cpp:153] Setting up bn4f_branch2b
I0403 17:26:09.935719  8794 net.cpp:160] Top shape: 16 256 14 14 (802816)
I0403 17:26:09.935721  8794 net.cpp:168] Memory required for data: 3432841408
I0403 17:26:09.935726  8794 layer_factory.hpp:77] Creating layer scale4f_branch2b
I0403 17:26:09.935741  8794 net.cpp:103] Creating Layer scale4f_branch2b
I0403 17:26:09.935744  8794 net.cpp:456] scale4f_branch2b <- res4f_branch2b
I0403 17:26:09.935746  8794 net.cpp:417] scale4f_branch2b -> res4f_branch2b (in-place)
I0403 17:26:09.935796  8794 layer_factory.hpp:77] Creating layer scale4f_branch2b
I0403 17:26:09.935905  8794 net.cpp:153] Setting up scale4f_branch2b
I0403 17:26:09.935909  8794 net.cpp:160] Top shape: 16 256 14 14 (802816)
I0403 17:26:09.935911  8794 net.cpp:168] Memory required for data: 3436052672
I0403 17:26:09.935935  8794 layer_factory.hpp:77] Creating layer res4f_branch2b_relu
I0403 17:26:09.935941  8794 net.cpp:103] Creating Layer res4f_branch2b_relu
I0403 17:26:09.935945  8794 net.cpp:456] res4f_branch2b_relu <- res4f_branch2b
I0403 17:26:09.935948  8794 net.cpp:417] res4f_branch2b_relu -> res4f_branch2b (in-place)
I0403 17:26:09.936393  8794 net.cpp:153] Setting up res4f_branch2b_relu
I0403 17:26:09.936403  8794 net.cpp:160] Top shape: 16 256 14 14 (802816)
I0403 17:26:09.936404  8794 net.cpp:168] Memory required for data: 3439263936
I0403 17:26:09.936406  8794 layer_factory.hpp:77] Creating layer res4f_branch2c
I0403 17:26:09.936413  8794 net.cpp:103] Creating Layer res4f_branch2c
I0403 17:26:09.936416  8794 net.cpp:456] res4f_branch2c <- res4f_branch2b
I0403 17:26:09.936420  8794 net.cpp:430] res4f_branch2c -> res4f_branch2c
I0403 17:26:09.937973  8794 net.cpp:153] Setting up res4f_branch2c
I0403 17:26:09.937984  8794 net.cpp:160] Top shape: 16 1024 14 14 (3211264)
I0403 17:26:09.937986  8794 net.cpp:168] Memory required for data: 3452108992
I0403 17:26:09.937990  8794 layer_factory.hpp:77] Creating layer bn4f_branch2c
I0403 17:26:09.937996  8794 net.cpp:103] Creating Layer bn4f_branch2c
I0403 17:26:09.937999  8794 net.cpp:456] bn4f_branch2c <- res4f_branch2c
I0403 17:26:09.938004  8794 net.cpp:417] bn4f_branch2c -> res4f_branch2c (in-place)
I0403 17:26:09.938205  8794 net.cpp:153] Setting up bn4f_branch2c
I0403 17:26:09.938212  8794 net.cpp:160] Top shape: 16 1024 14 14 (3211264)
I0403 17:26:09.938215  8794 net.cpp:168] Memory required for data: 3464954048
I0403 17:26:09.938262  8794 layer_factory.hpp:77] Creating layer scale4f_branch2c
I0403 17:26:09.938277  8794 net.cpp:103] Creating Layer scale4f_branch2c
I0403 17:26:09.938279  8794 net.cpp:456] scale4f_branch2c <- res4f_branch2c
I0403 17:26:09.938293  8794 net.cpp:417] scale4f_branch2c -> res4f_branch2c (in-place)
I0403 17:26:09.938349  8794 layer_factory.hpp:77] Creating layer scale4f_branch2c
I0403 17:26:09.938464  8794 net.cpp:153] Setting up scale4f_branch2c
I0403 17:26:09.938469  8794 net.cpp:160] Top shape: 16 1024 14 14 (3211264)
I0403 17:26:09.938472  8794 net.cpp:168] Memory required for data: 3477799104
I0403 17:26:09.938474  8794 layer_factory.hpp:77] Creating layer res4f
I0403 17:26:09.938479  8794 net.cpp:103] Creating Layer res4f
I0403 17:26:09.938482  8794 net.cpp:456] res4f <- res4e_res4e_relu_0_split_1
I0403 17:26:09.938485  8794 net.cpp:456] res4f <- res4f_branch2c
I0403 17:26:09.938488  8794 net.cpp:430] res4f -> res4f
I0403 17:26:09.938529  8794 net.cpp:153] Setting up res4f
I0403 17:26:09.938534  8794 net.cpp:160] Top shape: 16 1024 14 14 (3211264)
I0403 17:26:09.938535  8794 net.cpp:168] Memory required for data: 3490644160
I0403 17:26:09.938536  8794 layer_factory.hpp:77] Creating layer res4f_relu
I0403 17:26:09.938550  8794 net.cpp:103] Creating Layer res4f_relu
I0403 17:26:09.938552  8794 net.cpp:456] res4f_relu <- res4f
I0403 17:26:09.938555  8794 net.cpp:417] res4f_relu -> res4f (in-place)
I0403 17:26:09.938705  8794 net.cpp:153] Setting up res4f_relu
I0403 17:26:09.938712  8794 net.cpp:160] Top shape: 16 1024 14 14 (3211264)
I0403 17:26:09.938714  8794 net.cpp:168] Memory required for data: 3503489216
I0403 17:26:09.938715  8794 layer_factory.hpp:77] Creating layer res4f_res4f_relu_0_split
I0403 17:26:09.938730  8794 net.cpp:103] Creating Layer res4f_res4f_relu_0_split
I0403 17:26:09.938731  8794 net.cpp:456] res4f_res4f_relu_0_split <- res4f
I0403 17:26:09.938735  8794 net.cpp:430] res4f_res4f_relu_0_split -> res4f_res4f_relu_0_split_0
I0403 17:26:09.938740  8794 net.cpp:430] res4f_res4f_relu_0_split -> res4f_res4f_relu_0_split_1
I0403 17:26:09.938772  8794 net.cpp:153] Setting up res4f_res4f_relu_0_split
I0403 17:26:09.938777  8794 net.cpp:160] Top shape: 16 1024 14 14 (3211264)
I0403 17:26:09.938779  8794 net.cpp:160] Top shape: 16 1024 14 14 (3211264)
I0403 17:26:09.938781  8794 net.cpp:168] Memory required for data: 3529179328
I0403 17:26:09.938782  8794 layer_factory.hpp:77] Creating layer res5a_branch1
I0403 17:26:09.938797  8794 net.cpp:103] Creating Layer res5a_branch1
I0403 17:26:09.938801  8794 net.cpp:456] res5a_branch1 <- res4f_res4f_relu_0_split_0
I0403 17:26:09.938804  8794 net.cpp:430] res5a_branch1 -> res5a_branch1
I0403 17:26:09.942847  8794 net.cpp:153] Setting up res5a_branch1
I0403 17:26:09.942867  8794 net.cpp:160] Top shape: 16 2048 7 7 (1605632)
I0403 17:26:09.942869  8794 net.cpp:168] Memory required for data: 3535601856
I0403 17:26:09.942876  8794 layer_factory.hpp:77] Creating layer bn5a_branch1
I0403 17:26:09.942888  8794 net.cpp:103] Creating Layer bn5a_branch1
I0403 17:26:09.942893  8794 net.cpp:456] bn5a_branch1 <- res5a_branch1
I0403 17:26:09.942898  8794 net.cpp:417] bn5a_branch1 -> res5a_branch1 (in-place)
I0403 17:26:09.943081  8794 net.cpp:153] Setting up bn5a_branch1
I0403 17:26:09.943086  8794 net.cpp:160] Top shape: 16 2048 7 7 (1605632)
I0403 17:26:09.943089  8794 net.cpp:168] Memory required for data: 3542024384
I0403 17:26:09.943092  8794 layer_factory.hpp:77] Creating layer scale5a_branch1
I0403 17:26:09.943099  8794 net.cpp:103] Creating Layer scale5a_branch1
I0403 17:26:09.943102  8794 net.cpp:456] scale5a_branch1 <- res5a_branch1
I0403 17:26:09.943104  8794 net.cpp:417] scale5a_branch1 -> res5a_branch1 (in-place)
I0403 17:26:09.943181  8794 layer_factory.hpp:77] Creating layer scale5a_branch1
I0403 17:26:09.943285  8794 net.cpp:153] Setting up scale5a_branch1
I0403 17:26:09.943290  8794 net.cpp:160] Top shape: 16 2048 7 7 (1605632)
I0403 17:26:09.943291  8794 net.cpp:168] Memory required for data: 3548446912
I0403 17:26:09.943295  8794 layer_factory.hpp:77] Creating layer res5a_branch2a
I0403 17:26:09.943312  8794 net.cpp:103] Creating Layer res5a_branch2a
I0403 17:26:09.943315  8794 net.cpp:456] res5a_branch2a <- res4f_res4f_relu_0_split_1
I0403 17:26:09.943320  8794 net.cpp:430] res5a_branch2a -> res5a_branch2a
I0403 17:26:09.944905  8794 net.cpp:153] Setting up res5a_branch2a
I0403 17:26:09.944916  8794 net.cpp:160] Top shape: 16 512 7 7 (401408)
I0403 17:26:09.944917  8794 net.cpp:168] Memory required for data: 3550052544
I0403 17:26:09.944921  8794 layer_factory.hpp:77] Creating layer bn5a_branch2a
I0403 17:26:09.944937  8794 net.cpp:103] Creating Layer bn5a_branch2a
I0403 17:26:09.944941  8794 net.cpp:456] bn5a_branch2a <- res5a_branch2a
I0403 17:26:09.944943  8794 net.cpp:417] bn5a_branch2a -> res5a_branch2a (in-place)
I0403 17:26:09.945117  8794 net.cpp:153] Setting up bn5a_branch2a
I0403 17:26:09.945122  8794 net.cpp:160] Top shape: 16 512 7 7 (401408)
I0403 17:26:09.945123  8794 net.cpp:168] Memory required for data: 3551658176
I0403 17:26:09.945127  8794 layer_factory.hpp:77] Creating layer scale5a_branch2a
I0403 17:26:09.945142  8794 net.cpp:103] Creating Layer scale5a_branch2a
I0403 17:26:09.945145  8794 net.cpp:456] scale5a_branch2a <- res5a_branch2a
I0403 17:26:09.945149  8794 net.cpp:417] scale5a_branch2a -> res5a_branch2a (in-place)
I0403 17:26:09.945191  8794 layer_factory.hpp:77] Creating layer scale5a_branch2a
I0403 17:26:09.945305  8794 net.cpp:153] Setting up scale5a_branch2a
I0403 17:26:09.945310  8794 net.cpp:160] Top shape: 16 512 7 7 (401408)
I0403 17:26:09.945312  8794 net.cpp:168] Memory required for data: 3553263808
I0403 17:26:09.945315  8794 layer_factory.hpp:77] Creating layer res5a_branch2a_relu
I0403 17:26:09.945329  8794 net.cpp:103] Creating Layer res5a_branch2a_relu
I0403 17:26:09.945333  8794 net.cpp:456] res5a_branch2a_relu <- res5a_branch2a
I0403 17:26:09.945335  8794 net.cpp:417] res5a_branch2a_relu -> res5a_branch2a (in-place)
I0403 17:26:09.945478  8794 net.cpp:153] Setting up res5a_branch2a_relu
I0403 17:26:09.945484  8794 net.cpp:160] Top shape: 16 512 7 7 (401408)
I0403 17:26:09.945487  8794 net.cpp:168] Memory required for data: 3554869440
I0403 17:26:09.945488  8794 layer_factory.hpp:77] Creating layer res5a_branch2b
I0403 17:26:09.945494  8794 net.cpp:103] Creating Layer res5a_branch2b
I0403 17:26:09.945497  8794 net.cpp:456] res5a_branch2b <- res5a_branch2a
I0403 17:26:09.945500  8794 net.cpp:430] res5a_branch2b -> res5a_branch2b
I0403 17:26:09.949671  8794 net.cpp:153] Setting up res5a_branch2b
I0403 17:26:09.949694  8794 net.cpp:160] Top shape: 16 512 7 7 (401408)
I0403 17:26:09.949697  8794 net.cpp:168] Memory required for data: 3556475072
I0403 17:26:09.949702  8794 layer_factory.hpp:77] Creating layer bn5a_branch2b
I0403 17:26:09.949726  8794 net.cpp:103] Creating Layer bn5a_branch2b
I0403 17:26:09.949729  8794 net.cpp:456] bn5a_branch2b <- res5a_branch2b
I0403 17:26:09.949744  8794 net.cpp:417] bn5a_branch2b -> res5a_branch2b (in-place)
I0403 17:26:09.949942  8794 net.cpp:153] Setting up bn5a_branch2b
I0403 17:26:09.949947  8794 net.cpp:160] Top shape: 16 512 7 7 (401408)
I0403 17:26:09.949949  8794 net.cpp:168] Memory required for data: 3558080704
I0403 17:26:09.949954  8794 layer_factory.hpp:77] Creating layer scale5a_branch2b
I0403 17:26:09.949968  8794 net.cpp:103] Creating Layer scale5a_branch2b
I0403 17:26:09.949971  8794 net.cpp:456] scale5a_branch2b <- res5a_branch2b
I0403 17:26:09.949975  8794 net.cpp:417] scale5a_branch2b -> res5a_branch2b (in-place)
I0403 17:26:09.950028  8794 layer_factory.hpp:77] Creating layer scale5a_branch2b
I0403 17:26:09.950197  8794 net.cpp:153] Setting up scale5a_branch2b
I0403 17:26:09.950202  8794 net.cpp:160] Top shape: 16 512 7 7 (401408)
I0403 17:26:09.950204  8794 net.cpp:168] Memory required for data: 3559686336
I0403 17:26:09.950207  8794 layer_factory.hpp:77] Creating layer res5a_branch2b_relu
I0403 17:26:09.950222  8794 net.cpp:103] Creating Layer res5a_branch2b_relu
I0403 17:26:09.950224  8794 net.cpp:456] res5a_branch2b_relu <- res5a_branch2b
I0403 17:26:09.950239  8794 net.cpp:417] res5a_branch2b_relu -> res5a_branch2b (in-place)
I0403 17:26:09.950695  8794 net.cpp:153] Setting up res5a_branch2b_relu
I0403 17:26:09.950703  8794 net.cpp:160] Top shape: 16 512 7 7 (401408)
I0403 17:26:09.950706  8794 net.cpp:168] Memory required for data: 3561291968
I0403 17:26:09.950707  8794 layer_factory.hpp:77] Creating layer res5a_branch2c
I0403 17:26:09.950724  8794 net.cpp:103] Creating Layer res5a_branch2c
I0403 17:26:09.950727  8794 net.cpp:456] res5a_branch2c <- res5a_branch2b
I0403 17:26:09.950731  8794 net.cpp:430] res5a_branch2c -> res5a_branch2c
I0403 17:26:09.952957  8794 net.cpp:153] Setting up res5a_branch2c
I0403 17:26:09.952977  8794 net.cpp:160] Top shape: 16 2048 7 7 (1605632)
I0403 17:26:09.952980  8794 net.cpp:168] Memory required for data: 3567714496
I0403 17:26:09.952986  8794 layer_factory.hpp:77] Creating layer bn5a_branch2c
I0403 17:26:09.952993  8794 net.cpp:103] Creating Layer bn5a_branch2c
I0403 17:26:09.952997  8794 net.cpp:456] bn5a_branch2c <- res5a_branch2c
I0403 17:26:09.953002  8794 net.cpp:417] bn5a_branch2c -> res5a_branch2c (in-place)
I0403 17:26:09.953186  8794 net.cpp:153] Setting up bn5a_branch2c
I0403 17:26:09.953191  8794 net.cpp:160] Top shape: 16 2048 7 7 (1605632)
I0403 17:26:09.953193  8794 net.cpp:168] Memory required for data: 3574137024
I0403 17:26:09.953198  8794 layer_factory.hpp:77] Creating layer scale5a_branch2c
I0403 17:26:09.953203  8794 net.cpp:103] Creating Layer scale5a_branch2c
I0403 17:26:09.953205  8794 net.cpp:456] scale5a_branch2c <- res5a_branch2c
I0403 17:26:09.953209  8794 net.cpp:417] scale5a_branch2c -> res5a_branch2c (in-place)
I0403 17:26:09.953244  8794 layer_factory.hpp:77] Creating layer scale5a_branch2c
I0403 17:26:09.953344  8794 net.cpp:153] Setting up scale5a_branch2c
I0403 17:26:09.953349  8794 net.cpp:160] Top shape: 16 2048 7 7 (1605632)
I0403 17:26:09.953351  8794 net.cpp:168] Memory required for data: 3580559552
I0403 17:26:09.953354  8794 layer_factory.hpp:77] Creating layer res5a
I0403 17:26:09.953358  8794 net.cpp:103] Creating Layer res5a
I0403 17:26:09.953361  8794 net.cpp:456] res5a <- res5a_branch1
I0403 17:26:09.953363  8794 net.cpp:456] res5a <- res5a_branch2c
I0403 17:26:09.953367  8794 net.cpp:430] res5a -> res5a
I0403 17:26:09.953399  8794 net.cpp:153] Setting up res5a
I0403 17:26:09.953404  8794 net.cpp:160] Top shape: 16 2048 7 7 (1605632)
I0403 17:26:09.953407  8794 net.cpp:168] Memory required for data: 3586982080
I0403 17:26:09.953418  8794 layer_factory.hpp:77] Creating layer res5a_relu
I0403 17:26:09.953421  8794 net.cpp:103] Creating Layer res5a_relu
I0403 17:26:09.953423  8794 net.cpp:456] res5a_relu <- res5a
I0403 17:26:09.953426  8794 net.cpp:417] res5a_relu -> res5a (in-place)
I0403 17:26:09.953573  8794 net.cpp:153] Setting up res5a_relu
I0403 17:26:09.953579  8794 net.cpp:160] Top shape: 16 2048 7 7 (1605632)
I0403 17:26:09.953582  8794 net.cpp:168] Memory required for data: 3593404608
I0403 17:26:09.953583  8794 layer_factory.hpp:77] Creating layer res5a_res5a_relu_0_split
I0403 17:26:09.953588  8794 net.cpp:103] Creating Layer res5a_res5a_relu_0_split
I0403 17:26:09.953589  8794 net.cpp:456] res5a_res5a_relu_0_split <- res5a
I0403 17:26:09.953593  8794 net.cpp:430] res5a_res5a_relu_0_split -> res5a_res5a_relu_0_split_0
I0403 17:26:09.953598  8794 net.cpp:430] res5a_res5a_relu_0_split -> res5a_res5a_relu_0_split_1
I0403 17:26:09.953634  8794 net.cpp:153] Setting up res5a_res5a_relu_0_split
I0403 17:26:09.953639  8794 net.cpp:160] Top shape: 16 2048 7 7 (1605632)
I0403 17:26:09.953640  8794 net.cpp:160] Top shape: 16 2048 7 7 (1605632)
I0403 17:26:09.953641  8794 net.cpp:168] Memory required for data: 3606249664
I0403 17:26:09.953644  8794 layer_factory.hpp:77] Creating layer res5b_branch2a
I0403 17:26:09.953650  8794 net.cpp:103] Creating Layer res5b_branch2a
I0403 17:26:09.953652  8794 net.cpp:456] res5b_branch2a <- res5a_res5a_relu_0_split_0
I0403 17:26:09.953657  8794 net.cpp:430] res5b_branch2a -> res5b_branch2a
I0403 17:26:09.956236  8794 net.cpp:153] Setting up res5b_branch2a
I0403 17:26:09.956256  8794 net.cpp:160] Top shape: 16 512 7 7 (401408)
I0403 17:26:09.956259  8794 net.cpp:168] Memory required for data: 3607855296
I0403 17:26:09.956264  8794 layer_factory.hpp:77] Creating layer bn5b_branch2a
I0403 17:26:09.956285  8794 net.cpp:103] Creating Layer bn5b_branch2a
I0403 17:26:09.956290  8794 net.cpp:456] bn5b_branch2a <- res5b_branch2a
I0403 17:26:09.956303  8794 net.cpp:417] bn5b_branch2a -> res5b_branch2a (in-place)
I0403 17:26:09.956512  8794 net.cpp:153] Setting up bn5b_branch2a
I0403 17:26:09.956517  8794 net.cpp:160] Top shape: 16 512 7 7 (401408)
I0403 17:26:09.956519  8794 net.cpp:168] Memory required for data: 3609460928
I0403 17:26:09.956523  8794 layer_factory.hpp:77] Creating layer scale5b_branch2a
I0403 17:26:09.956539  8794 net.cpp:103] Creating Layer scale5b_branch2a
I0403 17:26:09.956542  8794 net.cpp:456] scale5b_branch2a <- res5b_branch2a
I0403 17:26:09.956557  8794 net.cpp:417] scale5b_branch2a -> res5b_branch2a (in-place)
I0403 17:26:09.956622  8794 layer_factory.hpp:77] Creating layer scale5b_branch2a
I0403 17:26:09.956748  8794 net.cpp:153] Setting up scale5b_branch2a
I0403 17:26:09.956753  8794 net.cpp:160] Top shape: 16 512 7 7 (401408)
I0403 17:26:09.956754  8794 net.cpp:168] Memory required for data: 3611066560
I0403 17:26:09.956758  8794 layer_factory.hpp:77] Creating layer res5b_branch2a_relu
I0403 17:26:09.956773  8794 net.cpp:103] Creating Layer res5b_branch2a_relu
I0403 17:26:09.956775  8794 net.cpp:456] res5b_branch2a_relu <- res5b_branch2a
I0403 17:26:09.956779  8794 net.cpp:417] res5b_branch2a_relu -> res5b_branch2a (in-place)
I0403 17:26:09.956954  8794 net.cpp:153] Setting up res5b_branch2a_relu
I0403 17:26:09.956959  8794 net.cpp:160] Top shape: 16 512 7 7 (401408)
I0403 17:26:09.956961  8794 net.cpp:168] Memory required for data: 3612672192
I0403 17:26:09.956964  8794 layer_factory.hpp:77] Creating layer res5b_branch2b
I0403 17:26:09.956970  8794 net.cpp:103] Creating Layer res5b_branch2b
I0403 17:26:09.956974  8794 net.cpp:456] res5b_branch2b <- res5b_branch2a
I0403 17:26:09.956976  8794 net.cpp:430] res5b_branch2b -> res5b_branch2b
I0403 17:26:09.961064  8794 net.cpp:153] Setting up res5b_branch2b
I0403 17:26:09.961086  8794 net.cpp:160] Top shape: 16 512 7 7 (401408)
I0403 17:26:09.961087  8794 net.cpp:168] Memory required for data: 3614277824
I0403 17:26:09.961093  8794 layer_factory.hpp:77] Creating layer bn5b_branch2b
I0403 17:26:09.961138  8794 net.cpp:103] Creating Layer bn5b_branch2b
I0403 17:26:09.961143  8794 net.cpp:456] bn5b_branch2b <- res5b_branch2b
I0403 17:26:09.961148  8794 net.cpp:417] bn5b_branch2b -> res5b_branch2b (in-place)
I0403 17:26:09.961346  8794 net.cpp:153] Setting up bn5b_branch2b
I0403 17:26:09.961351  8794 net.cpp:160] Top shape: 16 512 7 7 (401408)
I0403 17:26:09.961354  8794 net.cpp:168] Memory required for data: 3615883456
I0403 17:26:09.961357  8794 layer_factory.hpp:77] Creating layer scale5b_branch2b
I0403 17:26:09.961374  8794 net.cpp:103] Creating Layer scale5b_branch2b
I0403 17:26:09.961376  8794 net.cpp:456] scale5b_branch2b <- res5b_branch2b
I0403 17:26:09.961390  8794 net.cpp:417] scale5b_branch2b -> res5b_branch2b (in-place)
I0403 17:26:09.961447  8794 layer_factory.hpp:77] Creating layer scale5b_branch2b
I0403 17:26:09.961575  8794 net.cpp:153] Setting up scale5b_branch2b
I0403 17:26:09.961580  8794 net.cpp:160] Top shape: 16 512 7 7 (401408)
I0403 17:26:09.961581  8794 net.cpp:168] Memory required for data: 3617489088
I0403 17:26:09.961585  8794 layer_factory.hpp:77] Creating layer res5b_branch2b_relu
I0403 17:26:09.961599  8794 net.cpp:103] Creating Layer res5b_branch2b_relu
I0403 17:26:09.961601  8794 net.cpp:456] res5b_branch2b_relu <- res5b_branch2b
I0403 17:26:09.961604  8794 net.cpp:417] res5b_branch2b_relu -> res5b_branch2b (in-place)
I0403 17:26:09.962059  8794 net.cpp:153] Setting up res5b_branch2b_relu
I0403 17:26:09.962067  8794 net.cpp:160] Top shape: 16 512 7 7 (401408)
I0403 17:26:09.962069  8794 net.cpp:168] Memory required for data: 3619094720
I0403 17:26:09.962071  8794 layer_factory.hpp:77] Creating layer res5b_branch2c
I0403 17:26:09.962095  8794 net.cpp:103] Creating Layer res5b_branch2c
I0403 17:26:09.962100  8794 net.cpp:456] res5b_branch2c <- res5b_branch2b
I0403 17:26:09.962106  8794 net.cpp:430] res5b_branch2c -> res5b_branch2c
I0403 17:26:09.964290  8794 net.cpp:153] Setting up res5b_branch2c
I0403 17:26:09.964305  8794 net.cpp:160] Top shape: 16 2048 7 7 (1605632)
I0403 17:26:09.964308  8794 net.cpp:168] Memory required for data: 3625517248
I0403 17:26:09.964313  8794 layer_factory.hpp:77] Creating layer bn5b_branch2c
I0403 17:26:09.964329  8794 net.cpp:103] Creating Layer bn5b_branch2c
I0403 17:26:09.964332  8794 net.cpp:456] bn5b_branch2c <- res5b_branch2c
I0403 17:26:09.964336  8794 net.cpp:417] bn5b_branch2c -> res5b_branch2c (in-place)
I0403 17:26:09.964525  8794 net.cpp:153] Setting up bn5b_branch2c
I0403 17:26:09.964530  8794 net.cpp:160] Top shape: 16 2048 7 7 (1605632)
I0403 17:26:09.964531  8794 net.cpp:168] Memory required for data: 3631939776
I0403 17:26:09.964536  8794 layer_factory.hpp:77] Creating layer scale5b_branch2c
I0403 17:26:09.964551  8794 net.cpp:103] Creating Layer scale5b_branch2c
I0403 17:26:09.964555  8794 net.cpp:456] scale5b_branch2c <- res5b_branch2c
I0403 17:26:09.964557  8794 net.cpp:417] scale5b_branch2c -> res5b_branch2c (in-place)
I0403 17:26:09.964603  8794 layer_factory.hpp:77] Creating layer scale5b_branch2c
I0403 17:26:09.964723  8794 net.cpp:153] Setting up scale5b_branch2c
I0403 17:26:09.964727  8794 net.cpp:160] Top shape: 16 2048 7 7 (1605632)
I0403 17:26:09.964730  8794 net.cpp:168] Memory required for data: 3638362304
I0403 17:26:09.964732  8794 layer_factory.hpp:77] Creating layer res5b
I0403 17:26:09.964747  8794 net.cpp:103] Creating Layer res5b
I0403 17:26:09.964751  8794 net.cpp:456] res5b <- res5a_res5a_relu_0_split_1
I0403 17:26:09.964753  8794 net.cpp:456] res5b <- res5b_branch2c
I0403 17:26:09.964756  8794 net.cpp:430] res5b -> res5b
I0403 17:26:09.964797  8794 net.cpp:153] Setting up res5b
I0403 17:26:09.964802  8794 net.cpp:160] Top shape: 16 2048 7 7 (1605632)
I0403 17:26:09.964803  8794 net.cpp:168] Memory required for data: 3644784832
I0403 17:26:09.964805  8794 layer_factory.hpp:77] Creating layer res5b_relu
I0403 17:26:09.964808  8794 net.cpp:103] Creating Layer res5b_relu
I0403 17:26:09.964820  8794 net.cpp:456] res5b_relu <- res5b
I0403 17:26:09.964823  8794 net.cpp:417] res5b_relu -> res5b (in-place)
I0403 17:26:09.965001  8794 net.cpp:153] Setting up res5b_relu
I0403 17:26:09.965008  8794 net.cpp:160] Top shape: 16 2048 7 7 (1605632)
I0403 17:26:09.965009  8794 net.cpp:168] Memory required for data: 3651207360
I0403 17:26:09.965011  8794 layer_factory.hpp:77] Creating layer res5b_res5b_relu_0_split
I0403 17:26:09.965018  8794 net.cpp:103] Creating Layer res5b_res5b_relu_0_split
I0403 17:26:09.965020  8794 net.cpp:456] res5b_res5b_relu_0_split <- res5b
I0403 17:26:09.965023  8794 net.cpp:430] res5b_res5b_relu_0_split -> res5b_res5b_relu_0_split_0
I0403 17:26:09.965029  8794 net.cpp:430] res5b_res5b_relu_0_split -> res5b_res5b_relu_0_split_1
I0403 17:26:09.965062  8794 net.cpp:153] Setting up res5b_res5b_relu_0_split
I0403 17:26:09.965066  8794 net.cpp:160] Top shape: 16 2048 7 7 (1605632)
I0403 17:26:09.965068  8794 net.cpp:160] Top shape: 16 2048 7 7 (1605632)
I0403 17:26:09.965070  8794 net.cpp:168] Memory required for data: 3664052416
I0403 17:26:09.965072  8794 layer_factory.hpp:77] Creating layer res5c_branch2a
I0403 17:26:09.965078  8794 net.cpp:103] Creating Layer res5c_branch2a
I0403 17:26:09.965080  8794 net.cpp:456] res5c_branch2a <- res5b_res5b_relu_0_split_0
I0403 17:26:09.965085  8794 net.cpp:430] res5c_branch2a -> res5c_branch2a
I0403 17:26:09.967348  8794 net.cpp:153] Setting up res5c_branch2a
I0403 17:26:09.967365  8794 net.cpp:160] Top shape: 16 512 7 7 (401408)
I0403 17:26:09.967368  8794 net.cpp:168] Memory required for data: 3665658048
I0403 17:26:09.967372  8794 layer_factory.hpp:77] Creating layer bn5c_branch2a
I0403 17:26:09.967380  8794 net.cpp:103] Creating Layer bn5c_branch2a
I0403 17:26:09.967383  8794 net.cpp:456] bn5c_branch2a <- res5c_branch2a
I0403 17:26:09.967387  8794 net.cpp:417] bn5c_branch2a -> res5c_branch2a (in-place)
I0403 17:26:09.967573  8794 net.cpp:153] Setting up bn5c_branch2a
I0403 17:26:09.967578  8794 net.cpp:160] Top shape: 16 512 7 7 (401408)
I0403 17:26:09.967579  8794 net.cpp:168] Memory required for data: 3667263680
I0403 17:26:09.967584  8794 layer_factory.hpp:77] Creating layer scale5c_branch2a
I0403 17:26:09.967591  8794 net.cpp:103] Creating Layer scale5c_branch2a
I0403 17:26:09.967592  8794 net.cpp:456] scale5c_branch2a <- res5c_branch2a
I0403 17:26:09.967597  8794 net.cpp:417] scale5c_branch2a -> res5c_branch2a (in-place)
I0403 17:26:09.967631  8794 layer_factory.hpp:77] Creating layer scale5c_branch2a
I0403 17:26:09.967731  8794 net.cpp:153] Setting up scale5c_branch2a
I0403 17:26:09.967736  8794 net.cpp:160] Top shape: 16 512 7 7 (401408)
I0403 17:26:09.967738  8794 net.cpp:168] Memory required for data: 3668869312
I0403 17:26:09.967741  8794 layer_factory.hpp:77] Creating layer res5c_branch2a_relu
I0403 17:26:09.967746  8794 net.cpp:103] Creating Layer res5c_branch2a_relu
I0403 17:26:09.967747  8794 net.cpp:456] res5c_branch2a_relu <- res5c_branch2a
I0403 17:26:09.967751  8794 net.cpp:417] res5c_branch2a_relu -> res5c_branch2a (in-place)
I0403 17:26:09.967905  8794 net.cpp:153] Setting up res5c_branch2a_relu
I0403 17:26:09.967911  8794 net.cpp:160] Top shape: 16 512 7 7 (401408)
I0403 17:26:09.967913  8794 net.cpp:168] Memory required for data: 3670474944
I0403 17:26:09.967916  8794 layer_factory.hpp:77] Creating layer res5c_branch2b
I0403 17:26:09.967931  8794 net.cpp:103] Creating Layer res5c_branch2b
I0403 17:26:09.967934  8794 net.cpp:456] res5c_branch2b <- res5c_branch2a
I0403 17:26:09.967938  8794 net.cpp:430] res5c_branch2b -> res5c_branch2b
I0403 17:26:09.972045  8794 net.cpp:153] Setting up res5c_branch2b
I0403 17:26:09.972067  8794 net.cpp:160] Top shape: 16 512 7 7 (401408)
I0403 17:26:09.972069  8794 net.cpp:168] Memory required for data: 3672080576
I0403 17:26:09.972075  8794 layer_factory.hpp:77] Creating layer bn5c_branch2b
I0403 17:26:09.972095  8794 net.cpp:103] Creating Layer bn5c_branch2b
I0403 17:26:09.972097  8794 net.cpp:456] bn5c_branch2b <- res5c_branch2b
I0403 17:26:09.972102  8794 net.cpp:417] bn5c_branch2b -> res5c_branch2b (in-place)
I0403 17:26:09.972295  8794 net.cpp:153] Setting up bn5c_branch2b
I0403 17:26:09.972301  8794 net.cpp:160] Top shape: 16 512 7 7 (401408)
I0403 17:26:09.972323  8794 net.cpp:168] Memory required for data: 3673686208
I0403 17:26:09.972328  8794 layer_factory.hpp:77] Creating layer scale5c_branch2b
I0403 17:26:09.972337  8794 net.cpp:103] Creating Layer scale5c_branch2b
I0403 17:26:09.972339  8794 net.cpp:456] scale5c_branch2b <- res5c_branch2b
I0403 17:26:09.972344  8794 net.cpp:417] scale5c_branch2b -> res5c_branch2b (in-place)
I0403 17:26:09.972393  8794 layer_factory.hpp:77] Creating layer scale5c_branch2b
I0403 17:26:09.972512  8794 net.cpp:153] Setting up scale5c_branch2b
I0403 17:26:09.972517  8794 net.cpp:160] Top shape: 16 512 7 7 (401408)
I0403 17:26:09.972518  8794 net.cpp:168] Memory required for data: 3675291840
I0403 17:26:09.972522  8794 layer_factory.hpp:77] Creating layer res5c_branch2b_relu
I0403 17:26:09.972537  8794 net.cpp:103] Creating Layer res5c_branch2b_relu
I0403 17:26:09.972538  8794 net.cpp:456] res5c_branch2b_relu <- res5c_branch2b
I0403 17:26:09.972543  8794 net.cpp:417] res5c_branch2b_relu -> res5c_branch2b (in-place)
I0403 17:26:09.972693  8794 net.cpp:153] Setting up res5c_branch2b_relu
I0403 17:26:09.972699  8794 net.cpp:160] Top shape: 16 512 7 7 (401408)
I0403 17:26:09.972702  8794 net.cpp:168] Memory required for data: 3676897472
I0403 17:26:09.972703  8794 layer_factory.hpp:77] Creating layer res5c_branch2c
I0403 17:26:09.972719  8794 net.cpp:103] Creating Layer res5c_branch2c
I0403 17:26:09.972723  8794 net.cpp:456] res5c_branch2c <- res5c_branch2b
I0403 17:26:09.972726  8794 net.cpp:430] res5c_branch2c -> res5c_branch2c
I0403 17:26:09.974974  8794 net.cpp:153] Setting up res5c_branch2c
I0403 17:26:09.974992  8794 net.cpp:160] Top shape: 16 2048 7 7 (1605632)
I0403 17:26:09.974993  8794 net.cpp:168] Memory required for data: 3683320000
I0403 17:26:09.974998  8794 layer_factory.hpp:77] Creating layer bn5c_branch2c
I0403 17:26:09.975014  8794 net.cpp:103] Creating Layer bn5c_branch2c
I0403 17:26:09.975018  8794 net.cpp:456] bn5c_branch2c <- res5c_branch2c
I0403 17:26:09.975023  8794 net.cpp:417] bn5c_branch2c -> res5c_branch2c (in-place)
I0403 17:26:09.975219  8794 net.cpp:153] Setting up bn5c_branch2c
I0403 17:26:09.975224  8794 net.cpp:160] Top shape: 16 2048 7 7 (1605632)
I0403 17:26:09.975225  8794 net.cpp:168] Memory required for data: 3689742528
I0403 17:26:09.975229  8794 layer_factory.hpp:77] Creating layer scale5c_branch2c
I0403 17:26:09.975244  8794 net.cpp:103] Creating Layer scale5c_branch2c
I0403 17:26:09.975246  8794 net.cpp:456] scale5c_branch2c <- res5c_branch2c
I0403 17:26:09.975250  8794 net.cpp:417] scale5c_branch2c -> res5c_branch2c (in-place)
I0403 17:26:09.975296  8794 layer_factory.hpp:77] Creating layer scale5c_branch2c
I0403 17:26:09.975419  8794 net.cpp:153] Setting up scale5c_branch2c
I0403 17:26:09.975425  8794 net.cpp:160] Top shape: 16 2048 7 7 (1605632)
I0403 17:26:09.975426  8794 net.cpp:168] Memory required for data: 3696165056
I0403 17:26:09.975430  8794 layer_factory.hpp:77] Creating layer res5c
I0403 17:26:09.975443  8794 net.cpp:103] Creating Layer res5c
I0403 17:26:09.975446  8794 net.cpp:456] res5c <- res5b_res5b_relu_0_split_1
I0403 17:26:09.975450  8794 net.cpp:456] res5c <- res5c_branch2c
I0403 17:26:09.975453  8794 net.cpp:430] res5c -> res5c
I0403 17:26:09.975497  8794 net.cpp:153] Setting up res5c
I0403 17:26:09.975500  8794 net.cpp:160] Top shape: 16 2048 7 7 (1605632)
I0403 17:26:09.975502  8794 net.cpp:168] Memory required for data: 3702587584
I0403 17:26:09.975503  8794 layer_factory.hpp:77] Creating layer res5c_relu
I0403 17:26:09.975517  8794 net.cpp:103] Creating Layer res5c_relu
I0403 17:26:09.975519  8794 net.cpp:456] res5c_relu <- res5c
I0403 17:26:09.975522  8794 net.cpp:417] res5c_relu -> res5c (in-place)
I0403 17:26:09.976006  8794 net.cpp:153] Setting up res5c_relu
I0403 17:26:09.976014  8794 net.cpp:160] Top shape: 16 2048 7 7 (1605632)
I0403 17:26:09.976016  8794 net.cpp:168] Memory required for data: 3709010112
I0403 17:26:09.976019  8794 layer_factory.hpp:77] Creating layer pool5
I0403 17:26:09.976033  8794 net.cpp:103] Creating Layer pool5
I0403 17:26:09.976047  8794 net.cpp:456] pool5 <- res5c
I0403 17:26:09.976052  8794 net.cpp:430] pool5 -> pool5
I0403 17:26:09.976263  8794 net.cpp:153] Setting up pool5
I0403 17:26:09.976270  8794 net.cpp:160] Top shape: 16 2048 1 1 (32768)
I0403 17:26:09.976272  8794 net.cpp:168] Memory required for data: 3709141184
I0403 17:26:09.976274  8794 layer_factory.hpp:77] Creating layer pool5/dropout
I0403 17:26:09.976289  8794 net.cpp:103] Creating Layer pool5/dropout
I0403 17:26:09.976290  8794 net.cpp:456] pool5/dropout <- pool5
I0403 17:26:09.976294  8794 net.cpp:417] pool5/dropout -> pool5 (in-place)
I0403 17:26:09.976328  8794 net.cpp:153] Setting up pool5/dropout
I0403 17:26:09.976332  8794 net.cpp:160] Top shape: 16 2048 1 1 (32768)
I0403 17:26:09.976335  8794 net.cpp:168] Memory required for data: 3709272256
I0403 17:26:09.976336  8794 layer_factory.hpp:77] Creating layer fc10
I0403 17:26:09.976349  8794 net.cpp:103] Creating Layer fc10
I0403 17:26:09.976352  8794 net.cpp:456] fc10 <- pool5
I0403 17:26:09.976356  8794 net.cpp:430] fc10 -> fc10
I0403 17:26:09.976615  8794 net.cpp:153] Setting up fc10
I0403 17:26:09.976621  8794 net.cpp:160] Top shape: 16 10 (160)
I0403 17:26:09.976622  8794 net.cpp:168] Memory required for data: 3709272896
I0403 17:26:09.976627  8794 layer_factory.hpp:77] Creating layer fc10_fc10_0_split
I0403 17:26:09.976640  8794 net.cpp:103] Creating Layer fc10_fc10_0_split
I0403 17:26:09.976642  8794 net.cpp:456] fc10_fc10_0_split <- fc10
I0403 17:26:09.976646  8794 net.cpp:430] fc10_fc10_0_split -> fc10_fc10_0_split_0
I0403 17:26:09.976650  8794 net.cpp:430] fc10_fc10_0_split -> fc10_fc10_0_split_1
I0403 17:26:09.976691  8794 net.cpp:153] Setting up fc10_fc10_0_split
I0403 17:26:09.976696  8794 net.cpp:160] Top shape: 16 10 (160)
I0403 17:26:09.976698  8794 net.cpp:160] Top shape: 16 10 (160)
I0403 17:26:09.976699  8794 net.cpp:168] Memory required for data: 3709274176
I0403 17:26:09.976701  8794 layer_factory.hpp:77] Creating layer accuracy
I0403 17:26:09.976714  8794 net.cpp:103] Creating Layer accuracy
I0403 17:26:09.976717  8794 net.cpp:456] accuracy <- fc10_fc10_0_split_0
I0403 17:26:09.976721  8794 net.cpp:456] accuracy <- label_data_1_split_0
I0403 17:26:09.976724  8794 net.cpp:430] accuracy -> accuracy
…
