…
name: "Res50-base"
state {
  phase: TRAIN
  level: 0
  stage: ""
}
layer {
  name: "data"
  type: "ImageData"
  top: "data"
  top: "label"
  include {
    phase: TRAIN
  }
  transform_param {
    mirror: true
    crop_size: 224
    mean_value: 102.691
    mean_value: 128.77
    mean_value: 131.293
  }
  image_data_param {
    source: "data/apple_disease/train.txt"
    batch_size: 16
    shuffle: true
    new_height: 256
    new_width: 256
    root_folder: "/media/agwang/\346\226\260\345\212\240\345\215\267/DataSets/Competitions/AppleDiseases/"
  }
}
layer {
  name: "conv1"
  type: "Convolution"
  bottom: "data"
  top: "conv1"
  param {
    lr_mult: 0
  }
  param {
    lr_mult: 0
  }
  convolution_param {
    num_output: 64
    pad: 3
    kernel_size: 7
    stride: 2
  }
}
layer {
  name: "bn_conv1"
  type: "BatchNorm"
  bottom: "conv1"
  top: "conv1"
  batch_norm_param {
    use_global_stats: true
  }
}
layer {
  name: "scale_conv1"
  type: "Scale"
  bottom: "conv1"
  top: "conv1"
  param {
    lr_mult: 0
    decay_mult: 0
  }
  param {
    lr_mult: 0
    decay_mult: 0
  }
  scale_param {
    bias_term: true
  }
}
layer {
  name: "conv1_relu"
  type: "ReLU"
  bottom: "conv1"
  top: "conv1"
}
layer {
  name: "pool1"
  type: "Pooling"
  bottom: "conv1"
  top: "pool1"
  pooling_param {
    pool: MAX
    kernel_size: 3
    stride: 2
  }
}
layer {
  name: "res2a_branch1"
  type: "Convolution"
  bottom: "pool1"
  top: "res2a_branch1"
  param {
    lr_mult: 0
  }
  convolution_param {
    num_output: 256
    bias_term: false
    pad: 0
    kernel_size: 1
    stride: 1
  }
}
layer {
  name: "bn2a_branch1"
  type: "BatchNorm"
  bottom: "res2a_branch1"
  top: "res2a_branch1"
  batch_norm_param {
    use_global_stats: true
  }
}
layer {
  name: "scale2a_branch1"
  type: "Scale"
  bottom: "res2a_branch1"
  top: "res2a_branch1"
  param {
    lr_mult: 0
    decay_mult: 0
  }
  param {
    lr_mult: 0
    decay_mult: 0
  }
  scale_param {
    bias_term: true
  }
}
layer {
  name: "res2a_branch2a"
  type: "Convolution"
  bottom: "pool1"
  top: "res2a_branch2a"
  param {
    lr_mult: 0
  }
  convolution_param {
    num_output: 64
    bias_term: false
    pad: 0
    kernel_size: 1
    stride: 1
  }
}
layer {
  name: "bn2a_branch2a"
  type: "BatchNorm"
  bottom: "res2a_branch2a"
  top: "res2a_branch2a"
  batch_norm_param {
    use_global_stats: true
  }
}
layer {
  name: "scale2a_branch2a"
  type: "Scale"
  bottom: "res2a_branch2a"
  top: "res2a_branch2a"
  param {
    lr_mult: 0
    decay_mult: 0
  }
  param {
    lr_mult: 0
    decay_mult: 0
  }
  scale_param {
    bias_term: true
  }
}
layer {
  name: "res2a_branch2a_relu"
  type: "ReLU"
  bottom: "res2a_branch2a"
  top: "res2a_branch2a"
}
layer {
  name: "res2a_branch2b"
  type: "Convolution"
  bottom: "res2a_branch2a"
  top: "res2a_branch2b"
  param {
    lr_mult: 0
  }
  convolution_param {
    num_output: 64
    bias_term: false
    pad: 1
    kernel_size: 3
    stride: 1
  }
}
layer {
  name: "bn2a_branch2b"
  type: "BatchNorm"
  bottom: "res2a_branch2b"
  top: "res2a_branch2b"
  batch_norm_param {
    use_global_stats: true
  }
}
layer {
  name: "scale2a_branch2b"
  type: "Scale"
  bottom: "res2a_branch2b"
  top: "res2a_branch2b"
  param {
    lr_mult: 0
    decay_mult: 0
  }
  param {
    lr_mult: 0
    decay_mult: 0
  }
  scale_param {
    bias_term: true
  }
}
layer {
  name: "res2a_branch2b_relu"
  type: "ReLU"
  bottom: "res2a_branch2b"
  top: "res2a_branch2b"
}
layer {
  name: "res2a_branch2c"
  type: "Convolution"
  bottom: "res2a_branch2b"
  top: "res2a_branch2c"
  param {
    lr_mult: 0
  }
  convolution_param {
    num_output: 256
    bias_term: false
    pad: 0
    kernel_size: 1
    stride: 1
  }
}
layer {
  name: "bn2a_branch2c"
  type: "BatchNorm"
  bottom: "res2a_branch2c"
  top: "res2a_branch2c"
  batch_norm_param {
    use_global_stats: true
  }
}
layer {
  name: "scale2a_branch2c"
  type: "Scale"
  bottom: "res2a_branch2c"
  top: "res2a_branch2c"
  param {
    lr_mult: 0
    decay_mult: 0
  }
  param {
    lr_mult: 0
    decay_mult: 0
  }
  scale_param {
    bias_term: true
  }
}
layer {
  name: "res2a"
  type: "Eltwise"
  bottom: "res2a_branch1"
  bottom: "res2a_branch2c"
  top: "res2a"
}
layer {
  name: "res2a_relu"
  type: "ReLU"
  bottom: "res2a"
  top: "res2a"
}
layer {
  name: "res2b_branch2a"
  type: "Convolution"
  bottom: "res2a"
  top: "res2b_branch2a"
  param {
    lr_mult: 0
  }
  convolution_param {
    num_output: 64
    bias_term: false
    pad: 0
    kernel_size: 1
    stride: 1
  }
}
layer {
  name: "bn2b_branch2a"
  type: "BatchNorm"
  bottom: "res2b_branch2a"
  top: "res2b_branch2a"
  batch_norm_param {
    use_global_stats: true
  }
}
layer {
  name: "scale2b_branch2a"
  type: "Scale"
  bottom: "res2b_branch2a"
  top: "res2b_branch2a"
  param {
    lr_mult: 0
    decay_mult: 0
  }
  param {
    lr_mult: 0
    decay_mult: 0
  }
  scale_param {
    bias_term: true
  }
}
layer {
  name: "res2b_branch2a_relu"
  type: "ReLU"
  bottom: "res2b_branch2a"
  top: "res2b_branch2a"
}
layer {
  name: "res2b_branch2b"
  type: "Convolution"
  bottom: "res2b_branch2a"
  top: "res2b_branch2b"
  param {
    lr_mult: 0
  }
  convolution_param {
    num_output: 64
    bias_term: false
    pad: 1
    kernel_size: 3
    stride: 1
  }
}
layer {
  name: "bn2b_branch2b"
  type: "BatchNorm"
  bottom: "res2b_branch2b"
  top: "res2b_branch2b"
  batch_norm_param {
    use_global_stats: true
  }
}
layer {
  name: "scale2b_branch2b"
  type: "Scale"
  bottom: "res2b_branch2b"
  top: "res2b_branch2b"
  param {
    lr_mult: 0
    decay_mult: 0
  }
  param {
    lr_mult: 0
    decay_mult: 0
  }
  scale_param {
    bias_term: true
  }
}
layer {
  name: "res2b_branch2b_relu"
  type: "ReLU"
  bottom: "res2b_branch2b"
  top: "res2b_branch2b"
}
layer {
  name: "res2b_branch2c"
  type: "Convolution"
  bottom: "res2b_branch2b"
  top: "res2b_branch2c"
  param {
    lr_mult: 0
  }
  convolution_param {
    num_output: 256
    bias_term: false
    pad: 0
    kernel_size: 1
    stride: 1
  }
}
layer {
  name: "bn2b_branch2c"
  type: "BatchNorm"
  bottom: "res2b_branch2c"
  top: "res2b_branch2c"
  batch_norm_param {
    use_global_stats: true
  }
}
layer {
  name: "scale2b_branch2c"
  type: "Scale"
  bottom: "res2b_branch2c"
  top: "res2b_branch2c"
  param {
    lr_mult: 0
    decay_mult: 0
  }
  param {
    lr_mult: 0
    decay_mult: 0
  }
  scale_param {
    bias_term: true
  }
}
layer {
  name: "res2b"
  type: "Eltwise"
  bottom: "res2a"
  bottom: "res2b_branch2c"
  top: "res2b"
}
layer {
  name: "res2b_relu"
  type: "ReLU"
  bottom: "res2b"
  top: "res2b"
}
layer {
  name: "res2c_branch2a"
  type: "Convolution"
  bottom: "res2b"
  top: "res2c_branch2a"
  param {
    lr_mult: 0
  }
  convolution_param {
    num_output: 64
    bias_term: false
    pad: 0
    kernel_size: 1
    stride: 1
  }
}
layer {
  name: "bn2c_branch2a"
  type: "BatchNorm"
  bottom: "res2c_branch2a"
  top: "res2c_branch2a"
  batch_norm_param {
    use_global_stats: true
  }
}
layer {
  name: "scale2c_branch2a"
  type: "Scale"
  bottom: "res2c_branch2a"
  top: "res2c_branch2a"
  param {
    lr_mult: 0
    decay_mult: 0
  }
  param {
    lr_mult: 0
    decay_mult: 0
  }
  scale_param {
    bias_term: true
  }
}
layer {
  name: "res2c_branch2a_relu"
  type: "ReLU"
  bottom: "res2c_branch2a"
  top: "res2c_branch2a"
}
layer {
  name: "res2c_branch2b"
  type: "Convolution"
  bottom: "res2c_branch2a"
  top: "res2c_branch2b"
  param {
    lr_mult: 0
  }
  convolution_param {
    num_output: 64
    bias_term: false
    pad: 1
    kernel_size: 3
    stride: 1
  }
}
layer {
  name: "bn2c_branch2b"
  type: "BatchNorm"
  bottom: "res2c_branch2b"
  top: "res2c_branch2b"
  batch_norm_param {
    use_global_stats: true
  }
}
layer {
  name: "scale2c_branch2b"
  type: "Scale"
  bottom: "res2c_branch2b"
  top: "res2c_branch2b"
  param {
    lr_mult: 0
    decay_mult: 0
  }
  param {
    lr_mult: 0
    decay_mult: 0
  }
  scale_param {
    bias_term: true
  }
}
layer {
  name: "res2c_branch2b_relu"
  type: "ReLU"
  bottom: "res2c_branch2b"
  top: "res2c_branch2b"
}
layer {
  name: "res2c_branch2c"
  type: "Convolution"
  bottom: "res2c_branch2b"
  top: "res2c_branch2c"
  param {
    lr_mult: 0
  }
  convolution_param {
    num_output: 256
    bias_term: false
    pad: 0
    kernel_size: 1
    stride: 1
  }
}
layer {
  name: "bn2c_branch2c"
  type: "BatchNorm"
  bottom: "res2c_branch2c"
  top: "res2c_branch2c"
  batch_norm_param {
    use_global_stats: true
  }
}
layer {
  name: "scale2c_branch2c"
  type: "Scale"
  bottom: "res2c_branch2c"
  top: "res2c_branch2c"
  param {
    lr_mult: 0
    decay_mult: 0
  }
  param {
    lr_mult: 0
    decay_mult: 0
  }
  scale_param {
    bias_term: true
  }
}
layer {
  name: "res2c"
  type: "Eltwise"
  bottom: "res2b"
  bottom: "res2c_branch2c"
  top: "res2c"
}
layer {
  name: "res2c_relu"
  type: "ReLU"
  bottom: "res2c"
  top: "res2c"
}
layer {
  name: "res3a_branch1"
  type: "Convolution"
  bottom: "res2c"
  top: "res3a_branch1"
  param {
    lr_mult: 1
  }
  convolution_param {
    num_output: 512
    bias_term: false
    pad: 0
    kernel_size: 1
    stride: 2
  }
}
layer {
  name: "bn3a_branch1"
  type: "BatchNorm"
  bottom: "res3a_branch1"
  top: "res3a_branch1"
  batch_norm_param {
    use_global_stats: true
  }
}
layer {
  name: "scale3a_branch1"
  type: "Scale"
  bottom: "res3a_branch1"
  top: "res3a_branch1"
  param {
    lr_mult: 0
    decay_mult: 0
  }
  param {
    lr_mult: 0
    decay_mult: 0
  }
  scale_param {
    bias_term: true
  }
}
layer {
  name: "res3a_branch2a"
  type: "Convolution"
  bottom: "res2c"
  top: "res3a_branch2a"
  param {
    lr_mult: 1
  }
  convolution_param {
    num_output: 128
    bias_term: false
    pad: 0
    kernel_size: 1
    stride: 2
  }
}
layer {
  name: "bn3a_branch2a"
  type: "BatchNorm"
  bottom: "res3a_branch2a"
  top: "res3a_branch2a"
  batch_norm_param {
    use_global_stats: true
  }
}
layer {
  name: "scale3a_branch2a"
  type: "Scale"
  bottom: "res3a_branch2a"
  top: "res3a_branch2a"
  param {
    lr_mult: 0
    decay_mult: 0
  }
  param {
    lr_mult: 0
    decay_mult: 0
  }
  scale_param {
    bias_term: true
  }
}
layer {
  name: "res3a_branch2a_relu"
  type: "ReLU"
  bottom: "res3a_branch2a"
  top: "res3a_branch2a"
}
layer {
  name: "res3a_branch2b"
  type: "Convolution"
  bottom: "res3a_branch2a"
  top: "res3a_branch2b"
  param {
    lr_mult: 1
  }
  convolution_param {
    num_output: 128
    bias_term: false
    pad: 1
    kernel_size: 3
    stride: 1
  }
}
layer {
  name: "bn3a_branch2b"
  type: "BatchNorm"
  bottom: "res3a_branch2b"
  top: "res3a_branch2b"
  batch_norm_param {
    use_global_stats: true
  }
}
layer {
  name: "scale3a_branch2b"
  type: "Scale"
  bottom: "res3a_branch2b"
  top: "res3a_branch2b"
  param {
    lr_mult: 0
    decay_mult: 0
  }
  param {
    lr_mult: 0
    decay_mult: 0
  }
  scale_param {
    bias_term: true
  }
}
layer {
  name: "res3a_branch2b_relu"
  type: "ReLU"
  bottom: "res3a_branch2b"
  top: "res3a_branch2b"
}
layer {
  name: "res3a_branch2c"
  type: "Convolution"
  bottom: "res3a_branch2b"
  top: "res3a_branch2c"
  param {
    lr_mult: 1
  }
  convolution_param {
    num_output: 512
    bias_term: false
    pad: 0
    kernel_size: 1
    stride: 1
  }
}
layer {
  name: "bn3a_branch2c"
  type: "BatchNorm"
  bottom: "res3a_branch2c"
  top: "res3a_branch2c"
  batch_norm_param {
    use_global_stats: true
  }
}
layer {
  name: "scale3a_branch2c"
  type: "Scale"
  bottom: "res3a_branch2c"
  top: "res3a_branch2c"
  param {
    lr_mult: 0
    decay_mult: 0
  }
  param {
    lr_mult: 0
    decay_mult: 0
  }
  scale_param {
    bias_term: true
  }
}
layer {
  name: "res3a"
  type: "Eltwise"
  bottom: "res3a_branch1"
  bottom: "res3a_branch2c"
  top: "res3a"
}
layer {
  name: "res3a_relu"
  type: "ReLU"
  bottom: "res3a"
  top: "res3a"
}
layer {
  name: "res3b_branch2a"
  type: "Convolution"
  bottom: "res3a"
  top: "res3b_branch2a"
  param {
    lr_mult: 1
  }
  convolution_param {
    num_output: 128
    bias_term: false
    pad: 0
    kernel_size: 1
    stride: 1
  }
}
layer {
  name: "bn3b_branch2a"
  type: "BatchNorm"
  bottom: "res3b_branch2a"
  top: "res3b_branch2a"
  batch_norm_param {
    use_global_stats: true
  }
}
layer {
  name: "scale3b_branch2a"
  type: "Scale"
  bottom: "res3b_branch2a"
  top: "res3b_branch2a"
  param {
    lr_mult: 0
    decay_mult: 0
  }
  param {
    lr_mult: 0
    decay_mult: 0
  }
  scale_param {
    bias_term: true
  }
}
layer {
  name: "res3b_branch2a_relu"
  type: "ReLU"
  bottom: "res3b_branch2a"
  top: "res3b_branch2a"
}
layer {
  name: "res3b_branch2b"
  type: "Convolution"
  bottom: "res3b_branch2a"
  top: "res3b_branch2b"
  param {
    lr_mult: 1
  }
  convolution_param {
    num_output: 128
    bias_term: false
    pad: 1
    kernel_size: 3
    stride: 1
  }
}
layer {
  name: "bn3b_branch2b"
  type: "BatchNorm"
  bottom: "res3b_branch2b"
  top: "res3b_branch2b"
  batch_norm_param {
    use_global_stats: true
  }
}
layer {
  name: "scale3b_branch2b"
  type: "Scale"
  bottom: "res3b_branch2b"
  top: "res3b_branch2b"
  param {
    lr_mult: 0
    decay_mult: 0
  }
  param {
    lr_mult: 0
    decay_mult: 0
  }
  scale_param {
    bias_term: true
  }
}
layer {
  name: "res3b_branch2b_relu"
  type: "ReLU"
  bottom: "res3b_branch2b"
  top: "res3b_branch2b"
}
layer {
  name: "res3b_branch2c"
  type: "Convolution"
  bottom: "res3b_branch2b"
  top: "res3b_branch2c"
  param {
    lr_mult: 1
  }
  convolution_param {
    num_output: 512
    bias_term: false
    pad: 0
    kernel_size: 1
    stride: 1
  }
}
layer {
  name: "bn3b_branch2c"
  type: "BatchNorm"
  bottom: "res3b_branch2c"
  top: "res3b_branch2c"
  batch_norm_param {
    use_global_stats: true
  }
}
layer {
  name: "scale3b_branch2c"
  type: "Scale"
  bottom: "res3b_branch2c"
  top: "res3b_branch2c"
  param {
    lr_mult: 0
    decay_mult: 0
  }
  param {
    lr_mult: 0
    decay_mult: 0
  }
  scale_param {
    bias_term: true
  }
}
layer {
  name: "res3b"
  type: "Eltwise"
  bottom: "res3a"
  bottom: "res3b_branch2c"
  top: "res3b"
}
layer {
  name: "res3b_relu"
  type: "ReLU"
  bottom: "res3b"
  top: "res3b"
}
layer {
  name: "res3c_branch2a"
  type: "Convolution"
  bottom: "res3b"
  top: "res3c_branch2a"
  param {
    lr_mult: 1
  }
  convolution_param {
    num_output: 128
    bias_term: false
    pad: 0
    kernel_size: 1
    stride: 1
  }
}
layer {
  name: "bn3c_branch2a"
  type: "BatchNorm"
  bottom: "res3c_branch2a"
  top: "res3c_branch2a"
  batch_norm_param {
    use_global_stats: true
  }
}
layer {
  name: "scale3c_branch2a"
  type: "Scale"
  bottom: "res3c_branch2a"
  top: "res3c_branch2a"
  param {
    lr_mult: 0
    decay_mult: 0
  }
  param {
    lr_mult: 0
    decay_mult: 0
  }
  scale_param {
    bias_term: true
  }
}
layer {
  name: "res3c_branch2a_relu"
  type: "ReLU"
  bottom: "res3c_branch2a"
  top: "res3c_branch2a"
}
layer {
  name: "res3c_branch2b"
  type: "Convolution"
  bottom: "res3c_branch2a"
  top: "res3c_branch2b"
  param {
    lr_mult: 1
  }
  convolution_param {
    num_output: 128
    bias_term: false
    pad: 1
    kernel_size: 3
    stride: 1
  }
}
layer {
  name: "bn3c_branch2b"
  type: "BatchNorm"
  bottom: "res3c_branch2b"
  top: "res3c_branch2b"
  batch_norm_param {
    use_global_stats: true
  }
}
layer {
  name: "scale3c_branch2b"
  type: "Scale"
  bottom: "res3c_branch2b"
  top: "res3c_branch2b"
  param {
    lr_mult: 0
    decay_mult: 0
  }
  param {
    lr_mult: 0
    decay_mult: 0
  }
  scale_param {
    bias_term: true
  }
}
layer {
  name: "res3c_branch2b_relu"
  type: "ReLU"
  bottom: "res3c_branch2b"
  top: "res3c_branch2b"
}
layer {
  name: "res3c_branch2c"
  type: "Convolution"
  bottom: "res3c_branch2b"
  top: "res3c_branch2c"
  param {
    lr_mult: 1
  }
  convolution_param {
    num_output: 512
    bias_term: false
    pad: 0
    kernel_size: 1
    stride: 1
  }
}
layer {
  name: "bn3c_branch2c"
  type: "BatchNorm"
  bottom: "res3c_branch2c"
  top: "res3c_branch2c"
  batch_norm_param {
    use_global_stats: true
  }
}
layer {
  name: "scale3c_branch2c"
  type: "Scale"
  bottom: "res3c_branch2c"
  top: "res3c_branch2c"
  param {
    lr_mult: 0
    decay_mult: 0
  }
  param {
    lr_mult: 0
    decay_mult: 0
  }
  scale_param {
    bias_term: true
  }
}
layer {
  name: "res3c"
  type: "Eltwise"
  bottom: "res3b"
  bottom: "res3c_branch2c"
  top: "res3c"
}
layer {
  name: "res3c_relu"
  type: "ReLU"
  bottom: "res3c"
  top: "res3c"
}
layer {
  name: "res3d_branch2a"
  type: "Convolution"
  bottom: "res3c"
  top: "res3d_branch2a"
  param {
    lr_mult: 1
  }
  convolution_param {
    num_output: 128
    bias_term: false
    pad: 0
    kernel_size: 1
    stride: 1
  }
}
layer {
  name: "bn3d_branch2a"
  type: "BatchNorm"
  bottom: "res3d_branch2a"
  top: "res3d_branch2a"
  batch_norm_param {
    use_global_stats: true
  }
}
layer {
  name: "scale3d_branch2a"
  type: "Scale"
  bottom: "res3d_branch2a"
  top: "res3d_branch2a"
  param {
    lr_mult: 0
    decay_mult: 0
  }
  param {
    lr_mult: 0
    decay_mult: 0
  }
  scale_param {
    bias_term: true
  }
}
layer {
  name: "res3d_branch2a_relu"
  type: "ReLU"
  bottom: "res3d_branch2a"
  top: "res3d_branch2a"
}
layer {
  name: "res3d_branch2b"
  type: "Convolution"
  bottom: "res3d_branch2a"
  top: "res3d_branch2b"
  param {
    lr_mult: 1
  }
  convolution_param {
    num_output: 128
    bias_term: false
    pad: 1
    kernel_size: 3
    stride: 1
  }
}
layer {
  name: "bn3d_branch2b"
  type: "BatchNorm"
  bottom: "res3d_branch2b"
  top: "res3d_branch2b"
  batch_norm_param {
    use_global_stats: true
  }
}
layer {
  name: "scale3d_branch2b"
  type: "Scale"
  bottom: "res3d_branch2b"
  top: "res3d_branch2b"
  param {
    lr_mult: 0
    decay_mult: 0
  }
  param {
    lr_mult: 0
    decay_mult: 0
  }
  scale_param {
    bias_term: true
  }
}
layer {
  name: "res3d_branch2b_relu"
  type: "ReLU"
  bottom: "res3d_branch2b"
  top: "res3d_branch2b"
}
layer {
  name: "res3d_branch2c"
  type: "Convolution"
  bottom: "res3d_branch2b"
  top: "res3d_branch2c"
  param {
    lr_mult: 1
  }
  convolution_param {
    num_output: 512
    bias_term: false
    pad: 0
    kernel_size: 1
    stride: 1
  }
}
layer {
  name: "bn3d_branch2c"
  type: "BatchNorm"
  bottom: "res3d_branch2c"
  top: "res3d_branch2c"
  batch_norm_param {
    use_global_stats: true
  }
}
layer {
  name: "scale3d_branch2c"
  type: "Scale"
  bottom: "res3d_branch2c"
  top: "res3d_branch2c"
  param {
    lr_mult: 0
    decay_mult: 0
  }
  param {
    lr_mult: 0
    decay_mult: 0
  }
  scale_param {
    bias_term: true
  }
}
layer {
  name: "res3d"
  type: "Eltwise"
  bottom: "res3c"
  bottom: "res3d_branch2c"
  top: "res3d"
}
layer {
  name: "res3d_relu"
  type: "ReLU"
  bottom: "res3d"
  top: "res3d"
}
layer {
  name: "res4a_branch1"
  type: "Convolution"
  bottom: "res3d"
  top: "res4a_branch1"
  param {
    lr_mult: 1
  }
  convolution_param {
    num_output: 1024
    bias_term: false
    pad: 0
    kernel_size: 1
    stride: 2
  }
}
layer {
  name: "bn4a_branch1"
  type: "BatchNorm"
  bottom: "res4a_branch1"
  top: "res4a_branch1"
  batch_norm_param {
    use_global_stats: true
  }
}
layer {
  name: "scale4a_branch1"
  type: "Scale"
  bottom: "res4a_branch1"
  top: "res4a_branch1"
  param {
    lr_mult: 0
    decay_mult: 0
  }
  param {
    lr_mult: 0
    decay_mult: 0
  }
  scale_param {
    bias_term: true
  }
}
layer {
  name: "res4a_branch2a"
  type: "Convolution"
  bottom: "res3d"
  top: "res4a_branch2a"
  param {
    lr_mult: 1
  }
  convolution_param {
    num_output: 256
    bias_term: false
    pad: 0
    kernel_size: 1
    stride: 2
  }
}
layer {
  name: "bn4a_branch2a"
  type: "BatchNorm"
  bottom: "res4a_branch2a"
  top: "res4a_branch2a"
  batch_norm_param {
    use_global_stats: true
  }
}
layer {
  name: "scale4a_branch2a"
  type: "Scale"
  bottom: "res4a_branch2a"
  top: "res4a_branch2a"
  param {
    lr_mult: 0
    decay_mult: 0
  }
  param {
    lr_mult: 0
    decay_mult: 0
  }
  scale_param {
    bias_term: true
  }
}
layer {
  name: "res4a_branch2a_relu"
  type: "ReLU"
  bottom: "res4a_branch2a"
  top: "res4a_branch2a"
}
layer {
  name: "res4a_branch2b"
  type: "Convolution"
  bottom: "res4a_branch2a"
  top: "res4a_branch2b"
  param {
    lr_mult: 1
  }
  convolution_param {
    num_output: 256
    bias_term: false
    pad: 1
    kernel_size: 3
    stride: 1
  }
}
layer {
  name: "bn4a_branch2b"
  type: "BatchNorm"
  bottom: "res4a_branch2b"
  top: "res4a_branch2b"
  batch_norm_param {
    use_global_stats: true
  }
}
layer {
  name: "scale4a_branch2b"
  type: "Scale"
  bottom: "res4a_branch2b"
  top: "res4a_branch2b"
  param {
    lr_mult: 0
    decay_mult: 0
  }
  param {
    lr_mult: 0
    decay_mult: 0
  }
  scale_param {
    bias_term: true
  }
}
layer {
  name: "res4a_branch2b_relu"
  type: "ReLU"
  bottom: "res4a_branch2b"
  top: "res4a_branch2b"
}
layer {
  name: "res4a_branch2c"
  type: "Convolution"
  bottom: "res4a_branch2b"
  top: "res4a_branch2c"
  param {
    lr_mult: 1
  }
  convolution_param {
    num_output: 1024
    bias_term: false
    pad: 0
    kernel_size: 1
    stride: 1
  }
}
layer {
  name: "bn4a_branch2c"
  type: "BatchNorm"
  bottom: "res4a_branch2c"
  top: "res4a_branch2c"
  batch_norm_param {
    use_global_stats: true
  }
}
layer {
  name: "scale4a_branch2c"
  type: "Scale"
  bottom: "res4a_branch2c"
  top: "res4a_branch2c"
  param {
    lr_mult: 0
    decay_mult: 0
  }
  param {
    lr_mult: 0
    decay_mult: 0
  }
  scale_param {
    bias_term: true
  }
}
layer {
  name: "res4a"
  type: "Eltwise"
  bottom: "res4a_branch1"
  bottom: "res4a_branch2c"
  top: "res4a"
}
layer {
  name: "res4a_relu"
  type: "ReLU"
  bottom: "res4a"
  top: "res4a"
}
layer {
  name: "res4b_branch2a"
  type: "Convolution"
  bottom: "res4a"
  top: "res4b_branch2a"
  param {
    lr_mult: 1
  }
  convolution_param {
    num_output: 256
    bias_term: false
    pad: 0
    kernel_size: 1
    stride: 1
  }
}
layer {
  name: "bn4b_branch2a"
  type: "BatchNorm"
  bottom: "res4b_branch2a"
  top: "res4b_branch2a"
  batch_norm_param {
    use_global_stats: true
  }
}
layer {
  name: "scale4b_branch2a"
  type: "Scale"
  bottom: "res4b_branch2a"
  top: "res4b_branch2a"
  param {
    lr_mult: 0
    decay_mult: 0
  }
  param {
    lr_mult: 0
    decay_mult: 0
  }
  scale_param {
    bias_term: true
  }
}
layer {
  name: "res4b_branch2a_relu"
  type: "ReLU"
  bottom: "res4b_branch2a"
  top: "res4b_branch2a"
}
layer {
  name: "res4b_branch2b"
  type: "Convolution"
  bottom: "res4b_branch2a"
  top: "res4b_branch2b"
  param {
    lr_mult: 1
  }
  convolution_param {
    num_output: 256
    bias_term: false
    pad: 1
    kernel_size: 3
    stride: 1
  }
}
layer {
  name: "bn4b_branch2b"
  type: "BatchNorm"
  bottom: "res4b_branch2b"
  top: "res4b_branch2b"
  batch_norm_param {
    use_global_stats: true
  }
}
layer {
  name: "scale4b_branch2b"
  type: "Scale"
  bottom: "res4b_branch2b"
  top: "res4b_branch2b"
  param {
    lr_mult: 0
    decay_mult: 0
  }
  param {
    lr_mult: 0
    decay_mult: 0
  }
  scale_param {
    bias_term: true
  }
}
layer {
  name: "res4b_branch2b_relu"
  type: "ReLU"
  bottom: "res4b_branch2b"
  top: "res4b_branch2b"
}
layer {
  name: "res4b_branch2c"
  type: "Convolution"
  bottom: "res4b_branch2b"
  top: "res4b_branch2c"
  param {
    lr_mult: 1
  }
  convolution_param {
    num_output: 1024
    bias_term: false
    pad: 0
    kernel_size: 1
    stride: 1
  }
}
layer {
  name: "bn4b_branch2c"
  type: "BatchNorm"
  bottom: "res4b_branch2c"
  top: "res4b_branch2c"
  batch_norm_param {
    use_global_stats: true
  }
}
layer {
  name: "scale4b_branch2c"
  type: "Scale"
  bottom: "res4b_branch2c"
  top: "res4b_branch2c"
  param {
    lr_mult: 0
    decay_mult: 0
  }
  param {
    lr_mult: 0
    decay_mult: 0
  }
  scale_param {
    bias_term: true
  }
}
layer {
  name: "res4b"
  type: "Eltwise"
  bottom: "res4a"
  bottom: "res4b_branch2c"
  top: "res4b"
}
layer {
  name: "res4b_relu"
  type: "ReLU"
  bottom: "res4b"
  top: "res4b"
}
layer {
  name: "res4c_branch2a"
  type: "Convolution"
  bottom: "res4b"
  top: "res4c_branch2a"
  param {
    lr_mult: 1
  }
  convolution_param {
    num_output: 256
    bias_term: false
    pad: 0
    kernel_size: 1
    stride: 1
  }
}
layer {
  name: "bn4c_branch2a"
  type: "BatchNorm"
  bottom: "res4c_branch2a"
  top: "res4c_branch2a"
  batch_norm_param {
    use_global_stats: true
  }
}
layer {
  name: "scale4c_branch2a"
  type: "Scale"
  bottom: "res4c_branch2a"
  top: "res4c_branch2a"
  param {
    lr_mult: 0
    decay_mult: 0
  }
  param {
    lr_mult: 0
    decay_mult: 0
  }
  scale_param {
    bias_term: true
  }
}
layer {
  name: "res4c_branch2a_relu"
  type: "ReLU"
  bottom: "res4c_branch2a"
  top: "res4c_branch2a"
}
layer {
  name: "res4c_branch2b"
  type: "Convolution"
  bottom: "res4c_branch2a"
  top: "res4c_branch2b"
  param {
    lr_mult: 1
  }
  convolution_param {
    num_output: 256
    bias_term: false
    pad: 1
    kernel_size: 3
    stride: 1
  }
}
layer {
  name: "bn4c_branch2b"
  type: "BatchNorm"
  bottom: "res4c_branch2b"
  top: "res4c_branch2b"
  batch_norm_param {
    use_global_stats: true
  }
}
layer {
  name: "scale4c_branch2b"
  type: "Scale"
  bottom: "res4c_branch2b"
  top: "res4c_branch2b"
  param {
    lr_mult: 0
    decay_mult: 0
  }
  param {
    lr_mult: 0
    decay_mult: 0
  }
  scale_param {
    bias_term: true
  }
}
layer {
  name: "res4c_branch2b_relu"
  type: "ReLU"
  bottom: "res4c_branch2b"
  top: "res4c_branch2b"
}
layer {
  name: "res4c_branch2c"
  type: "Convolution"
  bottom: "res4c_branch2b"
  top: "res4c_branch2c"
  param {
    lr_mult: 1
  }
  convolution_param {
    num_output: 1024
    bias_term: false
    pad: 0
    kernel_size: 1
    stride: 1
  }
}
layer {
  name: "bn4c_branch2c"
  type: "BatchNorm"
  bottom: "res4c_branch2c"
  top: "res4c_branch2c"
  batch_norm_param {
    use_global_stats: true
  }
}
layer {
  name: "scale4c_branch2c"
  type: "Scale"
  bottom: "res4c_branch2c"
  top: "res4c_branch2c"
  param {
    lr_mult: 0
    decay_mult: 0
  }
  param {
    lr_mult: 0
    decay_mult: 0
  }
  scale_param {
    bias_term: true
  }
}
layer {
  name: "res4c"
  type: "Eltwise"
  bottom: "res4b"
  bottom: "res4c_branch2c"
  top: "res4c"
}
layer {
  name: "res4c_relu"
  type: "ReLU"
  bottom: "res4c"
  top: "res4c"
}
layer {
  name: "res4d_branch2a"
  type: "Convolution"
  bottom: "res4c"
  top: "res4d_branch2a"
  param {
    lr_mult: 1
  }
  convolution_param {
    num_output: 256
    bias_term: false
    pad: 0
    kernel_size: 1
    stride: 1
  }
}
layer {
  name: "bn4d_branch2a"
  type: "BatchNorm"
  bottom: "res4d_branch2a"
  top: "res4d_branch2a"
  batch_norm_param {
    use_global_stats: true
  }
}
layer {
  name: "scale4d_branch2a"
  type: "Scale"
  bottom: "res4d_branch2a"
  top: "res4d_branch2a"
  param {
    lr_mult: 0
    decay_mult: 0
  }
  param {
    lr_mult: 0
    decay_mult: 0
  }
  scale_param {
    bias_term: true
  }
}
layer {
  name: "res4d_branch2a_relu"
  type: "ReLU"
  bottom: "res4d_branch2a"
  top: "res4d_branch2a"
}
layer {
  name: "res4d_branch2b"
  type: "Convolution"
  bottom: "res4d_branch2a"
  top: "res4d_branch2b"
  param {
    lr_mult: 1
  }
  convolution_param {
    num_output: 256
    bias_term: false
    pad: 1
    kernel_size: 3
    stride: 1
  }
}
layer {
  name: "bn4d_branch2b"
  type: "BatchNorm"
  bottom: "res4d_branch2b"
  top: "res4d_branch2b"
  batch_norm_param {
    use_global_stats: true
  }
}
layer {
  name: "scale4d_branch2b"
  type: "Scale"
  bottom: "res4d_branch2b"
  top: "res4d_branch2b"
  param {
    lr_mult: 0
    decay_mult: 0
  }
  param {
    lr_mult: 0
    decay_mult: 0
  }
  scale_param {
    bias_term: true
  }
}
layer {
  name: "res4d_branch2b_relu"
  type: "ReLU"
  bottom: "res4d_branch2b"
  top: "res4d_branch2b"
}
layer {
  name: "res4d_branch2c"
  type: "Convolution"
  bottom: "res4d_branch2b"
  top: "res4d_branch2c"
  param {
    lr_mult: 1
  }
  convolution_param {
    num_output: 1024
    bias_term: false
    pad: 0
    kernel_size: 1
    stride: 1
  }
}
layer {
  name: "bn4d_branch2c"
  type: "BatchNorm"
  bottom: "res4d_branch2c"
  top: "res4d_branch2c"
  batch_norm_param {
    use_global_stats: true
  }
}
layer {
  name: "scale4d_branch2c"
  type: "Scale"
  bottom: "res4d_branch2c"
  top: "res4d_branch2c"
  param {
    lr_mult: 0
    decay_mult: 0
  }
  param {
    lr_mult: 0
    decay_mult: 0
  }
  scale_param {
    bias_term: true
  }
}
layer {
  name: "res4d"
  type: "Eltwise"
  bottom: "res4c"
  bottom: "res4d_branch2c"
  top: "res4d"
}
layer {
  name: "res4d_relu"
  type: "ReLU"
  bottom: "res4d"
  top: "res4d"
}
layer {
  name: "res4e_branch2a"
  type: "Convolution"
  bottom: "res4d"
  top: "res4e_branch2a"
  param {
    lr_mult: 1
  }
  convolution_param {
    num_output: 256
    bias_term: false
    pad: 0
    kernel_size: 1
    stride: 1
  }
}
layer {
  name: "bn4e_branch2a"
  type: "BatchNorm"
  bottom: "res4e_branch2a"
  top: "res4e_branch2a"
  batch_norm_param {
    use_global_stats: true
  }
}
layer {
  name: "scale4e_branch2a"
  type: "Scale"
  bottom: "res4e_branch2a"
  top: "res4e_branch2a"
  param {
    lr_mult: 0
    decay_mult: 0
  }
  param {
    lr_mult: 0
    decay_mult: 0
  }
  scale_param {
    bias_term: true
  }
}
layer {
  name: "res4e_branch2a_relu"
  type: "ReLU"
  bottom: "res4e_branch2a"
  top: "res4e_branch2a"
}
layer {
  name: "res4e_branch2b"
  type: "Convolution"
  bottom: "res4e_branch2a"
  top: "res4e_branch2b"
  param {
    lr_mult: 1
  }
  convolution_param {
    num_output: 256
    bias_term: false
    pad: 1
    kernel_size: 3
    stride: 1
  }
}
layer {
  name: "bn4e_branch2b"
  type: "BatchNorm"
  bottom: "res4e_branch2b"
  top: "res4e_branch2b"
  batch_norm_param {
    use_global_stats: true
  }
}
layer {
  name: "scale4e_branch2b"
  type: "Scale"
  bo
I0403 16:46:41.222242  2692 net.cpp:70] Memory required for data: 0
I0403 16:46:41.222280  2692 layer_factory.hpp:77] Creating layer data
I0403 16:46:41.222307  2692 net.cpp:103] Creating Layer data
I0403 16:46:41.222314  2692 net.cpp:430] data -> data
I0403 16:46:41.222333  2692 net.cpp:430] data -> label
I0403 16:46:41.222389  2692 image_data_layer.cpp:41] Opening file data/apple_disease/train.txt
I0403 16:46:41.223265  2692 image_data_layer.cpp:56] Shuffling data
I0403 16:46:41.223511  2692 image_data_layer.cpp:61] A total of 2392 images.
I0403 16:46:41.325213  2692 image_data_layer.cpp:88] output data size: 16,3,224,224
I0403 16:46:41.337424  2692 net.cpp:153] Setting up data
I0403 16:46:41.337455  2692 net.cpp:160] Top shape: 16 3 224 224 (2408448)
I0403 16:46:41.337458  2692 net.cpp:160] Top shape: 16 (16)
I0403 16:46:41.337460  2692 net.cpp:168] Memory required for data: 9633856
I0403 16:46:41.337466  2692 layer_factory.hpp:77] Creating layer label_data_1_split
I0403 16:46:41.337477  2692 net.cpp:103] Creating Layer label_data_1_split
I0403 16:46:41.337484  2692 net.cpp:456] label_data_1_split <- label
I0403 16:46:41.337496  2692 net.cpp:430] label_data_1_split -> label_data_1_split_0
I0403 16:46:41.337504  2692 net.cpp:430] label_data_1_split -> label_data_1_split_1
I0403 16:46:41.337549  2692 net.cpp:153] Setting up label_data_1_split
I0403 16:46:41.337554  2692 net.cpp:160] Top shape: 16 (16)
I0403 16:46:41.337566  2692 net.cpp:160] Top shape: 16 (16)
I0403 16:46:41.337568  2692 net.cpp:168] Memory required for data: 9633984
I0403 16:46:41.337570  2692 layer_factory.hpp:77] Creating layer conv1
I0403 16:46:41.337581  2692 net.cpp:103] Creating Layer conv1
I0403 16:46:41.337584  2692 net.cpp:456] conv1 <- data
I0403 16:46:41.337601  2692 net.cpp:430] conv1 -> conv1
I0403 16:46:41.664355  2692 net.cpp:153] Setting up conv1
I0403 16:46:41.664383  2692 net.cpp:160] Top shape: 16 64 112 112 (12845056)
I0403 16:46:41.664386  2692 net.cpp:168] Memory required for data: 61014208
I0403 16:46:41.664402  2692 layer_factory.hpp:77] Creating layer bn_conv1
I0403 16:46:41.664413  2692 net.cpp:103] Creating Layer bn_conv1
I0403 16:46:41.664417  2692 net.cpp:456] bn_conv1 <- conv1
I0403 16:46:41.664422  2692 net.cpp:417] bn_conv1 -> conv1 (in-place)
I0403 16:46:41.664587  2692 net.cpp:153] Setting up bn_conv1
I0403 16:46:41.664592  2692 net.cpp:160] Top shape: 16 64 112 112 (12845056)
I0403 16:46:41.664594  2692 net.cpp:168] Memory required for data: 112394432
I0403 16:46:41.664611  2692 layer_factory.hpp:77] Creating layer scale_conv1
I0403 16:46:41.664628  2692 net.cpp:103] Creating Layer scale_conv1
I0403 16:46:41.664633  2692 net.cpp:456] scale_conv1 <- conv1
I0403 16:46:41.664636  2692 net.cpp:417] scale_conv1 -> conv1 (in-place)
I0403 16:46:41.664690  2692 layer_factory.hpp:77] Creating layer scale_conv1
I0403 16:46:41.664793  2692 net.cpp:153] Setting up scale_conv1
I0403 16:46:41.664798  2692 net.cpp:160] Top shape: 16 64 112 112 (12845056)
I0403 16:46:41.664799  2692 net.cpp:168] Memory required for data: 163774656
I0403 16:46:41.664813  2692 layer_factory.hpp:77] Creating layer conv1_relu
I0403 16:46:41.664818  2692 net.cpp:103] Creating Layer conv1_relu
I0403 16:46:41.664820  2692 net.cpp:456] conv1_relu <- conv1
I0403 16:46:41.664825  2692 net.cpp:417] conv1_relu -> conv1 (in-place)
I0403 16:46:41.664970  2692 net.cpp:153] Setting up conv1_relu
I0403 16:46:41.664978  2692 net.cpp:160] Top shape: 16 64 112 112 (12845056)
I0403 16:46:41.664989  2692 net.cpp:168] Memory required for data: 215154880
I0403 16:46:41.664993  2692 layer_factory.hpp:77] Creating layer pool1
I0403 16:46:41.664997  2692 net.cpp:103] Creating Layer pool1
I0403 16:46:41.665000  2692 net.cpp:456] pool1 <- conv1
I0403 16:46:41.665006  2692 net.cpp:430] pool1 -> pool1
I0403 16:46:41.665165  2692 net.cpp:153] Setting up pool1
I0403 16:46:41.665172  2692 net.cpp:160] Top shape: 16 64 56 56 (3211264)
I0403 16:46:41.665184  2692 net.cpp:168] Memory required for data: 227999936
I0403 16:46:41.665186  2692 layer_factory.hpp:77] Creating layer pool1_pool1_0_split
I0403 16:46:41.665191  2692 net.cpp:103] Creating Layer pool1_pool1_0_split
I0403 16:46:41.665194  2692 net.cpp:456] pool1_pool1_0_split <- pool1
I0403 16:46:41.665199  2692 net.cpp:430] pool1_pool1_0_split -> pool1_pool1_0_split_0
I0403 16:46:41.665206  2692 net.cpp:430] pool1_pool1_0_split -> pool1_pool1_0_split_1
I0403 16:46:41.665232  2692 net.cpp:153] Setting up pool1_pool1_0_split
I0403 16:46:41.665246  2692 net.cpp:160] Top shape: 16 64 56 56 (3211264)
I0403 16:46:41.665248  2692 net.cpp:160] Top shape: 16 64 56 56 (3211264)
I0403 16:46:41.665251  2692 net.cpp:168] Memory required for data: 253690048
I0403 16:46:41.665252  2692 layer_factory.hpp:77] Creating layer res2a_branch1
I0403 16:46:41.665268  2692 net.cpp:103] Creating Layer res2a_branch1
I0403 16:46:41.665271  2692 net.cpp:456] res2a_branch1 <- pool1_pool1_0_split_0
I0403 16:46:41.665277  2692 net.cpp:430] res2a_branch1 -> res2a_branch1
I0403 16:46:41.666040  2692 net.cpp:153] Setting up res2a_branch1
I0403 16:46:41.666049  2692 net.cpp:160] Top shape: 16 256 56 56 (12845056)
I0403 16:46:41.666061  2692 net.cpp:168] Memory required for data: 305070272
I0403 16:46:41.666066  2692 layer_factory.hpp:77] Creating layer bn2a_branch1
I0403 16:46:41.666082  2692 net.cpp:103] Creating Layer bn2a_branch1
I0403 16:46:41.666113  2692 net.cpp:456] bn2a_branch1 <- res2a_branch1
I0403 16:46:41.666129  2692 net.cpp:417] bn2a_branch1 -> res2a_branch1 (in-place)
I0403 16:46:41.666772  2692 net.cpp:153] Setting up bn2a_branch1
I0403 16:46:41.666781  2692 net.cpp:160] Top shape: 16 256 56 56 (12845056)
I0403 16:46:41.666793  2692 net.cpp:168] Memory required for data: 356450496
I0403 16:46:41.666800  2692 layer_factory.hpp:77] Creating layer scale2a_branch1
I0403 16:46:41.666827  2692 net.cpp:103] Creating Layer scale2a_branch1
I0403 16:46:41.666831  2692 net.cpp:456] scale2a_branch1 <- res2a_branch1
I0403 16:46:41.666834  2692 net.cpp:417] scale2a_branch1 -> res2a_branch1 (in-place)
I0403 16:46:41.666863  2692 layer_factory.hpp:77] Creating layer scale2a_branch1
I0403 16:46:41.666934  2692 net.cpp:153] Setting up scale2a_branch1
I0403 16:46:41.666939  2692 net.cpp:160] Top shape: 16 256 56 56 (12845056)
I0403 16:46:41.666941  2692 net.cpp:168] Memory required for data: 407830720
I0403 16:46:41.666944  2692 layer_factory.hpp:77] Creating layer res2a_branch2a
I0403 16:46:41.666949  2692 net.cpp:103] Creating Layer res2a_branch2a
I0403 16:46:41.666952  2692 net.cpp:456] res2a_branch2a <- pool1_pool1_0_split_1
I0403 16:46:41.666956  2692 net.cpp:430] res2a_branch2a -> res2a_branch2a
I0403 16:46:41.667752  2692 net.cpp:153] Setting up res2a_branch2a
I0403 16:46:41.667762  2692 net.cpp:160] Top shape: 16 64 56 56 (3211264)
I0403 16:46:41.667765  2692 net.cpp:168] Memory required for data: 420675776
I0403 16:46:41.667768  2692 layer_factory.hpp:77] Creating layer bn2a_branch2a
I0403 16:46:41.667773  2692 net.cpp:103] Creating Layer bn2a_branch2a
I0403 16:46:41.667776  2692 net.cpp:456] bn2a_branch2a <- res2a_branch2a
I0403 16:46:41.667780  2692 net.cpp:417] bn2a_branch2a -> res2a_branch2a (in-place)
I0403 16:46:41.667912  2692 net.cpp:153] Setting up bn2a_branch2a
I0403 16:46:41.667915  2692 net.cpp:160] Top shape: 16 64 56 56 (3211264)
I0403 16:46:41.667917  2692 net.cpp:168] Memory required for data: 433520832
I0403 16:46:41.667934  2692 layer_factory.hpp:77] Creating layer scale2a_branch2a
I0403 16:46:41.667939  2692 net.cpp:103] Creating Layer scale2a_branch2a
I0403 16:46:41.667943  2692 net.cpp:456] scale2a_branch2a <- res2a_branch2a
I0403 16:46:41.667945  2692 net.cpp:417] scale2a_branch2a -> res2a_branch2a (in-place)
I0403 16:46:41.667981  2692 layer_factory.hpp:77] Creating layer scale2a_branch2a
I0403 16:46:41.668076  2692 net.cpp:153] Setting up scale2a_branch2a
I0403 16:46:41.668081  2692 net.cpp:160] Top shape: 16 64 56 56 (3211264)
I0403 16:46:41.668082  2692 net.cpp:168] Memory required for data: 446365888
I0403 16:46:41.668095  2692 layer_factory.hpp:77] Creating layer res2a_branch2a_relu
I0403 16:46:41.668098  2692 net.cpp:103] Creating Layer res2a_branch2a_relu
I0403 16:46:41.668100  2692 net.cpp:456] res2a_branch2a_relu <- res2a_branch2a
I0403 16:46:41.668104  2692 net.cpp:417] res2a_branch2a_relu -> res2a_branch2a (in-place)
I0403 16:46:41.668515  2692 net.cpp:153] Setting up res2a_branch2a_relu
I0403 16:46:41.668524  2692 net.cpp:160] Top shape: 16 64 56 56 (3211264)
I0403 16:46:41.668535  2692 net.cpp:168] Memory required for data: 459210944
I0403 16:46:41.668539  2692 layer_factory.hpp:77] Creating layer res2a_branch2b
I0403 16:46:41.668543  2692 net.cpp:103] Creating Layer res2a_branch2b
I0403 16:46:41.668547  2692 net.cpp:456] res2a_branch2b <- res2a_branch2a
I0403 16:46:41.668551  2692 net.cpp:430] res2a_branch2b -> res2a_branch2b
I0403 16:46:41.669867  2692 net.cpp:153] Setting up res2a_branch2b
I0403 16:46:41.669876  2692 net.cpp:160] Top shape: 16 64 56 56 (3211264)
I0403 16:46:41.669888  2692 net.cpp:168] Memory required for data: 472056000
I0403 16:46:41.669893  2692 layer_factory.hpp:77] Creating layer bn2a_branch2b
I0403 16:46:41.669899  2692 net.cpp:103] Creating Layer bn2a_branch2b
I0403 16:46:41.669903  2692 net.cpp:456] bn2a_branch2b <- res2a_branch2b
I0403 16:46:41.669906  2692 net.cpp:417] bn2a_branch2b -> res2a_branch2b (in-place)
I0403 16:46:41.670043  2692 net.cpp:153] Setting up bn2a_branch2b
I0403 16:46:41.670048  2692 net.cpp:160] Top shape: 16 64 56 56 (3211264)
I0403 16:46:41.670050  2692 net.cpp:168] Memory required for data: 484901056
I0403 16:46:41.670055  2692 layer_factory.hpp:77] Creating layer scale2a_branch2b
I0403 16:46:41.670060  2692 net.cpp:103] Creating Layer scale2a_branch2b
I0403 16:46:41.670063  2692 net.cpp:456] scale2a_branch2b <- res2a_branch2b
I0403 16:46:41.670068  2692 net.cpp:417] scale2a_branch2b -> res2a_branch2b (in-place)
I0403 16:46:41.670117  2692 layer_factory.hpp:77] Creating layer scale2a_branch2b
I0403 16:46:41.670212  2692 net.cpp:153] Setting up scale2a_branch2b
I0403 16:46:41.670217  2692 net.cpp:160] Top shape: 16 64 56 56 (3211264)
I0403 16:46:41.670218  2692 net.cpp:168] Memory required for data: 497746112
I0403 16:46:41.670233  2692 layer_factory.hpp:77] Creating layer res2a_branch2b_relu
I0403 16:46:41.670236  2692 net.cpp:103] Creating Layer res2a_branch2b_relu
I0403 16:46:41.670239  2692 net.cpp:456] res2a_branch2b_relu <- res2a_branch2b
I0403 16:46:41.670243  2692 net.cpp:417] res2a_branch2b_relu -> res2a_branch2b (in-place)
I0403 16:46:41.670388  2692 net.cpp:153] Setting up res2a_branch2b_relu
I0403 16:46:41.670395  2692 net.cpp:160] Top shape: 16 64 56 56 (3211264)
I0403 16:46:41.670397  2692 net.cpp:168] Memory required for data: 510591168
I0403 16:46:41.670409  2692 layer_factory.hpp:77] Creating layer res2a_branch2c
I0403 16:46:41.670415  2692 net.cpp:103] Creating Layer res2a_branch2c
I0403 16:46:41.670419  2692 net.cpp:456] res2a_branch2c <- res2a_branch2b
I0403 16:46:41.670425  2692 net.cpp:430] res2a_branch2c -> res2a_branch2c
I0403 16:46:41.671259  2692 net.cpp:153] Setting up res2a_branch2c
I0403 16:46:41.671269  2692 net.cpp:160] Top shape: 16 256 56 56 (12845056)
I0403 16:46:41.671283  2692 net.cpp:168] Memory required for data: 561971392
I0403 16:46:41.671285  2692 layer_factory.hpp:77] Creating layer bn2a_branch2c
I0403 16:46:41.671290  2692 net.cpp:103] Creating Layer bn2a_branch2c
I0403 16:46:41.671294  2692 net.cpp:456] bn2a_branch2c <- res2a_branch2c
I0403 16:46:41.671301  2692 net.cpp:417] bn2a_branch2c -> res2a_branch2c (in-place)
I0403 16:46:41.671443  2692 net.cpp:153] Setting up bn2a_branch2c
I0403 16:46:41.671448  2692 net.cpp:160] Top shape: 16 256 56 56 (12845056)
I0403 16:46:41.671449  2692 net.cpp:168] Memory required for data: 613351616
I0403 16:46:41.671464  2692 layer_factory.hpp:77] Creating layer scale2a_branch2c
I0403 16:46:41.671470  2692 net.cpp:103] Creating Layer scale2a_branch2c
I0403 16:46:41.671473  2692 net.cpp:456] scale2a_branch2c <- res2a_branch2c
I0403 16:46:41.671478  2692 net.cpp:417] scale2a_branch2c -> res2a_branch2c (in-place)
I0403 16:46:41.671533  2692 layer_factory.hpp:77] Creating layer scale2a_branch2c
I0403 16:46:41.671679  2692 net.cpp:153] Setting up scale2a_branch2c
I0403 16:46:41.671682  2692 net.cpp:160] Top shape: 16 256 56 56 (12845056)
I0403 16:46:41.671684  2692 net.cpp:168] Memory required for data: 664731840
I0403 16:46:41.671697  2692 layer_factory.hpp:77] Creating layer res2a
I0403 16:46:41.671701  2692 net.cpp:103] Creating Layer res2a
I0403 16:46:41.671713  2692 net.cpp:456] res2a <- res2a_branch1
I0403 16:46:41.671716  2692 net.cpp:456] res2a <- res2a_branch2c
I0403 16:46:41.671720  2692 net.cpp:430] res2a -> res2a
I0403 16:46:41.671761  2692 net.cpp:153] Setting up res2a
I0403 16:46:41.671777  2692 net.cpp:160] Top shape: 16 256 56 56 (12845056)
I0403 16:46:41.671778  2692 net.cpp:168] Memory required for data: 716112064
I0403 16:46:41.671780  2692 layer_factory.hpp:77] Creating layer res2a_relu
I0403 16:46:41.671793  2692 net.cpp:103] Creating Layer res2a_relu
I0403 16:46:41.671795  2692 net.cpp:456] res2a_relu <- res2a
I0403 16:46:41.671798  2692 net.cpp:417] res2a_relu -> res2a (in-place)
I0403 16:46:41.671957  2692 net.cpp:153] Setting up res2a_relu
I0403 16:46:41.671964  2692 net.cpp:160] Top shape: 16 256 56 56 (12845056)
I0403 16:46:41.671968  2692 net.cpp:168] Memory required for data: 767492288
I0403 16:46:41.671972  2692 layer_factory.hpp:77] Creating layer res2a_res2a_relu_0_split
I0403 16:46:41.671977  2692 net.cpp:103] Creating Layer res2a_res2a_relu_0_split
I0403 16:46:41.671980  2692 net.cpp:456] res2a_res2a_relu_0_split <- res2a
I0403 16:46:41.671986  2692 net.cpp:430] res2a_res2a_relu_0_split -> res2a_res2a_relu_0_split_0
I0403 16:46:41.671993  2692 net.cpp:430] res2a_res2a_relu_0_split -> res2a_res2a_relu_0_split_1
I0403 16:46:41.672027  2692 net.cpp:153] Setting up res2a_res2a_relu_0_split
I0403 16:46:41.672039  2692 net.cpp:160] Top shape: 16 256 56 56 (12845056)
I0403 16:46:41.672044  2692 net.cpp:160] Top shape: 16 256 56 56 (12845056)
I0403 16:46:41.672047  2692 net.cpp:168] Memory required for data: 870252736
I0403 16:46:41.672050  2692 layer_factory.hpp:77] Creating layer res2b_branch2a
I0403 16:46:41.672067  2692 net.cpp:103] Creating Layer res2b_branch2a
I0403 16:46:41.672071  2692 net.cpp:456] res2b_branch2a <- res2a_res2a_relu_0_split_0
I0403 16:46:41.672076  2692 net.cpp:430] res2b_branch2a -> res2b_branch2a
I0403 16:46:41.672907  2692 net.cpp:153] Setting up res2b_branch2a
I0403 16:46:41.672917  2692 net.cpp:160] Top shape: 16 64 56 56 (3211264)
I0403 16:46:41.672920  2692 net.cpp:168] Memory required for data: 883097792
I0403 16:46:41.672924  2692 layer_factory.hpp:77] Creating layer bn2b_branch2a
I0403 16:46:41.672929  2692 net.cpp:103] Creating Layer bn2b_branch2a
I0403 16:46:41.672931  2692 net.cpp:456] bn2b_branch2a <- res2b_branch2a
I0403 16:46:41.672935  2692 net.cpp:417] bn2b_branch2a -> res2b_branch2a (in-place)
I0403 16:46:41.673074  2692 net.cpp:153] Setting up bn2b_branch2a
I0403 16:46:41.673079  2692 net.cpp:160] Top shape: 16 64 56 56 (3211264)
I0403 16:46:41.673082  2692 net.cpp:168] Memory required for data: 895942848
I0403 16:46:41.673094  2692 layer_factory.hpp:77] Creating layer scale2b_branch2a
I0403 16:46:41.673101  2692 net.cpp:103] Creating Layer scale2b_branch2a
I0403 16:46:41.673106  2692 net.cpp:456] scale2b_branch2a <- res2b_branch2a
I0403 16:46:41.673110  2692 net.cpp:417] scale2b_branch2a -> res2b_branch2a (in-place)
I0403 16:46:41.673144  2692 layer_factory.hpp:77] Creating layer scale2b_branch2a
I0403 16:46:41.673230  2692 net.cpp:153] Setting up scale2b_branch2a
I0403 16:46:41.673236  2692 net.cpp:160] Top shape: 16 64 56 56 (3211264)
I0403 16:46:41.673240  2692 net.cpp:168] Memory required for data: 908787904
I0403 16:46:41.673246  2692 layer_factory.hpp:77] Creating layer res2b_branch2a_relu
I0403 16:46:41.673251  2692 net.cpp:103] Creating Layer res2b_branch2a_relu
I0403 16:46:41.673254  2692 net.cpp:456] res2b_branch2a_relu <- res2b_branch2a
I0403 16:46:41.673262  2692 net.cpp:417] res2b_branch2a_relu -> res2b_branch2a (in-place)
I0403 16:46:41.673682  2692 net.cpp:153] Setting up res2b_branch2a_relu
I0403 16:46:41.673691  2692 net.cpp:160] Top shape: 16 64 56 56 (3211264)
I0403 16:46:41.673696  2692 net.cpp:168] Memory required for data: 921632960
I0403 16:46:41.673699  2692 layer_factory.hpp:77] Creating layer res2b_branch2b
I0403 16:46:41.673709  2692 net.cpp:103] Creating Layer res2b_branch2b
I0403 16:46:41.673712  2692 net.cpp:456] res2b_branch2b <- res2b_branch2a
I0403 16:46:41.673718  2692 net.cpp:430] res2b_branch2b -> res2b_branch2b
I0403 16:46:41.674568  2692 net.cpp:153] Setting up res2b_branch2b
I0403 16:46:41.674578  2692 net.cpp:160] Top shape: 16 64 56 56 (3211264)
I0403 16:46:41.674582  2692 net.cpp:168] Memory required for data: 934478016
I0403 16:46:41.674588  2692 layer_factory.hpp:77] Creating layer bn2b_branch2b
I0403 16:46:41.674607  2692 net.cpp:103] Creating Layer bn2b_branch2b
I0403 16:46:41.674609  2692 net.cpp:456] bn2b_branch2b <- res2b_branch2b
I0403 16:46:41.674613  2692 net.cpp:417] bn2b_branch2b -> res2b_branch2b (in-place)
I0403 16:46:41.674762  2692 net.cpp:153] Setting up bn2b_branch2b
I0403 16:46:41.674767  2692 net.cpp:160] Top shape: 16 64 56 56 (3211264)
I0403 16:46:41.674768  2692 net.cpp:168] Memory required for data: 947323072
I0403 16:46:41.674782  2692 layer_factory.hpp:77] Creating layer scale2b_branch2b
I0403 16:46:41.674787  2692 net.cpp:103] Creating Layer scale2b_branch2b
I0403 16:46:41.674789  2692 net.cpp:456] scale2b_branch2b <- res2b_branch2b
I0403 16:46:41.674793  2692 net.cpp:417] scale2b_branch2b -> res2b_branch2b (in-place)
I0403 16:46:41.674832  2692 layer_factory.hpp:77] Creating layer scale2b_branch2b
I0403 16:46:41.674923  2692 net.cpp:153] Setting up scale2b_branch2b
I0403 16:46:41.674927  2692 net.cpp:160] Top shape: 16 64 56 56 (3211264)
I0403 16:46:41.674929  2692 net.cpp:168] Memory required for data: 960168128
I0403 16:46:41.674940  2692 layer_factory.hpp:77] Creating layer res2b_branch2b_relu
I0403 16:46:41.674949  2692 net.cpp:103] Creating Layer res2b_branch2b_relu
I0403 16:46:41.674952  2692 net.cpp:456] res2b_branch2b_relu <- res2b_branch2b
I0403 16:46:41.674955  2692 net.cpp:417] res2b_branch2b_relu -> res2b_branch2b (in-place)
I0403 16:46:41.675094  2692 net.cpp:153] Setting up res2b_branch2b_relu
I0403 16:46:41.675101  2692 net.cpp:160] Top shape: 16 64 56 56 (3211264)
I0403 16:46:41.675102  2692 net.cpp:168] Memory required for data: 973013184
I0403 16:46:41.675104  2692 layer_factory.hpp:77] Creating layer res2b_branch2c
I0403 16:46:41.675110  2692 net.cpp:103] Creating Layer res2b_branch2c
I0403 16:46:41.675113  2692 net.cpp:456] res2b_branch2c <- res2b_branch2b
I0403 16:46:41.675117  2692 net.cpp:430] res2b_branch2c -> res2b_branch2c
I0403 16:46:41.675964  2692 net.cpp:153] Setting up res2b_branch2c
I0403 16:46:41.675974  2692 net.cpp:160] Top shape: 16 256 56 56 (12845056)
I0403 16:46:41.675976  2692 net.cpp:168] Memory required for data: 1024393408
I0403 16:46:41.675979  2692 layer_factory.hpp:77] Creating layer bn2b_branch2c
I0403 16:46:41.675987  2692 net.cpp:103] Creating Layer bn2b_branch2c
I0403 16:46:41.675989  2692 net.cpp:456] bn2b_branch2c <- res2b_branch2c
I0403 16:46:41.675993  2692 net.cpp:417] bn2b_branch2c -> res2b_branch2c (in-place)
I0403 16:46:41.676182  2692 net.cpp:153] Setting up bn2b_branch2c
I0403 16:46:41.676190  2692 net.cpp:160] Top shape: 16 256 56 56 (12845056)
I0403 16:46:41.676192  2692 net.cpp:168] Memory required for data: 1075773632
I0403 16:46:41.676198  2692 layer_factory.hpp:77] Creating layer scale2b_branch2c
I0403 16:46:41.676203  2692 net.cpp:103] Creating Layer scale2b_branch2c
I0403 16:46:41.676205  2692 net.cpp:456] scale2b_branch2c <- res2b_branch2c
I0403 16:46:41.676214  2692 net.cpp:417] scale2b_branch2c -> res2b_branch2c (in-place)
I0403 16:46:41.676249  2692 layer_factory.hpp:77] Creating layer scale2b_branch2c
I0403 16:46:41.676331  2692 net.cpp:153] Setting up scale2b_branch2c
I0403 16:46:41.676337  2692 net.cpp:160] Top shape: 16 256 56 56 (12845056)
I0403 16:46:41.676339  2692 net.cpp:168] Memory required for data: 1127153856
I0403 16:46:41.676345  2692 layer_factory.hpp:77] Creating layer res2b
I0403 16:46:41.676352  2692 net.cpp:103] Creating Layer res2b
I0403 16:46:41.676357  2692 net.cpp:456] res2b <- res2a_res2a_relu_0_split_1
I0403 16:46:41.676360  2692 net.cpp:456] res2b <- res2b_branch2c
I0403 16:46:41.676364  2692 net.cpp:430] res2b -> res2b
I0403 16:46:41.676393  2692 net.cpp:153] Setting up res2b
I0403 16:46:41.676398  2692 net.cpp:160] Top shape: 16 256 56 56 (12845056)
I0403 16:46:41.676401  2692 net.cpp:168] Memory required for data: 1178534080
I0403 16:46:41.676404  2692 layer_factory.hpp:77] Creating layer res2b_relu
I0403 16:46:41.676409  2692 net.cpp:103] Creating Layer res2b_relu
I0403 16:46:41.676414  2692 net.cpp:456] res2b_relu <- res2b
I0403 16:46:41.676419  2692 net.cpp:417] res2b_relu -> res2b (in-place)
I0403 16:46:41.676560  2692 net.cpp:153] Setting up res2b_relu
I0403 16:46:41.676568  2692 net.cpp:160] Top shape: 16 256 56 56 (12845056)
I0403 16:46:41.676569  2692 net.cpp:168] Memory required for data: 1229914304
I0403 16:46:41.676571  2692 layer_factory.hpp:77] Creating layer res2b_res2b_relu_0_split
I0403 16:46:41.676575  2692 net.cpp:103] Creating Layer res2b_res2b_relu_0_split
I0403 16:46:41.676578  2692 net.cpp:456] res2b_res2b_relu_0_split <- res2b
I0403 16:46:41.676582  2692 net.cpp:430] res2b_res2b_relu_0_split -> res2b_res2b_relu_0_split_0
I0403 16:46:41.676586  2692 net.cpp:430] res2b_res2b_relu_0_split -> res2b_res2b_relu_0_split_1
I0403 16:46:41.676614  2692 net.cpp:153] Setting up res2b_res2b_relu_0_split
I0403 16:46:41.676618  2692 net.cpp:160] Top shape: 16 256 56 56 (12845056)
I0403 16:46:41.676621  2692 net.cpp:160] Top shape: 16 256 56 56 (12845056)
I0403 16:46:41.676622  2692 net.cpp:168] Memory required for data: 1332674752
I0403 16:46:41.676625  2692 layer_factory.hpp:77] Creating layer res2c_branch2a
I0403 16:46:41.676642  2692 net.cpp:103] Creating Layer res2c_branch2a
I0403 16:46:41.676646  2692 net.cpp:456] res2c_branch2a <- res2b_res2b_relu_0_split_0
I0403 16:46:41.676652  2692 net.cpp:430] res2c_branch2a -> res2c_branch2a
I0403 16:46:41.677503  2692 net.cpp:153] Setting up res2c_branch2a
I0403 16:46:41.677513  2692 net.cpp:160] Top shape: 16 64 56 56 (3211264)
I0403 16:46:41.677516  2692 net.cpp:168] Memory required for data: 1345519808
I0403 16:46:41.677520  2692 layer_factory.hpp:77] Creating layer bn2c_branch2a
I0403 16:46:41.677525  2692 net.cpp:103] Creating Layer bn2c_branch2a
I0403 16:46:41.677526  2692 net.cpp:456] bn2c_branch2a <- res2c_branch2a
I0403 16:46:41.677531  2692 net.cpp:417] bn2c_branch2a -> res2c_branch2a (in-place)
I0403 16:46:41.677675  2692 net.cpp:153] Setting up bn2c_branch2a
I0403 16:46:41.677680  2692 net.cpp:160] Top shape: 16 64 56 56 (3211264)
I0403 16:46:41.677681  2692 net.cpp:168] Memory required for data: 1358364864
I0403 16:46:41.677686  2692 layer_factory.hpp:77] Creating layer scale2c_branch2a
I0403 16:46:41.677691  2692 net.cpp:103] Creating Layer scale2c_branch2a
I0403 16:46:41.677695  2692 net.cpp:456] scale2c_branch2a <- res2c_branch2a
I0403 16:46:41.677697  2692 net.cpp:417] scale2c_branch2a -> res2c_branch2a (in-place)
I0403 16:46:41.677727  2692 layer_factory.hpp:77] Creating layer scale2c_branch2a
I0403 16:46:41.677812  2692 net.cpp:153] Setting up scale2c_branch2a
I0403 16:46:41.677819  2692 net.cpp:160] Top shape: 16 64 56 56 (3211264)
I0403 16:46:41.677822  2692 net.cpp:168] Memory required for data: 1371209920
I0403 16:46:41.677827  2692 layer_factory.hpp:77] Creating layer res2c_branch2a_relu
I0403 16:46:41.677832  2692 net.cpp:103] Creating Layer res2c_branch2a_relu
I0403 16:46:41.677836  2692 net.cpp:456] res2c_branch2a_relu <- res2c_branch2a
I0403 16:46:41.677842  2692 net.cpp:417] res2c_branch2a_relu -> res2c_branch2a (in-place)
I0403 16:46:41.677985  2692 net.cpp:153] Setting up res2c_branch2a_relu
I0403 16:46:41.677994  2692 net.cpp:160] Top shape: 16 64 56 56 (3211264)
I0403 16:46:41.677997  2692 net.cpp:168] Memory required for data: 1384054976
I0403 16:46:41.677999  2692 layer_factory.hpp:77] Creating layer res2c_branch2b
I0403 16:46:41.678007  2692 net.cpp:103] Creating Layer res2c_branch2b
I0403 16:46:41.678010  2692 net.cpp:456] res2c_branch2b <- res2c_branch2a
I0403 16:46:41.678016  2692 net.cpp:430] res2c_branch2b -> res2c_branch2b
I0403 16:46:41.678889  2692 net.cpp:153] Setting up res2c_branch2b
I0403 16:46:41.678900  2692 net.cpp:160] Top shape: 16 64 56 56 (3211264)
I0403 16:46:41.678905  2692 net.cpp:168] Memory required for data: 1396900032
I0403 16:46:41.678910  2692 layer_factory.hpp:77] Creating layer bn2c_branch2b
I0403 16:46:41.678917  2692 net.cpp:103] Creating Layer bn2c_branch2b
I0403 16:46:41.678921  2692 net.cpp:456] bn2c_branch2b <- res2c_branch2b
I0403 16:46:41.678927  2692 net.cpp:417] bn2c_branch2b -> res2c_branch2b (in-place)
I0403 16:46:41.679066  2692 net.cpp:153] Setting up bn2c_branch2b
I0403 16:46:41.679071  2692 net.cpp:160] Top shape: 16 64 56 56 (3211264)
I0403 16:46:41.679072  2692 net.cpp:168] Memory required for data: 1409745088
I0403 16:46:41.679077  2692 layer_factory.hpp:77] Creating layer scale2c_branch2b
I0403 16:46:41.679082  2692 net.cpp:103] Creating Layer scale2c_branch2b
I0403 16:46:41.679086  2692 net.cpp:456] scale2c_branch2b <- res2c_branch2b
I0403 16:46:41.679090  2692 net.cpp:417] scale2c_branch2b -> res2c_branch2b (in-place)
I0403 16:46:41.679131  2692 layer_factory.hpp:77] Creating layer scale2c_branch2b
I0403 16:46:41.679225  2692 net.cpp:153] Setting up scale2c_branch2b
I0403 16:46:41.679230  2692 net.cpp:160] Top shape: 16 64 56 56 (3211264)
I0403 16:46:41.679234  2692 net.cpp:168] Memory required for data: 1422590144
I0403 16:46:41.679240  2692 layer_factory.hpp:77] Creating layer res2c_branch2b_relu
I0403 16:46:41.679244  2692 net.cpp:103] Creating Layer res2c_branch2b_relu
I0403 16:46:41.679247  2692 net.cpp:456] res2c_branch2b_relu <- res2c_branch2b
I0403 16:46:41.679251  2692 net.cpp:417] res2c_branch2b_relu -> res2c_branch2b (in-place)
I0403 16:46:41.679682  2692 net.cpp:153] Setting up res2c_branch2b_relu
I0403 16:46:41.679690  2692 net.cpp:160] Top shape: 16 64 56 56 (3211264)
I0403 16:46:41.679693  2692 net.cpp:168] Memory required for data: 1435435200
I0403 16:46:41.679695  2692 layer_factory.hpp:77] Creating layer res2c_branch2c
I0403 16:46:41.679703  2692 net.cpp:103] Creating Layer res2c_branch2c
I0403 16:46:41.679708  2692 net.cpp:456] res2c_branch2c <- res2c_branch2b
I0403 16:46:41.679714  2692 net.cpp:430] res2c_branch2c -> res2c_branch2c
I0403 16:46:41.680579  2692 net.cpp:153] Setting up res2c_branch2c
I0403 16:46:41.680589  2692 net.cpp:160] Top shape: 16 256 56 56 (12845056)
I0403 16:46:41.680593  2692 net.cpp:168] Memory required for data: 1486815424
I0403 16:46:41.680599  2692 layer_factory.hpp:77] Creating layer bn2c_branch2c
I0403 16:46:41.680608  2692 net.cpp:103] Creating Layer bn2c_branch2c
I0403 16:46:41.680611  2692 net.cpp:456] bn2c_branch2c <- res2c_branch2c
I0403 16:46:41.680615  2692 net.cpp:417] bn2c_branch2c -> res2c_branch2c (in-place)
I0403 16:46:41.680753  2692 net.cpp:153] Setting up bn2c_branch2c
I0403 16:46:41.680758  2692 net.cpp:160] Top shape: 16 256 56 56 (12845056)
I0403 16:46:41.680760  2692 net.cpp:168] Memory required for data: 1538195648
I0403 16:46:41.680770  2692 layer_factory.hpp:77] Creating layer scale2c_branch2c
I0403 16:46:41.680775  2692 net.cpp:103] Creating Layer scale2c_branch2c
I0403 16:46:41.680778  2692 net.cpp:456] scale2c_branch2c <- res2c_branch2c
I0403 16:46:41.680783  2692 net.cpp:417] scale2c_branch2c -> res2c_branch2c (in-place)
I0403 16:46:41.680815  2692 layer_factory.hpp:77] Creating layer scale2c_branch2c
I0403 16:46:41.680896  2692 net.cpp:153] Setting up scale2c_branch2c
I0403 16:46:41.680902  2692 net.cpp:160] Top shape: 16 256 56 56 (12845056)
I0403 16:46:41.680907  2692 net.cpp:168] Memory required for data: 1589575872
I0403 16:46:41.680912  2692 layer_factory.hpp:77] Creating layer res2c
I0403 16:46:41.680917  2692 net.cpp:103] Creating Layer res2c
I0403 16:46:41.680919  2692 net.cpp:456] res2c <- res2b_res2b_relu_0_split_1
I0403 16:46:41.680922  2692 net.cpp:456] res2c <- res2c_branch2c
I0403 16:46:41.680925  2692 net.cpp:430] res2c -> res2c
I0403 16:46:41.680951  2692 net.cpp:153] Setting up res2c
I0403 16:46:41.680958  2692 net.cpp:160] Top shape: 16 256 56 56 (12845056)
I0403 16:46:41.680959  2692 net.cpp:168] Memory required for data: 1640956096
I0403 16:46:41.680961  2692 layer_factory.hpp:77] Creating layer res2c_relu
I0403 16:46:41.680965  2692 net.cpp:103] Creating Layer res2c_relu
I0403 16:46:41.680968  2692 net.cpp:456] res2c_relu <- res2c
I0403 16:46:41.680970  2692 net.cpp:417] res2c_relu -> res2c (in-place)
I0403 16:46:41.681109  2692 net.cpp:153] Setting up res2c_relu
I0403 16:46:41.681115  2692 net.cpp:160] Top shape: 16 256 56 56 (12845056)
I0403 16:46:41.681118  2692 net.cpp:168] Memory required for data: 1692336320
I0403 16:46:41.681119  2692 layer_factory.hpp:77] Creating layer res2c_res2c_relu_0_split
I0403 16:46:41.681123  2692 net.cpp:103] Creating Layer res2c_res2c_relu_0_split
I0403 16:46:41.681125  2692 net.cpp:456] res2c_res2c_relu_0_split <- res2c
I0403 16:46:41.681129  2692 net.cpp:430] res2c_res2c_relu_0_split -> res2c_res2c_relu_0_split_0
I0403 16:46:41.681133  2692 net.cpp:430] res2c_res2c_relu_0_split -> res2c_res2c_relu_0_split_1
I0403 16:46:41.681162  2692 net.cpp:153] Setting up res2c_res2c_relu_0_split
I0403 16:46:41.681166  2692 net.cpp:160] Top shape: 16 256 56 56 (12845056)
I0403 16:46:41.681169  2692 net.cpp:160] Top shape: 16 256 56 56 (12845056)
I0403 16:46:41.681170  2692 net.cpp:168] Memory required for data: 1795096768
I0403 16:46:41.681172  2692 layer_factory.hpp:77] Creating layer res3a_branch1
I0403 16:46:41.681177  2692 net.cpp:103] Creating Layer res3a_branch1
I0403 16:46:41.681180  2692 net.cpp:456] res3a_branch1 <- res2c_res2c_relu_0_split_0
I0403 16:46:41.681185  2692 net.cpp:430] res3a_branch1 -> res3a_branch1
I0403 16:46:41.682909  2692 net.cpp:153] Setting up res3a_branch1
I0403 16:46:41.682929  2692 net.cpp:160] Top shape: 16 512 28 28 (6422528)
I0403 16:46:41.682931  2692 net.cpp:168] Memory required for data: 1820786880
I0403 16:46:41.682934  2692 layer_factory.hpp:77] Creating layer bn3a_branch1
I0403 16:46:41.682941  2692 net.cpp:103] Creating Layer bn3a_branch1
I0403 16:46:41.682945  2692 net.cpp:456] bn3a_branch1 <- res3a_branch1
I0403 16:46:41.682948  2692 net.cpp:417] bn3a_branch1 -> res3a_branch1 (in-place)
I0403 16:46:41.683609  2692 net.cpp:153] Setting up bn3a_branch1
I0403 16:46:41.683619  2692 net.cpp:160] Top shape: 16 512 28 28 (6422528)
I0403 16:46:41.683622  2692 net.cpp:168] Memory required for data: 1846476992
I0403 16:46:41.683632  2692 layer_factory.hpp:77] Creating layer scale3a_branch1
I0403 16:46:41.683639  2692 net.cpp:103] Creating Layer scale3a_branch1
I0403 16:46:41.683642  2692 net.cpp:456] scale3a_branch1 <- res3a_branch1
I0403 16:46:41.683650  2692 net.cpp:417] scale3a_branch1 -> res3a_branch1 (in-place)
I0403 16:46:41.683684  2692 layer_factory.hpp:77] Creating layer scale3a_branch1
I0403 16:46:41.683763  2692 net.cpp:153] Setting up scale3a_branch1
I0403 16:46:41.683768  2692 net.cpp:160] Top shape: 16 512 28 28 (6422528)
I0403 16:46:41.683773  2692 net.cpp:168] Memory required for data: 1872167104
I0403 16:46:41.683778  2692 layer_factory.hpp:77] Creating layer res3a_branch2a
I0403 16:46:41.683784  2692 net.cpp:103] Creating Layer res3a_branch2a
I0403 16:46:41.683787  2692 net.cpp:456] res3a_branch2a <- res2c_res2c_relu_0_split_1
I0403 16:46:41.683791  2692 net.cpp:430] res3a_branch2a -> res3a_branch2a
I0403 16:46:41.684994  2692 net.cpp:153] Setting up res3a_branch2a
I0403 16:46:41.685003  2692 net.cpp:160] Top shape: 16 128 28 28 (1605632)
I0403 16:46:41.685006  2692 net.cpp:168] Memory required for data: 1878589632
I0403 16:46:41.685010  2692 layer_factory.hpp:77] Creating layer bn3a_branch2a
I0403 16:46:41.685015  2692 net.cpp:103] Creating Layer bn3a_branch2a
I0403 16:46:41.685019  2692 net.cpp:456] bn3a_branch2a <- res3a_branch2a
I0403 16:46:41.685024  2692 net.cpp:417] bn3a_branch2a -> res3a_branch2a (in-place)
I0403 16:46:41.685158  2692 net.cpp:153] Setting up bn3a_branch2a
I0403 16:46:41.685163  2692 net.cpp:160] Top shape: 16 128 28 28 (1605632)
I0403 16:46:41.685165  2692 net.cpp:168] Memory required for data: 1885012160
I0403 16:46:41.685170  2692 layer_factory.hpp:77] Creating layer scale3a_branch2a
I0403 16:46:41.685175  2692 net.cpp:103] Creating Layer scale3a_branch2a
I0403 16:46:41.685178  2692 net.cpp:456] scale3a_branch2a <- res3a_branch2a
I0403 16:46:41.685181  2692 net.cpp:417] scale3a_branch2a -> res3a_branch2a (in-place)
I0403 16:46:41.685209  2692 layer_factory.hpp:77] Creating layer scale3a_branch2a
I0403 16:46:41.685286  2692 net.cpp:153] Setting up scale3a_branch2a
I0403 16:46:41.685292  2692 net.cpp:160] Top shape: 16 128 28 28 (1605632)
I0403 16:46:41.685293  2692 net.cpp:168] Memory required for data: 1891434688
I0403 16:46:41.685297  2692 layer_factory.hpp:77] Creating layer res3a_branch2a_relu
I0403 16:46:41.685302  2692 net.cpp:103] Creating Layer res3a_branch2a_relu
I0403 16:46:41.685304  2692 net.cpp:456] res3a_branch2a_relu <- res3a_branch2a
I0403 16:46:41.685308  2692 net.cpp:417] res3a_branch2a_relu -> res3a_branch2a (in-place)
I0403 16:46:41.685446  2692 net.cpp:153] Setting up res3a_branch2a_relu
I0403 16:46:41.685451  2692 net.cpp:160] Top shape: 16 128 28 28 (1605632)
I0403 16:46:41.685454  2692 net.cpp:168] Memory required for data: 1897857216
I0403 16:46:41.685456  2692 layer_factory.hpp:77] Creating layer res3a_branch2b
I0403 16:46:41.685464  2692 net.cpp:103] Creating Layer res3a_branch2b
I0403 16:46:41.685467  2692 net.cpp:456] res3a_branch2b <- res3a_branch2a
I0403 16:46:41.685472  2692 net.cpp:430] res3a_branch2b -> res3a_branch2b
I0403 16:46:41.686693  2692 net.cpp:153] Setting up res3a_branch2b
I0403 16:46:41.686703  2692 net.cpp:160] Top shape: 16 128 28 28 (1605632)
I0403 16:46:41.686707  2692 net.cpp:168] Memory required for data: 1904279744
I0403 16:46:41.686713  2692 layer_factory.hpp:77] Creating layer bn3a_branch2b
I0403 16:46:41.686740  2692 net.cpp:103] Creating Layer bn3a_branch2b
I0403 16:46:41.686744  2692 net.cpp:456] bn3a_branch2b <- res3a_branch2b
I0403 16:46:41.686758  2692 net.cpp:417] bn3a_branch2b -> res3a_branch2b (in-place)
I0403 16:46:41.686913  2692 net.cpp:153] Setting up bn3a_branch2b
I0403 16:46:41.686918  2692 net.cpp:160] Top shape: 16 128 28 28 (1605632)
I0403 16:46:41.686919  2692 net.cpp:168] Memory required for data: 1910702272
I0403 16:46:41.686933  2692 layer_factory.hpp:77] Creating layer scale3a_branch2b
I0403 16:46:41.686939  2692 net.cpp:103] Creating Layer scale3a_branch2b
I0403 16:46:41.686941  2692 net.cpp:456] scale3a_branch2b <- res3a_branch2b
I0403 16:46:41.686949  2692 net.cpp:417] scale3a_branch2b -> res3a_branch2b (in-place)
I0403 16:46:41.686993  2692 layer_factory.hpp:77] Creating layer scale3a_branch2b
I0403 16:46:41.687093  2692 net.cpp:153] Setting up scale3a_branch2b
I0403 16:46:41.687099  2692 net.cpp:160] Top shape: 16 128 28 28 (1605632)
I0403 16:46:41.687110  2692 net.cpp:168] Memory required for data: 1917124800
I0403 16:46:41.687115  2692 layer_factory.hpp:77] Creating layer res3a_branch2b_relu
I0403 16:46:41.687120  2692 net.cpp:103] Creating Layer res3a_branch2b_relu
I0403 16:46:41.687124  2692 net.cpp:456] res3a_branch2b_relu <- res3a_branch2b
I0403 16:46:41.687126  2692 net.cpp:417] res3a_branch2b_relu -> res3a_branch2b (in-place)
I0403 16:46:41.687546  2692 net.cpp:153] Setting up res3a_branch2b_relu
I0403 16:46:41.687554  2692 net.cpp:160] Top shape: 16 128 28 28 (1605632)
I0403 16:46:41.687556  2692 net.cpp:168] Memory required for data: 1923547328
I0403 16:46:41.687559  2692 layer_factory.hpp:77] Creating layer res3a_branch2c
I0403 16:46:41.687572  2692 net.cpp:103] Creating Layer res3a_branch2c
I0403 16:46:41.687577  2692 net.cpp:456] res3a_branch2c <- res3a_branch2b
I0403 16:46:41.687582  2692 net.cpp:430] res3a_branch2c -> res3a_branch2c
I0403 16:46:41.688457  2692 net.cpp:153] Setting up res3a_branch2c
I0403 16:46:41.688467  2692 net.cpp:160] Top shape: 16 512 28 28 (6422528)
I0403 16:46:41.688472  2692 net.cpp:168] Memory required for data: 1949237440
I0403 16:46:41.688477  2692 layer_factory.hpp:77] Creating layer bn3a_branch2c
I0403 16:46:41.688484  2692 net.cpp:103] Creating Layer bn3a_branch2c
I0403 16:46:41.688488  2692 net.cpp:456] bn3a_branch2c <- res3a_branch2c
I0403 16:46:41.688493  2692 net.cpp:417] bn3a_branch2c -> res3a_branch2c (in-place)
I0403 16:46:41.688635  2692 net.cpp:153] Setting up bn3a_branch2c
I0403 16:46:41.688642  2692 net.cpp:160] Top shape: 16 512 28 28 (6422528)
I0403 16:46:41.688644  2692 net.cpp:168] Memory required for data: 1974927552
I0403 16:46:41.688652  2692 layer_factory.hpp:77] Creating layer scale3a_branch2c
I0403 16:46:41.688657  2692 net.cpp:103] Creating Layer scale3a_branch2c
I0403 16:46:41.688659  2692 net.cpp:456] scale3a_branch2c <- res3a_branch2c
I0403 16:46:41.688663  2692 net.cpp:417] scale3a_branch2c -> res3a_branch2c (in-place)
I0403 16:46:41.688693  2692 layer_factory.hpp:77] Creating layer scale3a_branch2c
I0403 16:46:41.688766  2692 net.cpp:153] Setting up scale3a_branch2c
I0403 16:46:41.688772  2692 net.cpp:160] Top shape: 16 512 28 28 (6422528)
I0403 16:46:41.688776  2692 net.cpp:168] Memory required for data: 2000617664
I0403 16:46:41.688778  2692 layer_factory.hpp:77] Creating layer res3a
I0403 16:46:41.688782  2692 net.cpp:103] Creating Layer res3a
I0403 16:46:41.688784  2692 net.cpp:456] res3a <- res3a_branch1
I0403 16:46:41.688787  2692 net.cpp:456] res3a <- res3a_branch2c
I0403 16:46:41.688791  2692 net.cpp:430] res3a -> res3a
I0403 16:46:41.688815  2692 net.cpp:153] Setting up res3a
I0403 16:46:41.688820  2692 net.cpp:160] Top shape: 16 512 28 28 (6422528)
I0403 16:46:41.688822  2692 net.cpp:168] Memory required for data: 2026307776
I0403 16:46:41.688823  2692 layer_factory.hpp:77] Creating layer res3a_relu
I0403 16:46:41.688827  2692 net.cpp:103] Creating Layer res3a_relu
I0403 16:46:41.688829  2692 net.cpp:456] res3a_relu <- res3a
I0403 16:46:41.688832  2692 net.cpp:417] res3a_relu -> res3a (in-place)
I0403 16:46:41.688984  2692 net.cpp:153] Setting up res3a_relu
I0403 16:46:41.688992  2692 net.cpp:160] Top shape: 16 512 28 28 (6422528)
I0403 16:46:41.688997  2692 net.cpp:168] Memory required for data: 2051997888
I0403 16:46:41.688999  2692 layer_factory.hpp:77] Creating layer res3a_res3a_relu_0_split
I0403 16:46:41.689007  2692 net.cpp:103] Creating Layer res3a_res3a_relu_0_split
I0403 16:46:41.689009  2692 net.cpp:456] res3a_res3a_relu_0_split <- res3a
I0403 16:46:41.689014  2692 net.cpp:430] res3a_res3a_relu_0_split -> res3a_res3a_relu_0_split_0
I0403 16:46:41.689023  2692 net.cpp:430] res3a_res3a_relu_0_split -> res3a_res3a_relu_0_split_1
I0403 16:46:41.689054  2692 net.cpp:153] Setting up res3a_res3a_relu_0_split
I0403 16:46:41.689059  2692 net.cpp:160] Top shape: 16 512 28 28 (6422528)
I0403 16:46:41.689061  2692 net.cpp:160] Top shape: 16 512 28 28 (6422528)
I0403 16:46:41.689064  2692 net.cpp:168] Memory required for data: 2103378112
I0403 16:46:41.689065  2692 layer_factory.hpp:77] Creating layer res3b_branch2a
I0403 16:46:41.689072  2692 net.cpp:103] Creating Layer res3b_branch2a
I0403 16:46:41.689075  2692 net.cpp:456] res3b_branch2a <- res3a_res3a_relu_0_split_0
I0403 16:46:41.689079  2692 net.cpp:430] res3b_branch2a -> res3b_branch2a
I0403 16:46:41.689949  2692 net.cpp:153] Setting up res3b_branch2a
I0403 16:46:41.689960  2692 net.cpp:160] Top shape: 16 128 28 28 (1605632)
I0403 16:46:41.689965  2692 net.cpp:168] Memory required for data: 2109800640
I0403 16:46:41.689970  2692 layer_factory.hpp:77] Creating layer bn3b_branch2a
I0403 16:46:41.689976  2692 net.cpp:103] Creating Layer bn3b_branch2a
I0403 16:46:41.689980  2692 net.cpp:456] bn3b_branch2a <- res3b_branch2a
I0403 16:46:41.689985  2692 net.cpp:417] bn3b_branch2a -> res3b_branch2a (in-place)
I0403 16:46:41.690150  2692 net.cpp:153] Setting up bn3b_branch2a
I0403 16:46:41.690156  2692 net.cpp:160] Top shape: 16 128 28 28 (1605632)
I0403 16:46:41.690160  2692 net.cpp:168] Memory required for data: 2116223168
I0403 16:46:41.690167  2692 layer_factory.hpp:77] Creating layer scale3b_branch2a
I0403 16:46:41.690172  2692 net.cpp:103] Creating Layer scale3b_branch2a
I0403 16:46:41.690176  2692 net.cpp:456] scale3b_branch2a <- res3b_branch2a
I0403 16:46:41.690182  2692 net.cpp:417] scale3b_branch2a -> res3b_branch2a (in-place)
I0403 16:46:41.690212  2692 layer_factory.hpp:77] Creating layer scale3b_branch2a
I0403 16:46:41.690295  2692 net.cpp:153] Setting up scale3b_branch2a
I0403 16:46:41.690300  2692 net.cpp:160] Top shape: 16 128 28 28 (1605632)
I0403 16:46:41.690304  2692 net.cpp:168] Memory required for data: 2122645696
I0403 16:46:41.690310  2692 layer_factory.hpp:77] Creating layer res3b_branch2a_relu
I0403 16:46:41.690315  2692 net.cpp:103] Creating Layer res3b_branch2a_relu
I0403 16:46:41.690318  2692 net.cpp:456] res3b_branch2a_relu <- res3b_branch2a
I0403 16:46:41.690323  2692 net.cpp:417] res3b_branch2a_relu -> res3b_branch2a (in-place)
I0403 16:46:41.690466  2692 net.cpp:153] Setting up res3b_branch2a_relu
I0403 16:46:41.690474  2692 net.cpp:160] Top shape: 16 128 28 28 (1605632)
I0403 16:46:41.690477  2692 net.cpp:168] Memory required for data: 2129068224
I0403 16:46:41.690479  2692 layer_factory.hpp:77] Creating layer res3b_branch2b
I0403 16:46:41.690487  2692 net.cpp:103] Creating Layer res3b_branch2b
I0403 16:46:41.690491  2692 net.cpp:456] res3b_branch2b <- res3b_branch2a
I0403 16:46:41.690497  2692 net.cpp:430] res3b_branch2b -> res3b_branch2b
I0403 16:46:41.691678  2692 net.cpp:153] Setting up res3b_branch2b
I0403 16:46:41.691686  2692 net.cpp:160] Top shape: 16 128 28 28 (1605632)
I0403 16:46:41.691689  2692 net.cpp:168] Memory required for data: 2135490752
I0403 16:46:41.691694  2692 layer_factory.hpp:77] Creating layer bn3b_branch2b
I0403 16:46:41.691702  2692 net.cpp:103] Creating Layer bn3b_branch2b
I0403 16:46:41.691705  2692 net.cpp:456] bn3b_branch2b <- res3b_branch2b
I0403 16:46:41.691711  2692 net.cpp:417] bn3b_branch2b -> res3b_branch2b (in-place)
I0403 16:46:41.691857  2692 net.cpp:153] Setting up bn3b_branch2b
I0403 16:46:41.691870  2692 net.cpp:160] Top shape: 16 128 28 28 (1605632)
I0403 16:46:41.691874  2692 net.cpp:168] Memory required for data: 2141913280
I0403 16:46:41.691879  2692 layer_factory.hpp:77] Creating layer scale3b_branch2b
I0403 16:46:41.691887  2692 net.cpp:103] Creating Layer scale3b_branch2b
I0403 16:46:41.691891  2692 net.cpp:456] scale3b_branch2b <- res3b_branch2b
I0403 16:46:41.691896  2692 net.cpp:417] scale3b_branch2b -> res3b_branch2b (in-place)
I0403 16:46:41.691929  2692 layer_factory.hpp:77] Creating layer scale3b_branch2b
I0403 16:46:41.692011  2692 net.cpp:153] Setting up scale3b_branch2b
I0403 16:46:41.692018  2692 net.cpp:160] Top shape: 16 128 28 28 (1605632)
I0403 16:46:41.692020  2692 net.cpp:168] Memory required for data: 2148335808
I0403 16:46:41.692026  2692 layer_factory.hpp:77] Creating layer res3b_branch2b_relu
I0403 16:46:41.692032  2692 net.cpp:103] Creating Layer res3b_branch2b_relu
I0403 16:46:41.692036  2692 net.cpp:456] res3b_branch2b_relu <- res3b_branch2b
I0403 16:46:41.692041  2692 net.cpp:417] res3b_branch2b_relu -> res3b_branch2b (in-place)
I0403 16:46:41.692515  2692 net.cpp:153] Setting up res3b_branch2b_relu
I0403 16:46:41.692524  2692 net.cpp:160] Top shape: 16 128 28 28 (1605632)
I0403 16:46:41.692526  2692 net.cpp:168] Memory required for data: 2154758336
I0403 16:46:41.692530  2692 layer_factory.hpp:77] Creating layer res3b_branch2c
I0403 16:46:41.692539  2692 net.cpp:103] Creating Layer res3b_branch2c
I0403 16:46:41.692543  2692 net.cpp:456] res3b_branch2c <- res3b_branch2b
I0403 16:46:41.692549  2692 net.cpp:430] res3b_branch2c -> res3b_branch2c
I0403 16:46:41.693845  2692 net.cpp:153] Setting up res3b_branch2c
I0403 16:46:41.693856  2692 net.cpp:160] Top shape: 16 512 28 28 (6422528)
I0403 16:46:41.693859  2692 net.cpp:168] Memory required for data: 2180448448
I0403 16:46:41.693866  2692 layer_factory.hpp:77] Creating layer bn3b_branch2c
I0403 16:46:41.693873  2692 net.cpp:103] Creating Layer bn3b_branch2c
I0403 16:46:41.693877  2692 net.cpp:456] bn3b_branch2c <- res3b_branch2c
I0403 16:46:41.693883  2692 net.cpp:417] bn3b_branch2c -> res3b_branch2c (in-place)
I0403 16:46:41.694036  2692 net.cpp:153] Setting up bn3b_branch2c
I0403 16:46:41.694041  2692 net.cpp:160] Top shape: 16 512 28 28 (6422528)
I0403 16:46:41.694044  2692 net.cpp:168] Memory required for data: 2206138560
I0403 16:46:41.694061  2692 layer_factory.hpp:77] Creating layer scale3b_branch2c
I0403 16:46:41.694067  2692 net.cpp:103] Creating Layer scale3b_branch2c
I0403 16:46:41.694072  2692 net.cpp:456] scale3b_branch2c <- res3b_branch2c
I0403 16:46:41.694077  2692 net.cpp:417] scale3b_branch2c -> res3b_branch2c (in-place)
I0403 16:46:41.694139  2692 layer_factory.hpp:77] Creating layer scale3b_branch2c
I0403 16:46:41.694231  2692 net.cpp:153] Setting up scale3b_branch2c
I0403 16:46:41.694237  2692 net.cpp:160] Top shape: 16 512 28 28 (6422528)
I0403 16:46:41.694241  2692 net.cpp:168] Memory required for data: 2231828672
I0403 16:46:41.694245  2692 layer_factory.hpp:77] Creating layer res3b
I0403 16:46:41.694252  2692 net.cpp:103] Creating Layer res3b
I0403 16:46:41.694254  2692 net.cpp:456] res3b <- res3a_res3a_relu_0_split_1
I0403 16:46:41.694257  2692 net.cpp:456] res3b <- res3b_branch2c
I0403 16:46:41.694262  2692 net.cpp:430] res3b -> res3b
I0403 16:46:41.694289  2692 net.cpp:153] Setting up res3b
I0403 16:46:41.694294  2692 net.cpp:160] Top shape: 16 512 28 28 (6422528)
I0403 16:46:41.694296  2692 net.cpp:168] Memory required for data: 2257518784
I0403 16:46:41.694299  2692 layer_factory.hpp:77] Creating layer res3b_relu
I0403 16:46:41.694304  2692 net.cpp:103] Creating Layer res3b_relu
I0403 16:46:41.694308  2692 net.cpp:456] res3b_relu <- res3b
I0403 16:46:41.694314  2692 net.cpp:417] res3b_relu -> res3b (in-place)
I0403 16:46:41.694458  2692 net.cpp:153] Setting up res3b_relu
I0403 16:46:41.694465  2692 net.cpp:160] Top shape: 16 512 28 28 (6422528)
I0403 16:46:41.694468  2692 net.cpp:168] Memory required for data: 2283208896
I0403 16:46:41.694473  2692 layer_factory.hpp:77] Creating layer res3b_res3b_relu_0_split
I0403 16:46:41.694489  2692 net.cpp:103] Creating Layer res3b_res3b_relu_0_split
I0403 16:46:41.694494  2692 net.cpp:456] res3b_res3b_relu_0_split <- res3b
I0403 16:46:41.694499  2692 net.cpp:430] res3b_res3b_relu_0_split -> res3b_res3b_relu_0_split_0
I0403 16:46:41.694505  2692 net.cpp:430] res3b_res3b_relu_0_split -> res3b_res3b_relu_0_split_1
I0403 16:46:41.694536  2692 net.cpp:153] Setting up res3b_res3b_relu_0_split
I0403 16:46:41.694541  2692 net.cpp:160] Top shape: 16 512 28 28 (6422528)
I0403 16:46:41.694543  2692 net.cpp:160] Top shape: 16 512 28 28 (6422528)
I0403 16:46:41.694545  2692 net.cpp:168] Memory required for data: 2334589120
I0403 16:46:41.694547  2692 layer_factory.hpp:77] Creating layer res3c_branch2a
I0403 16:46:41.694552  2692 net.cpp:103] Creating Layer res3c_branch2a
I0403 16:46:41.694555  2692 net.cpp:456] res3c_branch2a <- res3b_res3b_relu_0_split_0
I0403 16:46:41.694559  2692 net.cpp:430] res3c_branch2a -> res3c_branch2a
I0403 16:46:41.695499  2692 net.cpp:153] Setting up res3c_branch2a
I0403 16:46:41.695509  2692 net.cpp:160] Top shape: 16 128 28 28 (1605632)
I0403 16:46:41.695511  2692 net.cpp:168] Memory required for data: 2341011648
I0403 16:46:41.695514  2692 layer_factory.hpp:77] Creating layer bn3c_branch2a
I0403 16:46:41.695520  2692 net.cpp:103] Creating Layer bn3c_branch2a
I0403 16:46:41.695523  2692 net.cpp:456] bn3c_branch2a <- res3c_branch2a
I0403 16:46:41.695528  2692 net.cpp:417] bn3c_branch2a -> res3c_branch2a (in-place)
I0403 16:46:41.695677  2692 net.cpp:153] Setting up bn3c_branch2a
I0403 16:46:41.695680  2692 net.cpp:160] Top shape: 16 128 28 28 (1605632)
I0403 16:46:41.695683  2692 net.cpp:168] Memory required for data: 2347434176
I0403 16:46:41.695698  2692 layer_factory.hpp:77] Creating layer scale3c_branch2a
I0403 16:46:41.695703  2692 net.cpp:103] Creating Layer scale3c_branch2a
I0403 16:46:41.695705  2692 net.cpp:456] scale3c_branch2a <- res3c_branch2a
I0403 16:46:41.695708  2692 net.cpp:417] scale3c_branch2a -> res3c_branch2a (in-place)
I0403 16:46:41.695747  2692 layer_factory.hpp:77] Creating layer scale3c_branch2a
I0403 16:46:41.695844  2692 net.cpp:153] Setting up scale3c_branch2a
I0403 16:46:41.695849  2692 net.cpp:160] Top shape: 16 128 28 28 (1605632)
I0403 16:46:41.695852  2692 net.cpp:168] Memory required for data: 2353856704
I0403 16:46:41.695854  2692 layer_factory.hpp:77] Creating layer res3c_branch2a_relu
I0403 16:46:41.695869  2692 net.cpp:103] Creating Layer res3c_branch2a_relu
I0403 16:46:41.695873  2692 net.cpp:456] res3c_branch2a_relu <- res3c_branch2a
I0403 16:46:41.695876  2692 net.cpp:417] res3c_branch2a_relu -> res3c_branch2a (in-place)
I0403 16:46:41.696022  2692 net.cpp:153] Setting up res3c_branch2a_relu
I0403 16:46:41.696028  2692 net.cpp:160] Top shape: 16 128 28 28 (1605632)
I0403 16:46:41.696029  2692 net.cpp:168] Memory required for data: 2360279232
I0403 16:46:41.696032  2692 layer_factory.hpp:77] Creating layer res3c_branch2b
I0403 16:46:41.696048  2692 net.cpp:103] Creating Layer res3c_branch2b
I0403 16:46:41.696050  2692 net.cpp:456] res3c_branch2b <- res3c_branch2a
I0403 16:46:41.696054  2692 net.cpp:430] res3c_branch2b -> res3c_branch2b
I0403 16:46:41.697751  2692 net.cpp:153] Setting up res3c_branch2b
I0403 16:46:41.697762  2692 net.cpp:160] Top shape: 16 128 28 28 (1605632)
I0403 16:46:41.697763  2692 net.cpp:168] Memory required for data: 2366701760
I0403 16:46:41.697777  2692 layer_factory.hpp:77] Creating layer bn3c_branch2b
I0403 16:46:41.697783  2692 net.cpp:103] Creating Layer bn3c_branch2b
I0403 16:46:41.697788  2692 net.cpp:456] bn3c_branch2b <- res3c_branch2b
I0403 16:46:41.697791  2692 net.cpp:417] bn3c_branch2b -> res3c_branch2b (in-place)
I0403 16:46:41.697945  2692 net.cpp:153] Setting up bn3c_branch2b
I0403 16:46:41.697950  2692 net.cpp:160] Top shape: 16 128 28 28 (1605632)
I0403 16:46:41.697952  2692 net.cpp:168] Memory required for data: 2373124288
I0403 16:46:41.697957  2692 layer_factory.hpp:77] Creating layer scale3c_branch2b
I0403 16:46:41.697973  2692 net.cpp:103] Creating Layer scale3c_branch2b
I0403 16:46:41.697983  2692 net.cpp:456] scale3c_branch2b <- res3c_branch2b
I0403 16:46:41.697988  2692 net.cpp:417] scale3c_branch2b -> res3c_branch2b (in-place)
I0403 16:46:41.698034  2692 layer_factory.hpp:77] Creating layer scale3c_branch2b
I0403 16:46:41.698154  2692 net.cpp:153] Setting up scale3c_branch2b
I0403 16:46:41.698161  2692 net.cpp:160] Top shape: 16 128 28 28 (1605632)
I0403 16:46:41.698165  2692 net.cpp:168] Memory required for data: 2379546816
I0403 16:46:41.698182  2692 layer_factory.hpp:77] Creating layer res3c_branch2b_relu
I0403 16:46:41.698187  2692 net.cpp:103] Creating Layer res3c_branch2b_relu
I0403 16:46:41.698191  2692 net.cpp:456] res3c_branch2b_relu <- res3c_branch2b
I0403 16:46:41.698197  2692 net.cpp:417] res3c_branch2b_relu -> res3c_branch2b (in-place)
I0403 16:46:41.698349  2692 net.cpp:153] Setting up res3c_branch2b_relu
I0403 16:46:41.698356  2692 net.cpp:160] Top shape: 16 128 28 28 (1605632)
I0403 16:46:41.698360  2692 net.cpp:168] Memory required for data: 2385969344
I0403 16:46:41.698374  2692 layer_factory.hpp:77] Creating layer res3c_branch2c
I0403 16:46:41.698384  2692 net.cpp:103] Creating Layer res3c_branch2c
I0403 16:46:41.698387  2692 net.cpp:456] res3c_branch2c <- res3c_branch2b
I0403 16:46:41.698393  2692 net.cpp:430] res3c_branch2c -> res3c_branch2c
I0403 16:46:41.699278  2692 net.cpp:153] Setting up res3c_branch2c
I0403 16:46:41.699288  2692 net.cpp:160] Top shape: 16 512 28 28 (6422528)
I0403 16:46:41.699292  2692 net.cpp:168] Memory required for data: 2411659456
I0403 16:46:41.699309  2692 layer_factory.hpp:77] Creating layer bn3c_branch2c
I0403 16:46:41.699316  2692 net.cpp:103] Creating Layer bn3c_branch2c
I0403 16:46:41.699319  2692 net.cpp:456] bn3c_branch2c <- res3c_branch2c
I0403 16:46:41.699326  2692 net.cpp:417] bn3c_branch2c -> res3c_branch2c (in-place)
I0403 16:46:41.699475  2692 net.cpp:153] Setting up bn3c_branch2c
I0403 16:46:41.699481  2692 net.cpp:160] Top shape: 16 512 28 28 (6422528)
I0403 16:46:41.699484  2692 net.cpp:168] Memory required for data: 2437349568
I0403 16:46:41.699493  2692 layer_factory.hpp:77] Creating layer scale3c_branch2c
I0403 16:46:41.699501  2692 net.cpp:103] Creating Layer scale3c_branch2c
I0403 16:46:41.699504  2692 net.cpp:456] scale3c_branch2c <- res3c_branch2c
I0403 16:46:41.699509  2692 net.cpp:417] scale3c_branch2c -> res3c_branch2c (in-place)
I0403 16:46:41.699542  2692 layer_factory.hpp:77] Creating layer scale3c_branch2c
I0403 16:46:41.699620  2692 net.cpp:153] Setting up scale3c_branch2c
I0403 16:46:41.699625  2692 net.cpp:160] Top shape: 16 512 28 28 (6422528)
I0403 16:46:41.699626  2692 net.cpp:168] Memory required for data: 2463039680
I0403 16:46:41.699630  2692 layer_factory.hpp:77] Creating layer res3c
I0403 16:46:41.699635  2692 net.cpp:103] Creating Layer res3c
I0403 16:46:41.699637  2692 net.cpp:456] res3c <- res3b_res3b_relu_0_split_1
I0403 16:46:41.699640  2692 net.cpp:456] res3c <- res3c_branch2c
I0403 16:46:41.699643  2692 net.cpp:430] res3c -> res3c
I0403 16:46:41.699672  2692 net.cpp:153] Setting up res3c
I0403 16:46:41.699676  2692 net.cpp:160] Top shape: 16 512 28 28 (6422528)
I0403 16:46:41.699678  2692 net.cpp:168] Memory required for data: 2488729792
I0403 16:46:41.699681  2692 layer_factory.hpp:77] Creating layer res3c_relu
I0403 16:46:41.699683  2692 net.cpp:103] Creating Layer res3c_relu
I0403 16:46:41.699685  2692 net.cpp:456] res3c_relu <- res3c
I0403 16:46:41.699688  2692 net.cpp:417] res3c_relu -> res3c (in-place)
I0403 16:46:41.700114  2692 net.cpp:153] Setting up res3c_relu
I0403 16:46:41.700124  2692 net.cpp:160] Top shape: 16 512 28 28 (6422528)
I0403 16:46:41.700126  2692 net.cpp:168] Memory required for data: 2514419904
I0403 16:46:41.700129  2692 layer_factory.hpp:77] Creating layer res3c_res3c_relu_0_split
I0403 16:46:41.700134  2692 net.cpp:103] Creating Layer res3c_res3c_relu_0_split
I0403 16:46:41.700135  2692 net.cpp:456] res3c_res3c_relu_0_split <- res3c
I0403 16:46:41.700143  2692 net.cpp:430] res3c_res3c_relu_0_split -> res3c_res3c_relu_0_split_0
I0403 16:46:41.700152  2692 net.cpp:430] res3c_res3c_relu_0_split -> res3c_res3c_relu_0_split_1
I0403 16:46:41.700196  2692 net.cpp:153] Setting up res3c_res3c_relu_0_split
I0403 16:46:41.700202  2692 net.cpp:160] Top shape: 16 512 28 28 (6422528)
I0403 16:46:41.700207  2692 net.cpp:160] Top shape: 16 512 28 28 (6422528)
I0403 16:46:41.700212  2692 net.cpp:168] Memory required for data: 2565800128
I0403 16:46:41.700215  2692 layer_factory.hpp:77] Creating layer res3d_branch2a
I0403 16:46:41.700225  2692 net.cpp:103] Creating Layer res3d_branch2a
I0403 16:46:41.700228  2692 net.cpp:456] res3d_branch2a <- res3c_res3c_relu_0_split_0
I0403 16:46:41.700234  2692 net.cpp:430] res3d_branch2a -> res3d_branch2a
I0403 16:46:41.701653  2692 net.cpp:153] Setting up res3d_branch2a
I0403 16:46:41.701663  2692 net.cpp:160] Top shape: 16 128 28 28 (1605632)
I0403 16:46:41.701668  2692 net.cpp:168] Memory required for data: 2572222656
I0403 16:46:41.701673  2692 layer_factory.hpp:77] Creating layer bn3d_branch2a
I0403 16:46:41.701683  2692 net.cpp:103] Creating Layer bn3d_branch2a
I0403 16:46:41.701686  2692 net.cpp:456] bn3d_branch2a <- res3d_branch2a
I0403 16:46:41.701692  2692 net.cpp:417] bn3d_branch2a -> res3d_branch2a (in-place)
I0403 16:46:41.701841  2692 net.cpp:153] Setting up bn3d_branch2a
I0403 16:46:41.701848  2692 net.cpp:160] Top shape: 16 128 28 28 (1605632)
I0403 16:46:41.701851  2692 net.cpp:168] Memory required for data: 2578645184
I0403 16:46:41.701870  2692 layer_factory.hpp:77] Creating layer scale3d_branch2a
I0403 16:46:41.701877  2692 net.cpp:103] Creating Layer scale3d_branch2a
I0403 16:46:41.701881  2692 net.cpp:456] scale3d_branch2a <- res3d_branch2a
I0403 16:46:41.701886  2692 net.cpp:417] scale3d_branch2a -> res3d_branch2a (in-place)
I0403 16:46:41.701921  2692 layer_factory.hpp:77] Creating layer scale3d_branch2a
I0403 16:46:41.702003  2692 net.cpp:153] Setting up scale3d_branch2a
I0403 16:46:41.702009  2692 net.cpp:160] Top shape: 16 128 28 28 (1605632)
I0403 16:46:41.702013  2692 net.cpp:168] Memory required for data: 2585067712
I0403 16:46:41.702015  2692 layer_factory.hpp:77] Creating layer res3d_branch2a_relu
I0403 16:46:41.702019  2692 net.cpp:103] Creating Layer res3d_branch2a_relu
I0403 16:46:41.702023  2692 net.cpp:456] res3d_branch2a_relu <- res3d_branch2a
I0403 16:46:41.702025  2692 net.cpp:417] res3d_branch2a_relu -> res3d_branch2a (in-place)
I0403 16:46:41.702189  2692 net.cpp:153] Setting up res3d_branch2a_relu
I0403 16:46:41.702196  2692 net.cpp:160] Top shape: 16 128 28 28 (1605632)
I0403 16:46:41.702198  2692 net.cpp:168] Memory required for data: 2591490240
I0403 16:46:41.702200  2692 layer_factory.hpp:77] Creating layer res3d_branch2b
I0403 16:46:41.702206  2692 net.cpp:103] Creating Layer res3d_branch2b
I0403 16:46:41.702210  2692 net.cpp:456] res3d_branch2b <- res3d_branch2a
I0403 16:46:41.702214  2692 net.cpp:430] res3d_branch2b -> res3d_branch2b
I0403 16:46:41.703409  2692 net.cpp:153] Setting up res3d_branch2b
I0403 16:46:41.703418  2692 net.cpp:160] Top shape: 16 128 28 28 (1605632)
I0403 16:46:41.703421  2692 net.cpp:168] Memory required for data: 2597912768
I0403 16:46:41.703425  2692 layer_factory.hpp:77] Creating layer bn3d_branch2b
I0403 16:46:41.703430  2692 net.cpp:103] Creating Layer bn3d_branch2b
I0403 16:46:41.703433  2692 net.cpp:456] bn3d_branch2b <- res3d_branch2b
I0403 16:46:41.703438  2692 net.cpp:417] bn3d_branch2b -> res3d_branch2b (in-place)
I0403 16:46:41.703588  2692 net.cpp:153] Setting up bn3d_branch2b
I0403 16:46:41.703593  2692 net.cpp:160] Top shape: 16 128 28 28 (1605632)
I0403 16:46:41.703595  2692 net.cpp:168] Memory required for data: 2604335296
I0403 16:46:41.703599  2692 layer_factory.hpp:77] Creating layer scale3d_branch2b
I0403 16:46:41.703606  2692 net.cpp:103] Creating Layer scale3d_branch2b
I0403 16:46:41.703609  2692 net.cpp:456] scale3d_branch2b <- res3d_branch2b
I0403 16:46:41.703613  2692 net.cpp:417] scale3d_branch2b -> res3d_branch2b (in-place)
I0403 16:46:41.703644  2692 layer_factory.hpp:77] Creating layer scale3d_branch2b
I0403 16:46:41.703727  2692 net.cpp:153] Setting up scale3d_branch2b
I0403 16:46:41.703739  2692 net.cpp:160] Top shape: 16 128 28 28 (1605632)
I0403 16:46:41.703742  2692 net.cpp:168] Memory required for data: 2610757824
I0403 16:46:41.703747  2692 layer_factory.hpp:77] Creating layer res3d_branch2b_relu
I0403 16:46:41.703750  2692 net.cpp:103] Creating Layer res3d_branch2b_relu
I0403 16:46:41.703753  2692 net.cpp:456] res3d_branch2b_relu <- res3d_branch2b
I0403 16:46:41.703757  2692 net.cpp:417] res3d_branch2b_relu -> res3d_branch2b (in-place)
I0403 16:46:41.703907  2692 net.cpp:153] Setting up res3d_branch2b_relu
I0403 16:46:41.703914  2692 net.cpp:160] Top shape: 16 128 28 28 (1605632)
I0403 16:46:41.703919  2692 net.cpp:168] Memory required for data: 2617180352
I0403 16:46:41.703922  2692 layer_factory.hpp:77] Creating layer res3d_branch2c
I0403 16:46:41.703932  2692 net.cpp:103] Creating Layer res3d_branch2c
I0403 16:46:41.703935  2692 net.cpp:456] res3d_branch2c <- res3d_branch2b
I0403 16:46:41.703939  2692 net.cpp:430] res3d_branch2c -> res3d_branch2c
I0403 16:46:41.704835  2692 net.cpp:153] Setting up res3d_branch2c
I0403 16:46:41.704846  2692 net.cpp:160] Top shape: 16 512 28 28 (6422528)
I0403 16:46:41.704849  2692 net.cpp:168] Memory required for data: 2642870464
I0403 16:46:41.704852  2692 layer_factory.hpp:77] Creating layer bn3d_branch2c
I0403 16:46:41.704857  2692 net.cpp:103] Creating Layer bn3d_branch2c
I0403 16:46:41.704860  2692 net.cpp:456] bn3d_branch2c <- res3d_branch2c
I0403 16:46:41.704865  2692 net.cpp:417] bn3d_branch2c -> res3d_branch2c (in-place)
I0403 16:46:41.705019  2692 net.cpp:153] Setting up bn3d_branch2c
I0403 16:46:41.705025  2692 net.cpp:160] Top shape: 16 512 28 28 (6422528)
I0403 16:46:41.705029  2692 net.cpp:168] Memory required for data: 2668560576
I0403 16:46:41.705037  2692 layer_factory.hpp:77] Creating layer scale3d_branch2c
I0403 16:46:41.705044  2692 net.cpp:103] Creating Layer scale3d_branch2c
I0403 16:46:41.705047  2692 net.cpp:456] scale3d_branch2c <- res3d_branch2c
I0403 16:46:41.705055  2692 net.cpp:417] scale3d_branch2c -> res3d_branch2c (in-place)
I0403 16:46:41.705090  2692 layer_factory.hpp:77] Creating layer scale3d_branch2c
I0403 16:46:41.705175  2692 net.cpp:153] Setting up scale3d_branch2c
I0403 16:46:41.705181  2692 net.cpp:160] Top shape: 16 512 28 28 (6422528)
I0403 16:46:41.705185  2692 net.cpp:168] Memory required for data: 2694250688
I0403 16:46:41.705193  2692 layer_factory.hpp:77] Creating layer res3d
I0403 16:46:41.705199  2692 net.cpp:103] Creating Layer res3d
I0403 16:46:41.705204  2692 net.cpp:456] res3d <- res3c_res3c_relu_0_split_1
I0403 16:46:41.705206  2692 net.cpp:456] res3d <- res3d_branch2c
I0403 16:46:41.705214  2692 net.cpp:430] res3d -> res3d
I0403 16:46:41.705246  2692 net.cpp:153] Setting up res3d
I0403 16:46:41.705250  2692 net.cpp:160] Top shape: 16 512 28 28 (6422528)
I0403 16:46:41.705255  2692 net.cpp:168] Memory required for data: 2719940800
I0403 16:46:41.705258  2692 layer_factory.hpp:77] Creating layer res3d_relu
I0403 16:46:41.705265  2692 net.cpp:103] Creating Layer res3d_relu
I0403 16:46:41.705267  2692 net.cpp:456] res3d_relu <- res3d
I0403 16:46:41.705271  2692 net.cpp:417] res3d_relu -> res3d (in-place)
I0403 16:46:41.705698  2692 net.cpp:153] Setting up res3d_relu
I0403 16:46:41.705706  2692 net.cpp:160] Top shape: 16 512 28 28 (6422528)
I0403 16:46:41.705708  2692 net.cpp:168] Memory required for data: 2745630912
I0403 16:46:41.705711  2692 layer_factory.hpp:77] Creating layer res3d_res3d_relu_0_split
I0403 16:46:41.705715  2692 net.cpp:103] Creating Layer res3d_res3d_relu_0_split
I0403 16:46:41.705718  2692 net.cpp:456] res3d_res3d_relu_0_split <- res3d
I0403 16:46:41.705723  2692 net.cpp:430] res3d_res3d_relu_0_split -> res3d_res3d_relu_0_split_0
I0403 16:46:41.705726  2692 net.cpp:430] res3d_res3d_relu_0_split -> res3d_res3d_relu_0_split_1
I0403 16:46:41.705762  2692 net.cpp:153] Setting up res3d_res3d_relu_0_split
I0403 16:46:41.705767  2692 net.cpp:160] Top shape: 16 512 28 28 (6422528)
I0403 16:46:41.705773  2692 net.cpp:160] Top shape: 16 512 28 28 (6422528)
I0403 16:46:41.705785  2692 net.cpp:168] Memory required for data: 2797011136
I0403 16:46:41.705788  2692 layer_factory.hpp:77] Creating layer res4a_branch1
I0403 16:46:41.705798  2692 net.cpp:103] Creating Layer res4a_branch1
I0403 16:46:41.705802  2692 net.cpp:456] res4a_branch1 <- res3d_res3d_relu_0_split_0
I0403 16:46:41.705808  2692 net.cpp:430] res4a_branch1 -> res4a_branch1
I0403 16:46:41.707482  2692 net.cpp:153] Setting up res4a_branch1
I0403 16:46:41.707494  2692 net.cpp:160] Top shape: 16 1024 14 14 (3211264)
I0403 16:46:41.707499  2692 net.cpp:168] Memory required for data: 2809856192
I0403 16:46:41.707505  2692 layer_factory.hpp:77] Creating layer bn4a_branch1
I0403 16:46:41.707514  2692 net.cpp:103] Creating Layer bn4a_branch1
I0403 16:46:41.707517  2692 net.cpp:456] bn4a_branch1 <- res4a_branch1
I0403 16:46:41.707525  2692 net.cpp:417] bn4a_branch1 -> res4a_branch1 (in-place)
I0403 16:46:41.707682  2692 net.cpp:153] Setting up bn4a_branch1
I0403 16:46:41.707687  2692 net.cpp:160] Top shape: 16 1024 14 14 (3211264)
I0403 16:46:41.707690  2692 net.cpp:168] Memory required for data: 2822701248
I0403 16:46:41.707693  2692 layer_factory.hpp:77] Creating layer scale4a_branch1
I0403 16:46:41.707700  2692 net.cpp:103] Creating Layer scale4a_branch1
I0403 16:46:41.707705  2692 net.cpp:456] scale4a_branch1 <- res4a_branch1
I0403 16:46:41.707711  2692 net.cpp:417] scale4a_branch1 -> res4a_branch1 (in-place)
I0403 16:46:41.707744  2692 layer_factory.hpp:77] Creating layer scale4a_branch1
I0403 16:46:41.707834  2692 net.cpp:153] Setting up scale4a_branch1
I0403 16:46:41.707840  2692 net.cpp:160] Top shape: 16 1024 14 14 (3211264)
I0403 16:46:41.707844  2692 net.cpp:168] Memory required for data: 2835546304
I0403 16:46:41.707851  2692 layer_factory.hpp:77] Creating layer res4a_branch2a
I0403 16:46:41.707861  2692 net.cpp:103] Creating Layer res4a_branch2a
I0403 16:46:41.707865  2692 net.cpp:456] res4a_branch2a <- res3d_res3d_relu_0_split_1
I0403 16:46:41.707871  2692 net.cpp:430] res4a_branch2a -> res4a_branch2a
I0403 16:46:41.708835  2692 net.cpp:153] Setting up res4a_branch2a
I0403 16:46:41.708845  2692 net.cpp:160] Top shape: 16 256 14 14 (802816)
I0403 16:46:41.708850  2692 net.cpp:168] Memory required for data: 2838757568
I0403 16:46:41.708856  2692 layer_factory.hpp:77] Creating layer bn4a_branch2a
I0403 16:46:41.708865  2692 net.cpp:103] Creating Layer bn4a_branch2a
I0403 16:46:41.708869  2692 net.cpp:456] bn4a_branch2a <- res4a_branch2a
I0403 16:46:41.708875  2692 net.cpp:417] bn4a_branch2a -> res4a_branch2a (in-place)
I0403 16:46:41.709028  2692 net.cpp:153] Setting up bn4a_branch2a
I0403 16:46:41.709034  2692 net.cpp:160] Top shape: 16 256 14 14 (802816)
I0403 16:46:41.709038  2692 net.cpp:168] Memory required for data: 2841968832
I0403 16:46:41.709048  2692 layer_factory.hpp:77] Creating layer scale4a_branch2a
I0403 16:46:41.709053  2692 net.cpp:103] Creating Layer scale4a_branch2a
I0403 16:46:41.709058  2692 net.cpp:456] scale4a_branch2a <- res4a_branch2a
I0403 16:46:41.709061  2692 net.cpp:417] scale4a_branch2a -> res4a_branch2a (in-place)
I0403 16:46:41.709097  2692 layer_factory.hpp:77] Creating layer scale4a_branch2a
I0403 16:46:41.709184  2692 net.cpp:153] Setting up scale4a_branch2a
I0403 16:46:41.709190  2692 net.cpp:160] Top shape: 16 256 14 14 (802816)
I0403 16:46:41.709195  2692 net.cpp:168] Memory required for data: 2845180096
I0403 16:46:41.709200  2692 layer_factory.hpp:77] Creating layer res4a_branch2a_relu
I0403 16:46:41.709205  2692 net.cpp:103] Creating Layer res4a_branch2a_relu
I0403 16:46:41.709210  2692 net.cpp:456] res4a_branch2a_relu <- res4a_branch2a
I0403 16:46:41.709214  2692 net.cpp:417] res4a_branch2a_relu -> res4a_branch2a (in-place)
I0403 16:46:41.709362  2692 net.cpp:153] Setting up res4a_branch2a_relu
I0403 16:46:41.709368  2692 net.cpp:160] Top shape: 16 256 14 14 (802816)
I0403 16:46:41.709372  2692 net.cpp:168] Memory required for data: 2848391360
I0403 16:46:41.709376  2692 layer_factory.hpp:77] Creating layer res4a_branch2b
I0403 16:46:41.709383  2692 net.cpp:103] Creating Layer res4a_branch2b
I0403 16:46:41.709394  2692 net.cpp:456] res4a_branch2b <- res4a_branch2a
I0403 16:46:41.709398  2692 net.cpp:430] res4a_branch2b -> res4a_branch2b
I0403 16:46:41.711434  2692 net.cpp:153] Setting up res4a_branch2b
I0403 16:46:41.711444  2692 net.cpp:160] Top shape: 16 256 14 14 (802816)
I0403 16:46:41.711447  2692 net.cpp:168] Memory required for data: 2851602624
I0403 16:46:41.711450  2692 layer_factory.hpp:77] Creating layer bn4a_branch2b
I0403 16:46:41.711457  2692 net.cpp:103] Creating Layer bn4a_branch2b
I0403 16:46:41.711460  2692 net.cpp:456] bn4a_branch2b <- res4a_branch2b
I0403 16:46:41.711463  2692 net.cpp:417] bn4a_branch2b -> res4a_branch2b (in-place)
I0403 16:46:41.711617  2692 net.cpp:153] Setting up bn4a_branch2b
I0403 16:46:41.711622  2692 net.cpp:160] Top shape: 16 256 14 14 (802816)
I0403 16:46:41.711624  2692 net.cpp:168] Memory required for data: 2854813888
I0403 16:46:41.711630  2692 layer_factory.hpp:77] Creating layer scale4a_branch2b
I0403 16:46:41.711635  2692 net.cpp:103] Creating Layer scale4a_branch2b
I0403 16:46:41.711638  2692 net.cpp:456] scale4a_branch2b <- res4a_branch2b
I0403 16:46:41.711642  2692 net.cpp:417] scale4a_branch2b -> res4a_branch2b (in-place)
I0403 16:46:41.711678  2692 layer_factory.hpp:77] Creating layer scale4a_branch2b
I0403 16:46:41.711766  2692 net.cpp:153] Setting up scale4a_branch2b
I0403 16:46:41.711772  2692 net.cpp:160] Top shape: 16 256 14 14 (802816)
I0403 16:46:41.711774  2692 net.cpp:168] Memory required for data: 2858025152
I0403 16:46:41.711781  2692 layer_factory.hpp:77] Creating layer res4a_branch2b_relu
I0403 16:46:41.711788  2692 net.cpp:103] Creating Layer res4a_branch2b_relu
I0403 16:46:41.711793  2692 net.cpp:456] res4a_branch2b_relu <- res4a_branch2b
I0403 16:46:41.711797  2692 net.cpp:417] res4a_branch2b_relu -> res4a_branch2b (in-place)
I0403 16:46:41.711946  2692 net.cpp:153] Setting up res4a_branch2b_relu
I0403 16:46:41.711952  2692 net.cpp:160] Top shape: 16 256 14 14 (802816)
I0403 16:46:41.711954  2692 net.cpp:168] Memory required for data: 2861236416
I0403 16:46:41.711956  2692 layer_factory.hpp:77] Creating layer res4a_branch2c
I0403 16:46:41.711962  2692 net.cpp:103] Creating Layer res4a_branch2c
I0403 16:46:41.711966  2692 net.cpp:456] res4a_branch2c <- res4a_branch2b
I0403 16:46:41.711969  2692 net.cpp:430] res4a_branch2c -> res4a_branch2c
I0403 16:46:41.713778  2692 net.cpp:153] Setting up res4a_branch2c
I0403 16:46:41.713788  2692 net.cpp:160] Top shape: 16 1024 14 14 (3211264)
I0403 16:46:41.713789  2692 net.cpp:168] Memory required for data: 2874081472
I0403 16:46:41.713804  2692 layer_factory.hpp:77] Creating layer bn4a_branch2c
I0403 16:46:41.713809  2692 net.cpp:103] Creating Layer bn4a_branch2c
I0403 16:46:41.713812  2692 net.cpp:456] bn4a_branch2c <- res4a_branch2c
I0403 16:46:41.713816  2692 net.cpp:417] bn4a_branch2c -> res4a_branch2c (in-place)
I0403 16:46:41.713976  2692 net.cpp:153] Setting up bn4a_branch2c
I0403 16:46:41.713981  2692 net.cpp:160] Top shape: 16 1024 14 14 (3211264)
I0403 16:46:41.713984  2692 net.cpp:168] Memory required for data: 2886926528
I0403 16:46:41.713997  2692 layer_factory.hpp:77] Creating layer scale4a_branch2c
I0403 16:46:41.714002  2692 net.cpp:103] Creating Layer scale4a_branch2c
I0403 16:46:41.714005  2692 net.cpp:456] scale4a_branch2c <- res4a_branch2c
I0403 16:46:41.714009  2692 net.cpp:417] scale4a_branch2c -> res4a_branch2c (in-place)
I0403 16:46:41.714048  2692 layer_factory.hpp:77] Creating layer scale4a_branch2c
I0403 16:46:41.714177  2692 net.cpp:153] Setting up scale4a_branch2c
I0403 16:46:41.714185  2692 net.cpp:160] Top shape: 16 1024 14 14 (3211264)
I0403 16:46:41.714187  2692 net.cpp:168] Memory required for data: 2899771584
I0403 16:46:41.714201  2692 layer_factory.hpp:77] Creating layer res4a
I0403 16:46:41.714205  2692 net.cpp:103] Creating Layer res4a
I0403 16:46:41.714208  2692 net.cpp:456] res4a <- res4a_branch1
I0403 16:46:41.714211  2692 net.cpp:456] res4a <- res4a_branch2c
I0403 16:46:41.714215  2692 net.cpp:430] res4a -> res4a
I0403 16:46:41.714253  2692 net.cpp:153] Setting up res4a
I0403 16:46:41.714265  2692 net.cpp:160] Top shape: 16 1024 14 14 (3211264)
I0403 16:46:41.714267  2692 net.cpp:168] Memory required for data: 2912616640
I0403 16:46:41.714269  2692 layer_factory.hpp:77] Creating layer res4a_relu
I0403 16:46:41.714283  2692 net.cpp:103] Creating Layer res4a_relu
I0403 16:46:41.714285  2692 net.cpp:456] res4a_relu <- res4a
I0403 16:46:41.714289  2692 net.cpp:417] res4a_relu -> res4a (in-place)
I0403 16:46:41.714731  2692 net.cpp:153] Setting up res4a_relu
I0403 16:46:41.714740  2692 net.cpp:160] Top shape: 16 1024 14 14 (3211264)
I0403 16:46:41.714745  2692 net.cpp:168] Memory required for data: 2925461696
I0403 16:46:41.714748  2692 layer_factory.hpp:77] Creating layer res4a_res4a_relu_0_split
I0403 16:46:41.714782  2692 net.cpp:103] Creating Layer res4a_res4a_relu_0_split
I0403 16:46:41.714785  2692 net.cpp:456] res4a_res4a_relu_0_split <- res4a
I0403 16:46:41.714792  2692 net.cpp:430] res4a_res4a_relu_0_split -> res4a_res4a_relu_0_split_0
I0403 16:46:41.714798  2692 net.cpp:430] res4a_res4a_relu_0_split -> res4a_res4a_relu_0_split_1
I0403 16:46:41.714844  2692 net.cpp:153] Setting up res4a_res4a_relu_0_split
I0403 16:46:41.714849  2692 net.cpp:160] Top shape: 16 1024 14 14 (3211264)
I0403 16:46:41.714854  2692 net.cpp:160] Top shape: 16 1024 14 14 (3211264)
I0403 16:46:41.714869  2692 net.cpp:168] Memory required for data: 2951151808
I0403 16:46:41.714872  2692 layer_factory.hpp:77] Creating layer res4b_branch2a
I0403 16:46:41.714879  2692 net.cpp:103] Creating Layer res4b_branch2a
I0403 16:46:41.714884  2692 net.cpp:456] res4b_branch2a <- res4a_res4a_relu_0_split_0
I0403 16:46:41.714890  2692 net.cpp:430] res4b_branch2a -> res4b_branch2a
I0403 16:46:41.715899  2692 net.cpp:153] Setting up res4b_branch2a
I0403 16:46:41.715909  2692 net.cpp:160] Top shape: 16 256 14 14 (802816)
I0403 16:46:41.715911  2692 net.cpp:168] Memory required for data: 2954363072
I0403 16:46:41.715915  2692 layer_factory.hpp:77] Creating layer bn4b_branch2a
I0403 16:46:41.715920  2692 net.cpp:103] Creating Layer bn4b_branch2a
I0403 16:46:41.715925  2692 net.cpp:456] bn4b_branch2a <- res4b_branch2a
I0403 16:46:41.715934  2692 net.cpp:417] bn4b_branch2a -> res4b_branch2a (in-place)
I0403 16:46:41.716087  2692 net.cpp:153] Setting up bn4b_branch2a
I0403 16:46:41.716092  2692 net.cpp:160] Top shape: 16 256 14 14 (802816)
I0403 16:46:41.716096  2692 net.cpp:168] Memory required for data: 2957574336
I0403 16:46:41.716105  2692 layer_factory.hpp:77] Creating layer scale4b_branch2a
I0403 16:46:41.716112  2692 net.cpp:103] Creating Layer scale4b_branch2a
I0403 16:46:41.716116  2692 net.cpp:456] scale4b_branch2a <- res4b_branch2a
I0403 16:46:41.716122  2692 net.cpp:417] scale4b_branch2a -> res4b_branch2a (in-place)
I0403 16:46:41.716159  2692 layer_factory.hpp:77] Creating layer scale4b_branch2a
I0403 16:46:41.716248  2692 net.cpp:153] Setting up scale4b_branch2a
I0403 16:46:41.716253  2692 net.cpp:160] Top shape: 16 256 14 14 (802816)
I0403 16:46:41.716258  2692 net.cpp:168] Memory required for data: 2960785600
I0403 16:46:41.716265  2692 layer_factory.hpp:77] Creating layer res4b_branch2a_relu
I0403 16:46:41.716270  2692 net.cpp:103] Creating Layer res4b_branch2a_relu
I0403 16:46:41.716275  2692 net.cpp:456] res4b_branch2a_relu <- res4b_branch2a
I0403 16:46:41.716280  2692 net.cpp:417] res4b_branch2a_relu -> res4b_branch2a (in-place)
I0403 16:46:41.716423  2692 net.cpp:153] Setting up res4b_branch2a_relu
I0403 16:46:41.716429  2692 net.cpp:160] Top shape: 16 256 14 14 (802816)
I0403 16:46:41.716430  2692 net.cpp:168] Memory required for data: 2963996864
I0403 16:46:41.716433  2692 layer_factory.hpp:77] Creating layer res4b_branch2b
I0403 16:46:41.716439  2692 net.cpp:103] Creating Layer res4b_branch2b
I0403 16:46:41.716444  2692 net.cpp:456] res4b_branch2b <- res4b_branch2a
I0403 16:46:41.716451  2692 net.cpp:430] res4b_branch2b -> res4b_branch2b
I0403 16:46:41.718586  2692 net.cpp:153] Setting up res4b_branch2b
I0403 16:46:41.718596  2692 net.cpp:160] Top shape: 16 256 14 14 (802816)
I0403 16:46:41.718610  2692 net.cpp:168] Memory required for data: 2967208128
I0403 16:46:41.718614  2692 layer_factory.hpp:77] Creating layer bn4b_branch2b
I0403 16:46:41.718623  2692 net.cpp:103] Creating Layer bn4b_branch2b
I0403 16:46:41.718628  2692 net.cpp:456] bn4b_branch2b <- res4b_branch2b
I0403 16:46:41.718632  2692 net.cpp:417] bn4b_branch2b -> res4b_branch2b (in-place)
I0403 16:46:41.718793  2692 net.cpp:153] Setting up bn4b_branch2b
I0403 16:46:41.718798  2692 net.cpp:160] Top shape: 16 256 14 14 (802816)
I0403 16:46:41.718801  2692 net.cpp:168] Memory required for data: 2970419392
I0403 16:46:41.718807  2692 layer_factory.hpp:77] Creating layer scale4b_branch2b
I0403 16:46:41.718814  2692 net.cpp:103] Creating Layer scale4b_branch2b
I0403 16:46:41.718816  2692 net.cpp:456] scale4b_branch2b <- res4b_branch2b
I0403 16:46:41.718822  2692 net.cpp:417] scale4b_branch2b -> res4b_branch2b (in-place)
I0403 16:46:41.718865  2692 layer_factory.hpp:77] Creating layer scale4b_branch2b
I0403 16:46:41.718960  2692 net.cpp:153] Setting up scale4b_branch2b
I0403 16:46:41.718964  2692 net.cpp:160] Top shape: 16 256 14 14 (802816)
I0403 16:46:41.718966  2692 net.cpp:168] Memory required for data: 2973630656
I0403 16:46:41.718971  2692 layer_factory.hpp:77] Creating layer res4b_branch2b_relu
I0403 16:46:41.718974  2692 net.cpp:103] Creating Layer res4b_branch2b_relu
I0403 16:46:41.718979  2692 net.cpp:456] res4b_branch2b_relu <- res4b_branch2b
I0403 16:46:41.718983  2692 net.cpp:417] res4b_branch2b_relu -> res4b_branch2b (in-place)
I0403 16:46:41.719135  2692 net.cpp:153] Setting up res4b_branch2b_relu
I0403 16:46:41.719143  2692 net.cpp:160] Top shape: 16 256 14 14 (802816)
I0403 16:46:41.719147  2692 net.cpp:168] Memory required for data: 2976841920
I0403 16:46:41.719151  2692 layer_factory.hpp:77] Creating layer res4b_branch2c
I0403 16:46:41.719161  2692 net.cpp:103] Creating Layer res4b_branch2c
I0403 16:46:41.719164  2692 net.cpp:456] res4b_branch2c <- res4b_branch2b
I0403 16:46:41.719169  2692 net.cpp:430] res4b_branch2c -> res4b_branch2c
I0403 16:46:41.720717  2692 net.cpp:153] Setting up res4b_branch2c
I0403 16:46:41.720727  2692 net.cpp:160] Top shape: 16 1024 14 14 (3211264)
I0403 16:46:41.720731  2692 net.cpp:168] Memory required for data: 2989686976
I0403 16:46:41.720733  2692 layer_factory.hpp:77] Creating layer bn4b_branch2c
I0403 16:46:41.720741  2692 net.cpp:103] Creating Layer bn4b_branch2c
I0403 16:46:41.720746  2692 net.cpp:456] bn4b_branch2c <- res4b_branch2c
I0403 16:46:41.720748  2692 net.cpp:417] bn4b_branch2c -> res4b_branch2c (in-place)
I0403 16:46:41.720906  2692 net.cpp:153] Setting up bn4b_branch2c
I0403 16:46:41.720912  2692 net.cpp:160] Top shape: 16 1024 14 14 (3211264)
I0403 16:46:41.720916  2692 net.cpp:168] Memory required for data: 3002532032
I0403 16:46:41.720923  2692 layer_factory.hpp:77] Creating layer scale4b_branch2c
I0403 16:46:41.720929  2692 net.cpp:103] Creating Layer scale4b_branch2c
I0403 16:46:41.720934  2692 net.cpp:456] scale4b_branch2c <- res4b_branch2c
I0403 16:46:41.720939  2692 net.cpp:417] scale4b_branch2c -> res4b_branch2c (in-place)
I0403 16:46:41.720973  2692 layer_factory.hpp:77] Creating layer scale4b_branch2c
I0403 16:46:41.721061  2692 net.cpp:153] Setting up scale4b_branch2c
I0403 16:46:41.721067  2692 net.cpp:160] Top shape: 16 1024 14 14 (3211264)
I0403 16:46:41.721071  2692 net.cpp:168] Memory required for data: 3015377088
I0403 16:46:41.721073  2692 layer_factory.hpp:77] Creating layer res4b
I0403 16:46:41.721078  2692 net.cpp:103] Creating Layer res4b
I0403 16:46:41.721083  2692 net.cpp:456] res4b <- res4a_res4a_relu_0_split_1
I0403 16:46:41.721088  2692 net.cpp:456] res4b <- res4b_branch2c
I0403 16:46:41.721094  2692 net.cpp:430] res4b -> res4b
I0403 16:46:41.721129  2692 net.cpp:153] Setting up res4b
I0403 16:46:41.721134  2692 net.cpp:160] Top shape: 16 1024 14 14 (3211264)
I0403 16:46:41.721138  2692 net.cpp:168] Memory required for data: 3028222144
I0403 16:46:41.721143  2692 layer_factory.hpp:77] Creating layer res4b_relu
I0403 16:46:41.721149  2692 net.cpp:103] Creating Layer res4b_relu
I0403 16:46:41.721160  2692 net.cpp:456] res4b_relu <- res4b
I0403 16:46:41.721168  2692 net.cpp:417] res4b_relu -> res4b (in-place)
I0403 16:46:41.721315  2692 net.cpp:153] Setting up res4b_relu
I0403 16:46:41.721323  2692 net.cpp:160] Top shape: 16 1024 14 14 (3211264)
I0403 16:46:41.721326  2692 net.cpp:168] Memory required for data: 3041067200
I0403 16:46:41.721331  2692 layer_factory.hpp:77] Creating layer res4b_res4b_relu_0_split
I0403 16:46:41.721338  2692 net.cpp:103] Creating Layer res4b_res4b_relu_0_split
I0403 16:46:41.721340  2692 net.cpp:456] res4b_res4b_relu_0_split <- res4b
I0403 16:46:41.721346  2692 net.cpp:430] res4b_res4b_relu_0_split -> res4b_res4b_relu_0_split_0
I0403 16:46:41.721352  2692 net.cpp:430] res4b_res4b_relu_0_split -> res4b_res4b_relu_0_split_1
I0403 16:46:41.721392  2692 net.cpp:153] Setting up res4b_res4b_relu_0_split
I0403 16:46:41.721397  2692 net.cpp:160] Top shape: 16 1024 14 14 (3211264)
I0403 16:46:41.721400  2692 net.cpp:160] Top shape: 16 1024 14 14 (3211264)
I0403 16:46:41.721403  2692 net.cpp:168] Memory required for data: 3066757312
I0403 16:46:41.721405  2692 layer_factory.hpp:77] Creating layer res4c_branch2a
I0403 16:46:41.721410  2692 net.cpp:103] Creating Layer res4c_branch2a
I0403 16:46:41.721412  2692 net.cpp:456] res4c_branch2a <- res4b_res4b_relu_0_split_0
I0403 16:46:41.721418  2692 net.cpp:430] res4c_branch2a -> res4c_branch2a
I0403 16:46:41.722442  2692 net.cpp:153] Setting up res4c_branch2a
I0403 16:46:41.722452  2692 net.cpp:160] Top shape: 16 256 14 14 (802816)
I0403 16:46:41.722455  2692 net.cpp:168] Memory required for data: 3069968576
I0403 16:46:41.722460  2692 layer_factory.hpp:77] Creating layer bn4c_branch2a
I0403 16:46:41.722470  2692 net.cpp:103] Creating Layer bn4c_branch2a
I0403 16:46:41.722473  2692 net.cpp:456] bn4c_branch2a <- res4c_branch2a
I0403 16:46:41.722481  2692 net.cpp:417] bn4c_branch2a -> res4c_branch2a (in-place)
I0403 16:46:41.722635  2692 net.cpp:153] Setting up bn4c_branch2a
I0403 16:46:41.722640  2692 net.cpp:160] Top shape: 16 256 14 14 (802816)
I0403 16:46:41.722642  2692 net.cpp:168] Memory required for data: 3073179840
I0403 16:46:41.722647  2692 layer_factory.hpp:77] Creating layer scale4c_branch2a
I0403 16:46:41.722652  2692 net.cpp:103] Creating Layer scale4c_branch2a
I0403 16:46:41.722656  2692 net.cpp:456] scale4c_branch2a <- res4c_branch2a
I0403 16:46:41.722659  2692 net.cpp:417] scale4c_branch2a -> res4c_branch2a (in-place)
I0403 16:46:41.722690  2692 layer_factory.hpp:77] Creating layer scale4c_branch2a
I0403 16:46:41.722775  2692 net.cpp:153] Setting up scale4c_branch2a
I0403 16:46:41.722779  2692 net.cpp:160] Top shape: 16 256 14 14 (802816)
I0403 16:46:41.722781  2692 net.cpp:168] Memory required for data: 3076391104
I0403 16:46:41.722785  2692 layer_factory.hpp:77] Creating layer res4c_branch2a_relu
I0403 16:46:41.722790  2692 net.cpp:103] Creating Layer res4c_branch2a_relu
I0403 16:46:41.722792  2692 net.cpp:456] res4c_branch2a_relu <- res4c_branch2a
I0403 16:46:41.722797  2692 net.cpp:417] res4c_branch2a_relu -> res4c_branch2a (in-place)
I0403 16:46:41.723232  2692 net.cpp:153] Setting up res4c_branch2a_relu
I0403 16:46:41.723240  2692 net.cpp:160] Top shape: 16 256 14 14 (802816)
I0403 16:46:41.723243  2692 net.cpp:168] Memory required for data: 3079602368
I0403 16:46:41.723245  2692 layer_factory.hpp:77] Creating layer res4c_branch2b
I0403 16:46:41.723253  2692 net.cpp:103] Creating Layer res4c_branch2b
I0403 16:46:41.723255  2692 net.cpp:456] res4c_branch2b <- res4c_branch2a
I0403 16:46:41.723259  2692 net.cpp:430] res4c_branch2b -> res4c_branch2b
I0403 16:46:41.725320  2692 net.cpp:153] Setting up res4c_branch2b
I0403 16:46:41.725330  2692 net.cpp:160] Top shape: 16 256 14 14 (802816)
I0403 16:46:41.725333  2692 net.cpp:168] Memory required for data: 3082813632
I0403 16:46:41.725337  2692 layer_factory.hpp:77] Creating layer bn4c_branch2b
I0403 16:46:41.725342  2692 net.cpp:103] Creating Layer bn4c_branch2b
I0403 16:46:41.725347  2692 net.cpp:456] bn4c_branch2b <- res4c_branch2b
I0403 16:46:41.725358  2692 net.cpp:417] bn4c_branch2b -> res4c_branch2b (in-place)
I0403 16:46:41.725522  2692 net.cpp:153] Setting up bn4c_branch2b
I0403 16:46:41.725528  2692 net.cpp:160] Top shape: 16 256 14 14 (802816)
I0403 16:46:41.725528  2692 net.cpp:168] Memory required for data: 3086024896
I0403 16:46:41.725533  2692 layer_factory.hpp:77] Creating layer scale4c_branch2b
I0403 16:46:41.725539  2692 net.cpp:103] Creating Layer scale4c_branch2b
I0403 16:46:41.725543  2692 net.cpp:456] scale4c_branch2b <- res4c_branch2b
I0403 16:46:41.725545  2692 net.cpp:417] scale4c_branch2b -> res4c_branch2b (in-place)
I0403 16:46:41.725579  2692 layer_factory.hpp:77] Creating layer scale4c_branch2b
I0403 16:46:41.725667  2692 net.cpp:153] Setting up scale4c_branch2b
I0403 16:46:41.725672  2692 net.cpp:160] Top shape: 16 256 14 14 (802816)
I0403 16:46:41.725673  2692 net.cpp:168] Memory required for data: 3089236160
I0403 16:46:41.725677  2692 layer_factory.hpp:77] Creating layer res4c_branch2b_relu
I0403 16:46:41.725680  2692 net.cpp:103] Creating Layer res4c_branch2b_relu
I0403 16:46:41.725683  2692 net.cpp:456] res4c_branch2b_relu <- res4c_branch2b
I0403 16:46:41.725687  2692 net.cpp:417] res4c_branch2b_relu -> res4c_branch2b (in-place)
I0403 16:46:41.725834  2692 net.cpp:153] Setting up res4c_branch2b_relu
I0403 16:46:41.725841  2692 net.cpp:160] Top shape: 16 256 14 14 (802816)
I0403 16:46:41.725844  2692 net.cpp:168] Memory required for data: 3092447424
I0403 16:46:41.725847  2692 layer_factory.hpp:77] Creating layer res4c_branch2c
I0403 16:46:41.725852  2692 net.cpp:103] Creating Layer res4c_branch2c
I0403 16:46:41.725854  2692 net.cpp:456] res4c_branch2c <- res4c_branch2b
I0403 16:46:41.725859  2692 net.cpp:430] res4c_branch2c -> res4c_branch2c
I0403 16:46:41.727466  2692 net.cpp:153] Setting up res4c_branch2c
I0403 16:46:41.727476  2692 net.cpp:160] Top shape: 16 1024 14 14 (3211264)
I0403 16:46:41.727479  2692 net.cpp:168] Memory required for data: 3105292480
I0403 16:46:41.727483  2692 layer_factory.hpp:77] Creating layer bn4c_branch2c
I0403 16:46:41.727488  2692 net.cpp:103] Creating Layer bn4c_branch2c
I0403 16:46:41.727491  2692 net.cpp:456] bn4c_branch2c <- res4c_branch2c
I0403 16:46:41.727495  2692 net.cpp:417] bn4c_branch2c -> res4c_branch2c (in-place)
I0403 16:46:41.727663  2692 net.cpp:153] Setting up bn4c_branch2c
I0403 16:46:41.727668  2692 net.cpp:160] Top shape: 16 1024 14 14 (3211264)
I0403 16:46:41.727669  2692 net.cpp:168] Memory required for data: 3118137536
I0403 16:46:41.727674  2692 layer_factory.hpp:77] Creating layer scale4c_branch2c
I0403 16:46:41.727677  2692 net.cpp:103] Creating Layer scale4c_branch2c
I0403 16:46:41.727680  2692 net.cpp:456] scale4c_branch2c <- res4c_branch2c
I0403 16:46:41.727684  2692 net.cpp:417] scale4c_branch2c -> res4c_branch2c (in-place)
I0403 16:46:41.727712  2692 layer_factory.hpp:77] Creating layer scale4c_branch2c
I0403 16:46:41.727800  2692 net.cpp:153] Setting up scale4c_branch2c
I0403 16:46:41.727805  2692 net.cpp:160] Top shape: 16 1024 14 14 (3211264)
I0403 16:46:41.727807  2692 net.cpp:168] Memory required for data: 3130982592
I0403 16:46:41.727810  2692 layer_factory.hpp:77] Creating layer res4c
I0403 16:46:41.727815  2692 net.cpp:103] Creating Layer res4c
I0403 16:46:41.727818  2692 net.cpp:456] res4c <- res4b_res4b_relu_0_split_1
I0403 16:46:41.727821  2692 net.cpp:456] res4c <- res4c_branch2c
I0403 16:46:41.727824  2692 net.cpp:430] res4c -> res4c
I0403 16:46:41.727854  2692 net.cpp:153] Setting up res4c
I0403 16:46:41.727859  2692 net.cpp:160] Top shape: 16 1024 14 14 (3211264)
I0403 16:46:41.727859  2692 net.cpp:168] Memory required for data: 3143827648
I0403 16:46:41.727861  2692 layer_factory.hpp:77] Creating layer res4c_relu
I0403 16:46:41.727864  2692 net.cpp:103] Creating Layer res4c_relu
I0403 16:46:41.727866  2692 net.cpp:456] res4c_relu <- res4c
I0403 16:46:41.727869  2692 net.cpp:417] res4c_relu -> res4c (in-place)
I0403 16:46:41.728008  2692 net.cpp:153] Setting up res4c_relu
I0403 16:46:41.728014  2692 net.cpp:160] Top shape: 16 1024 14 14 (3211264)
I0403 16:46:41.728024  2692 net.cpp:168] Memory required for data: 3156672704
I0403 16:46:41.728026  2692 layer_factory.hpp:77] Creating layer res4c_res4c_relu_0_split
I0403 16:46:41.728031  2692 net.cpp:103] Creating Layer res4c_res4c_relu_0_split
I0403 16:46:41.728034  2692 net.cpp:456] res4c_res4c_relu_0_split <- res4c
I0403 16:46:41.728037  2692 net.cpp:430] res4c_res4c_relu_0_split -> res4c_res4c_relu_0_split_0
I0403 16:46:41.728044  2692 net.cpp:430] res4c_res4c_relu_0_split -> res4c_res4c_relu_0_split_1
I0403 16:46:41.728078  2692 net.cpp:153] Setting up res4c_res4c_relu_0_split
I0403 16:46:41.728082  2692 net.cpp:160] Top shape: 16 1024 14 14 (3211264)
I0403 16:46:41.728085  2692 net.cpp:160] Top shape: 16 1024 14 14 (3211264)
I0403 16:46:41.728086  2692 net.cpp:168] Memory required for data: 3182362816
I0403 16:46:41.728088  2692 layer_factory.hpp:77] Creating layer res4d_branch2a
I0403 16:46:41.728094  2692 net.cpp:103] Creating Layer res4d_branch2a
I0403 16:46:41.728096  2692 net.cpp:456] res4d_branch2a <- res4c_res4c_relu_0_split_0
I0403 16:46:41.728101  2692 net.cpp:430] res4d_branch2a -> res4d_branch2a
I0403 16:46:41.729121  2692 net.cpp:153] Setting up res4d_branch2a
I0403 16:46:41.729131  2692 net.cpp:160] Top shape: 16 256 14 14 (802816)
I0403 16:46:41.729133  2692 net.cpp:168] Memory required for data: 3185574080
I0403 16:46:41.729146  2692 layer_factory.hpp:77] Creating layer bn4d_branch2a
I0403 16:46:41.729151  2692 net.cpp:103] Creating Layer bn4d_branch2a
I0403 16:46:41.729154  2692 net.cpp:456] bn4d_branch2a <- res4d_branch2a
I0403 16:46:41.729158  2692 net.cpp:417] bn4d_branch2a -> res4d_branch2a (in-place)
I0403 16:46:41.729326  2692 net.cpp:153] Setting up bn4d_branch2a
I0403 16:46:41.729331  2692 net.cpp:160] Top shape: 16 256 14 14 (802816)
I0403 16:46:41.729332  2692 net.cpp:168] Memory required for data: 3188785344
I0403 16:46:41.729346  2692 layer_factory.hpp:77] Creating layer scale4d_branch2a
I0403 16:46:41.729351  2692 net.cpp:103] Creating Layer scale4d_branch2a
I0403 16:46:41.729353  2692 net.cpp:456] scale4d_branch2a <- res4d_branch2a
I0403 16:46:41.729358  2692 net.cpp:417] scale4d_branch2a -> res4d_branch2a (in-place)
I0403 16:46:41.729398  2692 layer_factory.hpp:77] Creating layer scale4d_branch2a
I0403 16:46:41.729491  2692 net.cpp:153] Setting up scale4d_branch2a
I0403 16:46:41.729497  2692 net.cpp:160] Top shape: 16 256 14 14 (802816)
I0403 16:46:41.729501  2692 net.cpp:168] Memory required for data: 3191996608
I0403 16:46:41.729508  2692 layer_factory.hpp:77] Creating layer res4d_branch2a_relu
I0403 16:46:41.729514  2692 net.cpp:103] Creating Layer res4d_branch2a_relu
I0403 16:46:41.729519  2692 net.cpp:456] res4d_branch2a_relu <- res4d_branch2a
I0403 16:46:41.729523  2692 net.cpp:417] res4d_branch2a_relu -> res4d_branch2a (in-place)
I0403 16:46:41.729974  2692 net.cpp:153] Setting up res4d_branch2a_relu
I0403 16:46:41.729984  2692 net.cpp:160] Top shape: 16 256 14 14 (802816)
I0403 16:46:41.729988  2692 net.cpp:168] Memory required for data: 3195207872
I0403 16:46:41.729992  2692 layer_factory.hpp:77] Creating layer res4d_branch2b
I0403 16:46:41.730002  2692 net.cpp:103] Creating Layer res4d_branch2b
I0403 16:46:41.730005  2692 net.cpp:456] res4d_branch2b <- res4d_branch2a
I0403 16:46:41.730012  2692 net.cpp:430] res4d_branch2b -> res4d_branch2b
I0403 16:46:41.732148  2692 net.cpp:153] Setting up res4d_branch2b
I0403 16:46:41.732159  2692 net.cpp:160] Top shape: 16 256 14 14 (802816)
I0403 16:46:41.732161  2692 net.cpp:168] Memory required for data: 3198419136
I0403 16:46:41.732165  2692 layer_factory.hpp:77] Creating layer bn4d_branch2b
I0403 16:46:41.732170  2692 net.cpp:103] Creating Layer bn4d_branch2b
I0403 16:46:41.732177  2692 net.cpp:456] bn4d_branch2b <- res4d_branch2b
I0403 16:46:41.732182  2692 net.cpp:417] bn4d_branch2b -> res4d_branch2b (in-place)
I0403 16:46:41.732358  2692 net.cpp:153] Setting up bn4d_branch2b
I0403 16:46:41.732363  2692 net.cpp:160] Top shape: 16 256 14 14 (802816)
I0403 16:46:41.732367  2692 net.cpp:168] Memory required for data: 3201630400
I0403 16:46:41.732385  2692 layer_factory.hpp:77] Creating layer scale4d_branch2b
I0403 16:46:41.732394  2692 net.cpp:103] Creating Layer scale4d_branch2b
I0403 16:46:41.732399  2692 net.cpp:456] scale4d_branch2b <- res4d_branch2b
I0403 16:46:41.732405  2692 net.cpp:417] scale4d_branch2b -> res4d_branch2b (in-place)
I0403 16:46:41.732446  2692 layer_factory.hpp:77] Creating layer scale4d_branch2b
I0403 16:46:41.732538  2692 net.cpp:153] Setting up scale4d_branch2b
I0403 16:46:41.732543  2692 net.cpp:160] Top shape: 16 256 14 14 (802816)
I0403 16:46:41.732545  2692 net.cpp:168] Memory required for data: 3204841664
I0403 16:46:41.732549  2692 layer_factory.hpp:77] Creating layer res4d_branch2b_relu
I0403 16:46:41.732554  2692 net.cpp:103] Creating Layer res4d_branch2b_relu
I0403 16:46:41.732558  2692 net.cpp:456] res4d_branch2b_relu <- res4d_branch2b
I0403 16:46:41.732560  2692 net.cpp:417] res4d_branch2b_relu -> res4d_branch2b (in-place)
I0403 16:46:41.732714  2692 net.cpp:153] Setting up res4d_branch2b_relu
I0403 16:46:41.732722  2692 net.cpp:160] Top shape: 16 256 14 14 (802816)
I0403 16:46:41.732724  2692 net.cpp:168] Memory required for data: 3208052928
I0403 16:46:41.732726  2692 layer_factory.hpp:77] Creating layer res4d_branch2c
I0403 16:46:41.732734  2692 net.cpp:103] Creating Layer res4d_branch2c
I0403 16:46:41.732738  2692 net.cpp:456] res4d_branch2c <- res4d_branch2b
I0403 16:46:41.732743  2692 net.cpp:430] res4d_branch2c -> res4d_branch2c
I0403 16:46:41.734573  2692 net.cpp:153] Setting up res4d_branch2c
I0403 16:46:41.734586  2692 net.cpp:160] Top shape: 16 1024 14 14 (3211264)
I0403 16:46:41.734588  2692 net.cpp:168] Memory required for data: 3220897984
I0403 16:46:41.734596  2692 layer_factory.hpp:77] Creating layer bn4d_branch2c
I0403 16:46:41.734606  2692 net.cpp:103] Creating Layer bn4d_branch2c
I0403 16:46:41.734611  2692 net.cpp:456] bn4d_branch2c <- res4d_branch2c
I0403 16:46:41.734616  2692 net.cpp:417] bn4d_branch2c -> res4d_branch2c (in-place)
I0403 16:46:41.734792  2692 net.cpp:153] Setting up bn4d_branch2c
I0403 16:46:41.734799  2692 net.cpp:160] Top shape: 16 1024 14 14 (3211264)
I0403 16:46:41.734802  2692 net.cpp:168] Memory required for data: 3233743040
I0403 16:46:41.734807  2692 layer_factory.hpp:77] Creating layer scale4d_branch2c
I0403 16:46:41.734812  2692 net.cpp:103] Creating Layer scale4d_branch2c
I0403 16:46:41.734815  2692 net.cpp:456] scale4d_branch2c <- res4d_branch2c
I0403 16:46:41.734819  2692 net.cpp:417] scale4d_branch2c -> res4d_branch2c (in-place)
I0403 16:46:41.734854  2692 layer_factory.hpp:77] Creating layer scale4d_branch2c
I0403 16:46:41.734953  2692 net.cpp:153] Setting up scale4d_branch2c
I0403 16:46:41.734959  2692 net.cpp:160] Top shape: 16 1024 14 14 (3211264)
I0403 16:46:41.734963  2692 net.cpp:168] Memory required for data: 3246588096
I0403 16:46:41.734971  2692 layer_factory.hpp:77] Creating layer res4d
I0403 16:46:41.734978  2692 net.cpp:103] Creating Layer res4d
I0403 16:46:41.734982  2692 net.cpp:456] res4d <- res4c_res4c_relu_0_split_1
I0403 16:46:41.734987  2692 net.cpp:456] res4d <- res4d_branch2c
I0403 16:46:41.734993  2692 net.cpp:430] res4d -> res4d
I0403 16:46:41.735030  2692 net.cpp:153] Setting up res4d
I0403 16:46:41.735036  2692 net.cpp:160] Top shape: 16 1024 14 14 (3211264)
I0403 16:46:41.735040  2692 net.cpp:168] Memory required for data: 3259433152
I0403 16:46:41.735044  2692 layer_factory.hpp:77] Creating layer res4d_relu
I0403 16:46:41.735050  2692 net.cpp:103] Creating Layer res4d_relu
I0403 16:46:41.735054  2692 net.cpp:456] res4d_relu <- res4d
I0403 16:46:41.735057  2692 net.cpp:417] res4d_relu -> res4d (in-place)
I0403 16:46:41.735209  2692 net.cpp:153] Setting up res4d_relu
I0403 16:46:41.735216  2692 net.cpp:160] Top shape: 16 1024 14 14 (3211264)
I0403 16:46:41.735220  2692 net.cpp:168] Memory required for data: 3272278208
I0403 16:46:41.735224  2692 layer_factory.hpp:77] Creating layer res4d_res4d_relu_0_split
I0403 16:46:41.735232  2692 net.cpp:103] Creating Layer res4d_res4d_relu_0_split
I0403 16:46:41.735235  2692 net.cpp:456] res4d_res4d_relu_0_split <- res4d
I0403 16:46:41.735249  2692 net.cpp:430] res4d_res4d_relu_0_split -> res4d_res4d_relu_0_split_0
I0403 16:46:41.735255  2692 net.cpp:430] res4d_res4d_relu_0_split -> res4d_res4d_relu_0_split_1
I0403 16:46:41.735293  2692 net.cpp:153] Setting up res4d_res4d_relu_0_split
I0403 16:46:41.735298  2692 net.cpp:160] Top shape: 16 1024 14 14 (3211264)
I0403 16:46:41.735303  2692 net.cpp:160] Top shape: 16 1024 14 14 (3211264)
I0403 16:46:41.735307  2692 net.cpp:168] Memory required for data: 3297968320
I0403 16:46:41.735311  2692 layer_factory.hpp:77] Creating layer res4e_branch2a
I0403 16:46:41.735318  2692 net.cpp:103] Creating Layer res4e_branch2a
I0403 16:46:41.735321  2692 net.cpp:456] res4e_branch2a <- res4d_res4d_relu_0_split_0
I0403 16:46:41.735325  2692 net.cpp:430] res4e_branch2a -> res4e_branch2a
I0403 16:46:41.736433  2692 net.cpp:153] Setting up res4e_branch2a
I0403 16:46:41.736443  2692 net.cpp:160] Top shape: 16 256 14 14 (802816)
I0403 16:46:41.736445  2692 net.cpp:168] Memory required for data: 3301179584
I0403 16:46:41.736449  2692 layer_factory.hpp:77] Creating layer bn4e_branch2a
I0403 16:46:41.736454  2692 net.cpp:103] Creating Layer bn4e_branch2a
I0403 16:46:41.736459  2692 net.cpp:456] bn4e_branch2a <- res4e_branch2a
I0403 16:46:41.736462  2692 net.cpp:417] bn4e_branch2a -> res4e_branch2a (in-place)
I0403 16:46:41.736624  2692 net.cpp:153] Setting up bn4e_branch2a
I0403 16:46:41.736629  2692 net.cpp:160] Top shape: 16 256 14 14 (802816)
I0403 16:46:41.736631  2692 net.cpp:168] Memory required for data: 3304390848
I0403 16:46:41.736635  2692 layer_factory.hpp:77] Creating layer scale4e_branch2a
I0403 16:46:41.736641  2692 net.cpp:103] Creating Layer scale4e_branch2a
I0403 16:46:41.736646  2692 net.cpp:456] scale4e_branch2a <- res4e_branch2a
I0403 16:46:41.736652  2692 net.cpp:417] scale4e_branch2a -> res4e_branch2a (in-place)
I0403 16:46:41.736692  2692 layer_factory.hpp:77] Creating layer scale4e_branch2a
I0403 16:46:41.736788  2692 net.cpp:153] Setting up scale4e_branch2a
I0403 16:46:41.736793  2692 net.cpp:160] Top shape: 16 256 14 14 (802816)
I0403 16:46:41.736796  2692 net.cpp:168] Memory required for data: 3307602112
I0403 16:46:41.736804  2692 layer_factory.hpp:77] Creating layer res4e_branch2a_relu
I0403 16:46:41.736810  2692 net.cpp:103] Creating Layer res4e_branch2a_relu
I0403 16:46:41.736814  2692 net.cpp:456] res4e_branch2a_relu <- res4e_branch2a
I0403 16:46:41.736820  2692 net.cpp:417] res4e_branch2a_relu -> res4e_branch2a (in-place)
I0403 16:46:41.737280  2692 net.cpp:153] Setting up res4e_branch2a_relu
I0403 16:46:41.737291  2692 net.cpp:160] Top shape: 16 256 14 14 (802816)
I0403 16:46:41.737295  2692 net.cpp:168] Memory required for data: 3310813376
I0403 16:46:41.737298  2692 layer_factory.hpp:77] Creating layer res4e_branch2b
I0403 16:46:41.737304  2692 net.cpp:103] Creating Layer res4e_branch2b
I0403 16:46:41.737308  2692 net.cpp:456] res4e_branch2b <- res4e_branch2a
I0403 16:46:41.737318  2692 net.cpp:430] res4e_branch2b -> res4e_branch2b
I0403 16:46:41.739447  2692 net.cpp:153] Setting up res4e_branch2b
I0403 16:46:41.739459  2692 net.cpp:160] Top shape: 16 256 14 14 (802816)
I0403 16:46:41.739462  2692 net.cpp:168] Memory required for data: 3314024640
I0403 16:46:41.739468  2692 layer_factory.hpp:77] Creating layer bn4e_branch2b
I0403 16:46:41.739475  2692 net.cpp:103] Creating Layer bn4e_branch2b
I0403 16:46:41.739478  2692 net.cpp:456] bn4e_branch2b <- res4e_branch2b
I0403 16:46:41.739481  2692 net.cpp:417] bn4e_branch2b -> res4e_branch2b (in-place)
I0403 16:46:41.739651  2692 net.cpp:153] Setting up bn4e_branch2b
I0403 16:46:41.739656  2692 net.cpp:160] Top shape: 16 256 14 14 (802816)
I0403 16:46:41.739658  2692 net.cpp:168] Memory required for data: 3317235904
I0403 16:46:41.739663  2692 layer_factory.hpp:77] Creating layer scale4e_branch2b
I0403 16:46:41.739668  2692 net.cpp:103] Creating Layer scale4e_branch2b
I0403 16:46:41.739670  2692 net.cpp:456] scale4e_branch2b <- res4e_branch2b
I0403 16:46:41.739673  2692 net.cpp:417] scale4e_branch2b -> res4e_branch2b (in-place)
I0403 16:46:41.739720  2692 layer_factory.hpp:77] Creating layer scale4e_branch2b
I0403 16:46:41.739812  2692 net.cpp:153] Setting up scale4e_branch2b
I0403 16:46:41.739817  2692 net.cpp:160] Top shape: 16 256 14 14 (802816)
I0403 16:46:41.739819  2692 net.cpp:168] Memory required for data: 3320447168
I0403 16:46:41.739823  2692 layer_factory.hpp:77] Creating layer res4e_branch2b_relu
I0403 16:46:41.739832  2692 net.cpp:103] Creating Layer res4e_branch2b_relu
I0403 16:46:41.739837  2692 net.cpp:456] res4e_branch2b_relu <- res4e_branch2b
I0403 16:46:41.739842  2692 net.cpp:417] res4e_branch2b_relu -> res4e_branch2b (in-place)
I0403 16:46:41.740005  2692 net.cpp:153] Setting up res4e_branch2b_relu
I0403 16:46:41.740013  2692 net.cpp:160] Top shape: 16 256 14 14 (802816)
I0403 16:46:41.740016  2692 net.cpp:168] Memory required for data: 3323658432
I0403 16:46:41.740018  2692 layer_factory.hpp:77] Creating layer res4e_branch2c
I0403 16:46:41.740025  2692 net.cpp:103] Creating Layer res4e_branch2c
I0403 16:46:41.740030  2692 net.cpp:456] res4e_branch2c <- res4e_branch2b
I0403 16:46:41.740037  2692 net.cpp:430] res4e_branch2c -> res4e_branch2c
I0403 16:46:41.741715  2692 net.cpp:153] Setting up res4e_branch2c
I0403 16:46:41.741726  2692 net.cpp:160] Top shape: 16 1024 14 14 (3211264)
I0403 16:46:41.741730  2692 net.cpp:168] Memory required for data: 3336503488
I0403 16:46:41.741737  2692 layer_factory.hpp:77] Creating layer bn4e_branch2c
I0403 16:46:41.741746  2692 net.cpp:103] Creating Layer bn4e_branch2c
I0403 16:46:41.741750  2692 net.cpp:456] bn4e_branch2c <- res4e_branch2c
I0403 16:46:41.741756  2692 net.cpp:417] bn4e_branch2c -> res4e_branch2c (in-place)
I0403 16:46:41.741991  2692 net.cpp:153] Setting up bn4e_branch2c
I0403 16:46:41.742000  2692 net.cpp:160] Top shape: 16 1024 14 14 (3211264)
I0403 16:46:41.742004  2692 net.cpp:168] Memory required for data: 3349348544
I0403 16:46:41.742013  2692 layer_factory.hpp:77] Creating layer scale4e_branch2c
I0403 16:46:41.742023  2692 net.cpp:103] Creating Layer scale4e_branch2c
I0403 16:46:41.742029  2692 net.cpp:456] scale4e_branch2c <- res4e_branch2c
I0403 16:46:41.742036  2692 net.cpp:417] scale4e_branch2c -> res4e_branch2c (in-place)
I0403 16:46:41.742079  2692 layer_factory.hpp:77] Creating layer scale4e_branch2c
I0403 16:46:41.742197  2692 net.cpp:153] Setting up scale4e_branch2c
I0403 16:46:41.742202  2692 net.cpp:160] Top shape: 16 1024 14 14 (3211264)
I0403 16:46:41.742205  2692 net.cpp:168] Memory required for data: 3362193600
I0403 16:46:41.742209  2692 layer_factory.hpp:77] Creating layer res4e
I0403 16:46:41.742214  2692 net.cpp:103] Creating Layer res4e
I0403 16:46:41.742218  2692 net.cpp:456] res4e <- res4d_res4d_relu_0_split_1
I0403 16:46:41.742220  2692 net.cpp:456] res4e <- res4e_branch2c
I0403 16:46:41.742223  2692 net.cpp:430] res4e -> res4e
I0403 16:46:41.742255  2692 net.cpp:153] Setting up res4e
I0403 16:46:41.742259  2692 net.cpp:160] Top shape: 16 1024 14 14 (3211264)
I0403 16:46:41.742262  2692 net.cpp:168] Memory required for data: 3375038656
I0403 16:46:41.742264  2692 layer_factory.hpp:77] Creating layer res4e_relu
I0403 16:46:41.742267  2692 net.cpp:103] Creating Layer res4e_relu
I0403 16:46:41.742270  2692 net.cpp:456] res4e_relu <- res4e
I0403 16:46:41.742272  2692 net.cpp:417] res4e_relu -> res4e (in-place)
I0403 16:46:41.742419  2692 net.cpp:153] Setting up res4e_relu
I0403 16:46:41.742424  2692 net.cpp:160] Top shape: 16 1024 14 14 (3211264)
I0403 16:46:41.742427  2692 net.cpp:168] Memory required for data: 3387883712
I0403 16:46:41.742429  2692 layer_factory.hpp:77] Creating layer res4e_res4e_relu_0_split
I0403 16:46:41.742434  2692 net.cpp:103] Creating Layer res4e_res4e_relu_0_split
I0403 16:46:41.742436  2692 net.cpp:456] res4e_res4e_relu_0_split <- res4e
I0403 16:46:41.742440  2692 net.cpp:430] res4e_res4e_relu_0_split -> res4e_res4e_relu_0_split_0
I0403 16:46:41.742445  2692 net.cpp:430] res4e_res4e_relu_0_split -> res4e_res4e_relu_0_split_1
I0403 16:46:41.742478  2692 net.cpp:153] Setting up res4e_res4e_relu_0_split
I0403 16:46:41.742492  2692 net.cpp:160] Top shape: 16 1024 14 14 (3211264)
I0403 16:46:41.742496  2692 net.cpp:160] Top shape: 16 1024 14 14 (3211264)
I0403 16:46:41.742497  2692 net.cpp:168] Memory required for data: 3413573824
I0403 16:46:41.742499  2692 layer_factory.hpp:77] Creating layer res4f_branch2a
I0403 16:46:41.742506  2692 net.cpp:103] Creating Layer res4f_branch2a
I0403 16:46:41.742508  2692 net.cpp:456] res4f_branch2a <- res4e_res4e_relu_0_split_0
I0403 16:46:41.742513  2692 net.cpp:430] res4f_branch2a -> res4f_branch2a
I0403 16:46:41.743506  2692 net.cpp:153] Setting up res4f_branch2a
I0403 16:46:41.743516  2692 net.cpp:160] Top shape: 16 256 14 14 (802816)
I0403 16:46:41.743520  2692 net.cpp:168] Memory required for data: 3416785088
I0403 16:46:41.743526  2692 layer_factory.hpp:77] Creating layer bn4f_branch2a
I0403 16:46:41.743535  2692 net.cpp:103] Creating Layer bn4f_branch2a
I0403 16:46:41.743538  2692 net.cpp:456] bn4f_branch2a <- res4f_branch2a
I0403 16:46:41.743543  2692 net.cpp:417] bn4f_branch2a -> res4f_branch2a (in-place)
I0403 16:46:41.743722  2692 net.cpp:153] Setting up bn4f_branch2a
I0403 16:46:41.743729  2692 net.cpp:160] Top shape: 16 256 14 14 (802816)
I0403 16:46:41.743732  2692 net.cpp:168] Memory required for data: 3419996352
I0403 16:46:41.743737  2692 layer_factory.hpp:77] Creating layer scale4f_branch2a
I0403 16:46:41.743742  2692 net.cpp:103] Creating Layer scale4f_branch2a
I0403 16:46:41.743746  2692 net.cpp:456] scale4f_branch2a <- res4f_branch2a
I0403 16:46:41.743749  2692 net.cpp:417] scale4f_branch2a -> res4f_branch2a (in-place)
I0403 16:46:41.743782  2692 layer_factory.hpp:77] Creating layer scale4f_branch2a
I0403 16:46:41.743870  2692 net.cpp:153] Setting up scale4f_branch2a
I0403 16:46:41.743875  2692 net.cpp:160] Top shape: 16 256 14 14 (802816)
I0403 16:46:41.743877  2692 net.cpp:168] Memory required for data: 3423207616
I0403 16:46:41.743881  2692 layer_factory.hpp:77] Creating layer res4f_branch2a_relu
I0403 16:46:41.743885  2692 net.cpp:103] Creating Layer res4f_branch2a_relu
I0403 16:46:41.743887  2692 net.cpp:456] res4f_branch2a_relu <- res4f_branch2a
I0403 16:46:41.743891  2692 net.cpp:417] res4f_branch2a_relu -> res4f_branch2a (in-place)
I0403 16:46:41.744038  2692 net.cpp:153] Setting up res4f_branch2a_relu
I0403 16:46:41.744045  2692 net.cpp:160] Top shape: 16 256 14 14 (802816)
I0403 16:46:41.744047  2692 net.cpp:168] Memory required for data: 3426418880
I0403 16:46:41.744050  2692 layer_factory.hpp:77] Creating layer res4f_branch2b
I0403 16:46:41.744055  2692 net.cpp:103] Creating Layer res4f_branch2b
I0403 16:46:41.744058  2692 net.cpp:456] res4f_branch2b <- res4f_branch2a
I0403 16:46:41.744062  2692 net.cpp:430] res4f_branch2b -> res4f_branch2b
I0403 16:46:41.746068  2692 net.cpp:153] Setting up res4f_branch2b
I0403 16:46:41.746078  2692 net.cpp:160] Top shape: 16 256 14 14 (802816)
I0403 16:46:41.746081  2692 net.cpp:168] Memory required for data: 3429630144
I0403 16:46:41.746090  2692 layer_factory.hpp:77] Creating layer bn4f_branch2b
I0403 16:46:41.746100  2692 net.cpp:103] Creating Layer bn4f_branch2b
I0403 16:46:41.746104  2692 net.cpp:456] bn4f_branch2b <- res4f_branch2b
I0403 16:46:41.746110  2692 net.cpp:417] bn4f_branch2b -> res4f_branch2b (in-place)
I0403 16:46:41.746285  2692 net.cpp:153] Setting up bn4f_branch2b
I0403 16:46:41.746291  2692 net.cpp:160] Top shape: 16 256 14 14 (802816)
I0403 16:46:41.746292  2692 net.cpp:168] Memory required for data: 3432841408
I0403 16:46:41.746297  2692 layer_factory.hpp:77] Creating layer scale4f_branch2b
I0403 16:46:41.746304  2692 net.cpp:103] Creating Layer scale4f_branch2b
I0403 16:46:41.746306  2692 net.cpp:456] scale4f_branch2b <- res4f_branch2b
I0403 16:46:41.746309  2692 net.cpp:417] scale4f_branch2b -> res4f_branch2b (in-place)
I0403 16:46:41.746345  2692 layer_factory.hpp:77] Creating layer scale4f_branch2b
I0403 16:46:41.746435  2692 net.cpp:153] Setting up scale4f_branch2b
I0403 16:46:41.746441  2692 net.cpp:160] Top shape: 16 256 14 14 (802816)
I0403 16:46:41.746443  2692 net.cpp:168] Memory required for data: 3436052672
I0403 16:46:41.746456  2692 layer_factory.hpp:77] Creating layer res4f_branch2b_relu
I0403 16:46:41.746461  2692 net.cpp:103] Creating Layer res4f_branch2b_relu
I0403 16:46:41.746464  2692 net.cpp:456] res4f_branch2b_relu <- res4f_branch2b
I0403 16:46:41.746467  2692 net.cpp:417] res4f_branch2b_relu -> res4f_branch2b (in-place)
I0403 16:46:41.746919  2692 net.cpp:153] Setting up res4f_branch2b_relu
I0403 16:46:41.746928  2692 net.cpp:160] Top shape: 16 256 14 14 (802816)
I0403 16:46:41.746930  2692 net.cpp:168] Memory required for data: 3439263936
I0403 16:46:41.746933  2692 layer_factory.hpp:77] Creating layer res4f_branch2c
I0403 16:46:41.746939  2692 net.cpp:103] Creating Layer res4f_branch2c
I0403 16:46:41.746942  2692 net.cpp:456] res4f_branch2c <- res4f_branch2b
I0403 16:46:41.746948  2692 net.cpp:430] res4f_branch2c -> res4f_branch2c
I0403 16:46:41.748600  2692 net.cpp:153] Setting up res4f_branch2c
I0403 16:46:41.748611  2692 net.cpp:160] Top shape: 16 1024 14 14 (3211264)
I0403 16:46:41.748613  2692 net.cpp:168] Memory required for data: 3452108992
I0403 16:46:41.748617  2692 layer_factory.hpp:77] Creating layer bn4f_branch2c
I0403 16:46:41.748622  2692 net.cpp:103] Creating Layer bn4f_branch2c
I0403 16:46:41.748626  2692 net.cpp:456] bn4f_branch2c <- res4f_branch2c
I0403 16:46:41.748631  2692 net.cpp:417] bn4f_branch2c -> res4f_branch2c (in-place)
I0403 16:46:41.748802  2692 net.cpp:153] Setting up bn4f_branch2c
I0403 16:46:41.748807  2692 net.cpp:160] Top shape: 16 1024 14 14 (3211264)
I0403 16:46:41.748808  2692 net.cpp:168] Memory required for data: 3464954048
I0403 16:46:41.748833  2692 layer_factory.hpp:77] Creating layer scale4f_branch2c
I0403 16:46:41.748842  2692 net.cpp:103] Creating Layer scale4f_branch2c
I0403 16:46:41.748848  2692 net.cpp:456] scale4f_branch2c <- res4f_branch2c
I0403 16:46:41.748855  2692 net.cpp:417] scale4f_branch2c -> res4f_branch2c (in-place)
I0403 16:46:41.748913  2692 layer_factory.hpp:77] Creating layer scale4f_branch2c
I0403 16:46:41.749083  2692 net.cpp:153] Setting up scale4f_branch2c
I0403 16:46:41.749090  2692 net.cpp:160] Top shape: 16 1024 14 14 (3211264)
I0403 16:46:41.749094  2692 net.cpp:168] Memory required for data: 3477799104
I0403 16:46:41.749097  2692 layer_factory.hpp:77] Creating layer res4f
I0403 16:46:41.749102  2692 net.cpp:103] Creating Layer res4f
I0403 16:46:41.749105  2692 net.cpp:456] res4f <- res4e_res4e_relu_0_split_1
I0403 16:46:41.749109  2692 net.cpp:456] res4f <- res4f_branch2c
I0403 16:46:41.749112  2692 net.cpp:430] res4f -> res4f
I0403 16:46:41.749146  2692 net.cpp:153] Setting up res4f
I0403 16:46:41.749151  2692 net.cpp:160] Top shape: 16 1024 14 14 (3211264)
I0403 16:46:41.749153  2692 net.cpp:168] Memory required for data: 3490644160
I0403 16:46:41.749155  2692 layer_factory.hpp:77] Creating layer res4f_relu
I0403 16:46:41.749158  2692 net.cpp:103] Creating Layer res4f_relu
I0403 16:46:41.749161  2692 net.cpp:456] res4f_relu <- res4f
I0403 16:46:41.749164  2692 net.cpp:417] res4f_relu -> res4f (in-place)
I0403 16:46:41.749312  2692 net.cpp:153] Setting up res4f_relu
I0403 16:46:41.749320  2692 net.cpp:160] Top shape: 16 1024 14 14 (3211264)
I0403 16:46:41.749322  2692 net.cpp:168] Memory required for data: 3503489216
I0403 16:46:41.749325  2692 layer_factory.hpp:77] Creating layer res4f_res4f_relu_0_split
I0403 16:46:41.749330  2692 net.cpp:103] Creating Layer res4f_res4f_relu_0_split
I0403 16:46:41.749331  2692 net.cpp:456] res4f_res4f_relu_0_split <- res4f
I0403 16:46:41.749336  2692 net.cpp:430] res4f_res4f_relu_0_split -> res4f_res4f_relu_0_split_0
I0403 16:46:41.749342  2692 net.cpp:430] res4f_res4f_relu_0_split -> res4f_res4f_relu_0_split_1
I0403 16:46:41.749377  2692 net.cpp:153] Setting up res4f_res4f_relu_0_split
I0403 16:46:41.749382  2692 net.cpp:160] Top shape: 16 1024 14 14 (3211264)
I0403 16:46:41.749384  2692 net.cpp:160] Top shape: 16 1024 14 14 (3211264)
I0403 16:46:41.749387  2692 net.cpp:168] Memory required for data: 3529179328
I0403 16:46:41.749388  2692 layer_factory.hpp:77] Creating layer res5a_branch1
I0403 16:46:41.749402  2692 net.cpp:103] Creating Layer res5a_branch1
I0403 16:46:41.749405  2692 net.cpp:456] res5a_branch1 <- res4f_res4f_relu_0_split_0
I0403 16:46:41.749410  2692 net.cpp:430] res5a_branch1 -> res5a_branch1
I0403 16:46:41.753420  2692 net.cpp:153] Setting up res5a_branch1
I0403 16:46:41.753445  2692 net.cpp:160] Top shape: 16 2048 7 7 (1605632)
I0403 16:46:41.753448  2692 net.cpp:168] Memory required for data: 3535601856
I0403 16:46:41.753453  2692 layer_factory.hpp:77] Creating layer bn5a_branch1
I0403 16:46:41.753465  2692 net.cpp:103] Creating Layer bn5a_branch1
I0403 16:46:41.753470  2692 net.cpp:456] bn5a_branch1 <- res5a_branch1
I0403 16:46:41.753475  2692 net.cpp:417] bn5a_branch1 -> res5a_branch1 (in-place)
I0403 16:46:41.753661  2692 net.cpp:153] Setting up bn5a_branch1
I0403 16:46:41.753666  2692 net.cpp:160] Top shape: 16 2048 7 7 (1605632)
I0403 16:46:41.753669  2692 net.cpp:168] Memory required for data: 3542024384
I0403 16:46:41.753674  2692 layer_factory.hpp:77] Creating layer scale5a_branch1
I0403 16:46:41.753679  2692 net.cpp:103] Creating Layer scale5a_branch1
I0403 16:46:41.753681  2692 net.cpp:456] scale5a_branch1 <- res5a_branch1
I0403 16:46:41.753684  2692 net.cpp:417] scale5a_branch1 -> res5a_branch1 (in-place)
I0403 16:46:41.753720  2692 layer_factory.hpp:77] Creating layer scale5a_branch1
I0403 16:46:41.753818  2692 net.cpp:153] Setting up scale5a_branch1
I0403 16:46:41.753823  2692 net.cpp:160] Top shape: 16 2048 7 7 (1605632)
I0403 16:46:41.753826  2692 net.cpp:168] Memory required for data: 3548446912
I0403 16:46:41.753829  2692 layer_factory.hpp:77] Creating layer res5a_branch2a
I0403 16:46:41.753836  2692 net.cpp:103] Creating Layer res5a_branch2a
I0403 16:46:41.753839  2692 net.cpp:456] res5a_branch2a <- res4f_res4f_relu_0_split_1
I0403 16:46:41.753844  2692 net.cpp:430] res5a_branch2a -> res5a_branch2a
I0403 16:46:41.755471  2692 net.cpp:153] Setting up res5a_branch2a
I0403 16:46:41.755481  2692 net.cpp:160] Top shape: 16 512 7 7 (401408)
I0403 16:46:41.755484  2692 net.cpp:168] Memory required for data: 3550052544
I0403 16:46:41.755487  2692 layer_factory.hpp:77] Creating layer bn5a_branch2a
I0403 16:46:41.755492  2692 net.cpp:103] Creating Layer bn5a_branch2a
I0403 16:46:41.755494  2692 net.cpp:456] bn5a_branch2a <- res5a_branch2a
I0403 16:46:41.755499  2692 net.cpp:417] bn5a_branch2a -> res5a_branch2a (in-place)
I0403 16:46:41.755669  2692 net.cpp:153] Setting up bn5a_branch2a
I0403 16:46:41.755674  2692 net.cpp:160] Top shape: 16 512 7 7 (401408)
I0403 16:46:41.755676  2692 net.cpp:168] Memory required for data: 3551658176
I0403 16:46:41.755681  2692 layer_factory.hpp:77] Creating layer scale5a_branch2a
I0403 16:46:41.755686  2692 net.cpp:103] Creating Layer scale5a_branch2a
I0403 16:46:41.755687  2692 net.cpp:456] scale5a_branch2a <- res5a_branch2a
I0403 16:46:41.755692  2692 net.cpp:417] scale5a_branch2a -> res5a_branch2a (in-place)
I0403 16:46:41.755722  2692 layer_factory.hpp:77] Creating layer scale5a_branch2a
I0403 16:46:41.755867  2692 net.cpp:153] Setting up scale5a_branch2a
I0403 16:46:41.755874  2692 net.cpp:160] Top shape: 16 512 7 7 (401408)
I0403 16:46:41.755877  2692 net.cpp:168] Memory required for data: 3553263808
I0403 16:46:41.755880  2692 layer_factory.hpp:77] Creating layer res5a_branch2a_relu
I0403 16:46:41.755885  2692 net.cpp:103] Creating Layer res5a_branch2a_relu
I0403 16:46:41.755888  2692 net.cpp:456] res5a_branch2a_relu <- res5a_branch2a
I0403 16:46:41.755892  2692 net.cpp:417] res5a_branch2a_relu -> res5a_branch2a (in-place)
I0403 16:46:41.756042  2692 net.cpp:153] Setting up res5a_branch2a_relu
I0403 16:46:41.756048  2692 net.cpp:160] Top shape: 16 512 7 7 (401408)
I0403 16:46:41.756050  2692 net.cpp:168] Memory required for data: 3554869440
I0403 16:46:41.756052  2692 layer_factory.hpp:77] Creating layer res5a_branch2b
I0403 16:46:41.756058  2692 net.cpp:103] Creating Layer res5a_branch2b
I0403 16:46:41.756062  2692 net.cpp:456] res5a_branch2b <- res5a_branch2a
I0403 16:46:41.756065  2692 net.cpp:430] res5a_branch2b -> res5a_branch2b
I0403 16:46:41.760525  2692 net.cpp:153] Setting up res5a_branch2b
I0403 16:46:41.760546  2692 net.cpp:160] Top shape: 16 512 7 7 (401408)
I0403 16:46:41.760550  2692 net.cpp:168] Memory required for data: 3556475072
I0403 16:46:41.760555  2692 layer_factory.hpp:77] Creating layer bn5a_branch2b
I0403 16:46:41.760565  2692 net.cpp:103] Creating Layer bn5a_branch2b
I0403 16:46:41.760570  2692 net.cpp:456] bn5a_branch2b <- res5a_branch2b
I0403 16:46:41.760576  2692 net.cpp:417] bn5a_branch2b -> res5a_branch2b (in-place)
I0403 16:46:41.760758  2692 net.cpp:153] Setting up bn5a_branch2b
I0403 16:46:41.760763  2692 net.cpp:160] Top shape: 16 512 7 7 (401408)
I0403 16:46:41.760766  2692 net.cpp:168] Memory required for data: 3558080704
I0403 16:46:41.760771  2692 layer_factory.hpp:77] Creating layer scale5a_branch2b
I0403 16:46:41.760776  2692 net.cpp:103] Creating Layer scale5a_branch2b
I0403 16:46:41.760779  2692 net.cpp:456] scale5a_branch2b <- res5a_branch2b
I0403 16:46:41.760783  2692 net.cpp:417] scale5a_branch2b -> res5a_branch2b (in-place)
I0403 16:46:41.760819  2692 layer_factory.hpp:77] Creating layer scale5a_branch2b
I0403 16:46:41.760920  2692 net.cpp:153] Setting up scale5a_branch2b
I0403 16:46:41.760924  2692 net.cpp:160] Top shape: 16 512 7 7 (401408)
I0403 16:46:41.760926  2692 net.cpp:168] Memory required for data: 3559686336
I0403 16:46:41.760931  2692 layer_factory.hpp:77] Creating layer res5a_branch2b_relu
I0403 16:46:41.760936  2692 net.cpp:103] Creating Layer res5a_branch2b_relu
I0403 16:46:41.760938  2692 net.cpp:456] res5a_branch2b_relu <- res5a_branch2b
I0403 16:46:41.760942  2692 net.cpp:417] res5a_branch2b_relu -> res5a_branch2b (in-place)
I0403 16:46:41.761394  2692 net.cpp:153] Setting up res5a_branch2b_relu
I0403 16:46:41.761404  2692 net.cpp:160] Top shape: 16 512 7 7 (401408)
I0403 16:46:41.761407  2692 net.cpp:168] Memory required for data: 3561291968
I0403 16:46:41.761409  2692 layer_factory.hpp:77] Creating layer res5a_branch2c
I0403 16:46:41.761416  2692 net.cpp:103] Creating Layer res5a_branch2c
I0403 16:46:41.761420  2692 net.cpp:456] res5a_branch2c <- res5a_branch2b
I0403 16:46:41.761425  2692 net.cpp:430] res5a_branch2c -> res5a_branch2c
I0403 16:46:41.764133  2692 net.cpp:153] Setting up res5a_branch2c
I0403 16:46:41.764161  2692 net.cpp:160] Top shape: 16 2048 7 7 (1605632)
I0403 16:46:41.764164  2692 net.cpp:168] Memory required for data: 3567714496
I0403 16:46:41.764170  2692 layer_factory.hpp:77] Creating layer bn5a_branch2c
I0403 16:46:41.764179  2692 net.cpp:103] Creating Layer bn5a_branch2c
I0403 16:46:41.764194  2692 net.cpp:456] bn5a_branch2c <- res5a_branch2c
I0403 16:46:41.764199  2692 net.cpp:417] bn5a_branch2c -> res5a_branch2c (in-place)
I0403 16:46:41.764392  2692 net.cpp:153] Setting up bn5a_branch2c
I0403 16:46:41.764397  2692 net.cpp:160] Top shape: 16 2048 7 7 (1605632)
I0403 16:46:41.764400  2692 net.cpp:168] Memory required for data: 3574137024
I0403 16:46:41.764415  2692 layer_factory.hpp:77] Creating layer scale5a_branch2c
I0403 16:46:41.764420  2692 net.cpp:103] Creating Layer scale5a_branch2c
I0403 16:46:41.764432  2692 net.cpp:456] scale5a_branch2c <- res5a_branch2c
I0403 16:46:41.764436  2692 net.cpp:417] scale5a_branch2c -> res5a_branch2c (in-place)
I0403 16:46:41.764493  2692 layer_factory.hpp:77] Creating layer scale5a_branch2c
I0403 16:46:41.764612  2692 net.cpp:153] Setting up scale5a_branch2c
I0403 16:46:41.764617  2692 net.cpp:160] Top shape: 16 2048 7 7 (1605632)
I0403 16:46:41.764618  2692 net.cpp:168] Memory required for data: 3580559552
I0403 16:46:41.764622  2692 layer_factory.hpp:77] Creating layer res5a
I0403 16:46:41.764626  2692 net.cpp:103] Creating Layer res5a
I0403 16:46:41.764628  2692 net.cpp:456] res5a <- res5a_branch1
I0403 16:46:41.764633  2692 net.cpp:456] res5a <- res5a_branch2c
I0403 16:46:41.764647  2692 net.cpp:430] res5a -> res5a
I0403 16:46:41.764699  2692 net.cpp:153] Setting up res5a
I0403 16:46:41.764703  2692 net.cpp:160] Top shape: 16 2048 7 7 (1605632)
I0403 16:46:41.764705  2692 net.cpp:168] Memory required for data: 3586982080
I0403 16:46:41.764734  2692 layer_factory.hpp:77] Creating layer res5a_relu
I0403 16:46:41.764739  2692 net.cpp:103] Creating Layer res5a_relu
I0403 16:46:41.764740  2692 net.cpp:456] res5a_relu <- res5a
I0403 16:46:41.764744  2692 net.cpp:417] res5a_relu -> res5a (in-place)
I0403 16:46:41.764894  2692 net.cpp:153] Setting up res5a_relu
I0403 16:46:41.764901  2692 net.cpp:160] Top shape: 16 2048 7 7 (1605632)
I0403 16:46:41.764904  2692 net.cpp:168] Memory required for data: 3593404608
I0403 16:46:41.764906  2692 layer_factory.hpp:77] Creating layer res5a_res5a_relu_0_split
I0403 16:46:41.764910  2692 net.cpp:103] Creating Layer res5a_res5a_relu_0_split
I0403 16:46:41.764912  2692 net.cpp:456] res5a_res5a_relu_0_split <- res5a
I0403 16:46:41.764916  2692 net.cpp:430] res5a_res5a_relu_0_split -> res5a_res5a_relu_0_split_0
I0403 16:46:41.764921  2692 net.cpp:430] res5a_res5a_relu_0_split -> res5a_res5a_relu_0_split_1
I0403 16:46:41.764957  2692 net.cpp:153] Setting up res5a_res5a_relu_0_split
I0403 16:46:41.764962  2692 net.cpp:160] Top shape: 16 2048 7 7 (1605632)
I0403 16:46:41.764964  2692 net.cpp:160] Top shape: 16 2048 7 7 (1605632)
I0403 16:46:41.764966  2692 net.cpp:168] Memory required for data: 3606249664
I0403 16:46:41.764968  2692 layer_factory.hpp:77] Creating layer res5b_branch2a
I0403 16:46:41.764974  2692 net.cpp:103] Creating Layer res5b_branch2a
I0403 16:46:41.764977  2692 net.cpp:456] res5b_branch2a <- res5a_res5a_relu_0_split_0
I0403 16:46:41.764981  2692 net.cpp:430] res5b_branch2a -> res5b_branch2a
I0403 16:46:41.767283  2692 net.cpp:153] Setting up res5b_branch2a
I0403 16:46:41.767302  2692 net.cpp:160] Top shape: 16 512 7 7 (401408)
I0403 16:46:41.767303  2692 net.cpp:168] Memory required for data: 3607855296
I0403 16:46:41.767318  2692 layer_factory.hpp:77] Creating layer bn5b_branch2a
I0403 16:46:41.767326  2692 net.cpp:103] Creating Layer bn5b_branch2a
I0403 16:46:41.767331  2692 net.cpp:456] bn5b_branch2a <- res5b_branch2a
I0403 16:46:41.767335  2692 net.cpp:417] bn5b_branch2a -> res5b_branch2a (in-place)
I0403 16:46:41.767524  2692 net.cpp:153] Setting up bn5b_branch2a
I0403 16:46:41.767529  2692 net.cpp:160] Top shape: 16 512 7 7 (401408)
I0403 16:46:41.767531  2692 net.cpp:168] Memory required for data: 3609460928
I0403 16:46:41.767546  2692 layer_factory.hpp:77] Creating layer scale5b_branch2a
I0403 16:46:41.767552  2692 net.cpp:103] Creating Layer scale5b_branch2a
I0403 16:46:41.767555  2692 net.cpp:456] scale5b_branch2a <- res5b_branch2a
I0403 16:46:41.767558  2692 net.cpp:417] scale5b_branch2a -> res5b_branch2a (in-place)
I0403 16:46:41.767606  2692 layer_factory.hpp:77] Creating layer scale5b_branch2a
I0403 16:46:41.767724  2692 net.cpp:153] Setting up scale5b_branch2a
I0403 16:46:41.767729  2692 net.cpp:160] Top shape: 16 512 7 7 (401408)
I0403 16:46:41.767730  2692 net.cpp:168] Memory required for data: 3611066560
I0403 16:46:41.767733  2692 layer_factory.hpp:77] Creating layer res5b_branch2a_relu
I0403 16:46:41.767750  2692 net.cpp:103] Creating Layer res5b_branch2a_relu
I0403 16:46:41.767752  2692 net.cpp:456] res5b_branch2a_relu <- res5b_branch2a
I0403 16:46:41.767755  2692 net.cpp:417] res5b_branch2a_relu -> res5b_branch2a (in-place)
I0403 16:46:41.767911  2692 net.cpp:153] Setting up res5b_branch2a_relu
I0403 16:46:41.767918  2692 net.cpp:160] Top shape: 16 512 7 7 (401408)
I0403 16:46:41.767921  2692 net.cpp:168] Memory required for data: 3612672192
I0403 16:46:41.767923  2692 layer_factory.hpp:77] Creating layer res5b_branch2b
I0403 16:46:41.767938  2692 net.cpp:103] Creating Layer res5b_branch2b
I0403 16:46:41.767941  2692 net.cpp:456] res5b_branch2b <- res5b_branch2a
I0403 16:46:41.767946  2692 net.cpp:430] res5b_branch2b -> res5b_branch2b
I0403 16:46:41.772032  2692 net.cpp:153] Setting up res5b_branch2b
I0403 16:46:41.772061  2692 net.cpp:160] Top shape: 16 512 7 7 (401408)
I0403 16:46:41.772064  2692 net.cpp:168] Memory required for data: 3614277824
I0403 16:46:41.772070  2692 layer_factory.hpp:77] Creating layer bn5b_branch2b
I0403 16:46:41.772107  2692 net.cpp:103] Creating Layer bn5b_branch2b
I0403 16:46:41.772112  2692 net.cpp:456] bn5b_branch2b <- res5b_branch2b
I0403 16:46:41.772119  2692 net.cpp:417] bn5b_branch2b -> res5b_branch2b (in-place)
I0403 16:46:41.772318  2692 net.cpp:153] Setting up bn5b_branch2b
I0403 16:46:41.772322  2692 net.cpp:160] Top shape: 16 512 7 7 (401408)
I0403 16:46:41.772325  2692 net.cpp:168] Memory required for data: 3615883456
I0403 16:46:41.772339  2692 layer_factory.hpp:77] Creating layer scale5b_branch2b
I0403 16:46:41.772344  2692 net.cpp:103] Creating Layer scale5b_branch2b
I0403 16:46:41.772357  2692 net.cpp:456] scale5b_branch2b <- res5b_branch2b
I0403 16:46:41.772361  2692 net.cpp:417] scale5b_branch2b -> res5b_branch2b (in-place)
I0403 16:46:41.772416  2692 layer_factory.hpp:77] Creating layer scale5b_branch2b
I0403 16:46:41.772547  2692 net.cpp:153] Setting up scale5b_branch2b
I0403 16:46:41.772552  2692 net.cpp:160] Top shape: 16 512 7 7 (401408)
I0403 16:46:41.772554  2692 net.cpp:168] Memory required for data: 3617489088
I0403 16:46:41.772557  2692 layer_factory.hpp:77] Creating layer res5b_branch2b_relu
I0403 16:46:41.772572  2692 net.cpp:103] Creating Layer res5b_branch2b_relu
I0403 16:46:41.772575  2692 net.cpp:456] res5b_branch2b_relu <- res5b_branch2b
I0403 16:46:41.772578  2692 net.cpp:417] res5b_branch2b_relu -> res5b_branch2b (in-place)
I0403 16:46:41.773039  2692 net.cpp:153] Setting up res5b_branch2b_relu
I0403 16:46:41.773048  2692 net.cpp:160] Top shape: 16 512 7 7 (401408)
I0403 16:46:41.773052  2692 net.cpp:168] Memory required for data: 3619094720
I0403 16:46:41.773064  2692 layer_factory.hpp:77] Creating layer res5b_branch2c
I0403 16:46:41.773072  2692 net.cpp:103] Creating Layer res5b_branch2c
I0403 16:46:41.773074  2692 net.cpp:456] res5b_branch2c <- res5b_branch2b
I0403 16:46:41.773079  2692 net.cpp:430] res5b_branch2c -> res5b_branch2c
I0403 16:46:41.775300  2692 net.cpp:153] Setting up res5b_branch2c
I0403 16:46:41.775315  2692 net.cpp:160] Top shape: 16 2048 7 7 (1605632)
I0403 16:46:41.775316  2692 net.cpp:168] Memory required for data: 3625517248
I0403 16:46:41.775321  2692 layer_factory.hpp:77] Creating layer bn5b_branch2c
I0403 16:46:41.775339  2692 net.cpp:103] Creating Layer bn5b_branch2c
I0403 16:46:41.775343  2692 net.cpp:456] bn5b_branch2c <- res5b_branch2c
I0403 16:46:41.775348  2692 net.cpp:417] bn5b_branch2c -> res5b_branch2c (in-place)
I0403 16:46:41.775540  2692 net.cpp:153] Setting up bn5b_branch2c
I0403 16:46:41.775545  2692 net.cpp:160] Top shape: 16 2048 7 7 (1605632)
I0403 16:46:41.775547  2692 net.cpp:168] Memory required for data: 3631939776
I0403 16:46:41.775552  2692 layer_factory.hpp:77] Creating layer scale5b_branch2c
I0403 16:46:41.775566  2692 net.cpp:103] Creating Layer scale5b_branch2c
I0403 16:46:41.775569  2692 net.cpp:456] scale5b_branch2c <- res5b_branch2c
I0403 16:46:41.775573  2692 net.cpp:417] scale5b_branch2c -> res5b_branch2c (in-place)
I0403 16:46:41.775619  2692 layer_factory.hpp:77] Creating layer scale5b_branch2c
I0403 16:46:41.775743  2692 net.cpp:153] Setting up scale5b_branch2c
I0403 16:46:41.775748  2692 net.cpp:160] Top shape: 16 2048 7 7 (1605632)
I0403 16:46:41.775750  2692 net.cpp:168] Memory required for data: 3638362304
I0403 16:46:41.775753  2692 layer_factory.hpp:77] Creating layer res5b
I0403 16:46:41.775768  2692 net.cpp:103] Creating Layer res5b
I0403 16:46:41.775773  2692 net.cpp:456] res5b <- res5a_res5a_relu_0_split_1
I0403 16:46:41.775774  2692 net.cpp:456] res5b <- res5b_branch2c
I0403 16:46:41.775779  2692 net.cpp:430] res5b -> res5b
I0403 16:46:41.775822  2692 net.cpp:153] Setting up res5b
I0403 16:46:41.775826  2692 net.cpp:160] Top shape: 16 2048 7 7 (1605632)
I0403 16:46:41.775827  2692 net.cpp:168] Memory required for data: 3644784832
I0403 16:46:41.775830  2692 layer_factory.hpp:77] Creating layer res5b_relu
I0403 16:46:41.775842  2692 net.cpp:103] Creating Layer res5b_relu
I0403 16:46:41.775846  2692 net.cpp:456] res5b_relu <- res5b
I0403 16:46:41.775848  2692 net.cpp:417] res5b_relu -> res5b (in-place)
I0403 16:46:41.776015  2692 net.cpp:153] Setting up res5b_relu
I0403 16:46:41.776022  2692 net.cpp:160] Top shape: 16 2048 7 7 (1605632)
I0403 16:46:41.776024  2692 net.cpp:168] Memory required for data: 3651207360
I0403 16:46:41.776026  2692 layer_factory.hpp:77] Creating layer res5b_res5b_relu_0_split
I0403 16:46:41.776041  2692 net.cpp:103] Creating Layer res5b_res5b_relu_0_split
I0403 16:46:41.776043  2692 net.cpp:456] res5b_res5b_relu_0_split <- res5b
I0403 16:46:41.776047  2692 net.cpp:430] res5b_res5b_relu_0_split -> res5b_res5b_relu_0_split_0
I0403 16:46:41.776051  2692 net.cpp:430] res5b_res5b_relu_0_split -> res5b_res5b_relu_0_split_1
I0403 16:46:41.776087  2692 net.cpp:153] Setting up res5b_res5b_relu_0_split
I0403 16:46:41.776103  2692 net.cpp:160] Top shape: 16 2048 7 7 (1605632)
I0403 16:46:41.776104  2692 net.cpp:160] Top shape: 16 2048 7 7 (1605632)
I0403 16:46:41.776106  2692 net.cpp:168] Memory required for data: 3664052416
I0403 16:46:41.776108  2692 layer_factory.hpp:77] Creating layer res5c_branch2a
I0403 16:46:41.776124  2692 net.cpp:103] Creating Layer res5c_branch2a
I0403 16:46:41.776126  2692 net.cpp:456] res5c_branch2a <- res5b_res5b_relu_0_split_0
I0403 16:46:41.776131  2692 net.cpp:430] res5c_branch2a -> res5c_branch2a
I0403 16:46:41.778442  2692 net.cpp:153] Setting up res5c_branch2a
I0403 16:46:41.778460  2692 net.cpp:160] Top shape: 16 512 7 7 (401408)
I0403 16:46:41.778462  2692 net.cpp:168] Memory required for data: 3665658048
I0403 16:46:41.778467  2692 layer_factory.hpp:77] Creating layer bn5c_branch2a
I0403 16:46:41.778476  2692 net.cpp:103] Creating Layer bn5c_branch2a
I0403 16:46:41.778481  2692 net.cpp:456] bn5c_branch2a <- res5c_branch2a
I0403 16:46:41.778486  2692 net.cpp:417] bn5c_branch2a -> res5c_branch2a (in-place)
I0403 16:46:41.778672  2692 net.cpp:153] Setting up bn5c_branch2a
I0403 16:46:41.778677  2692 net.cpp:160] Top shape: 16 512 7 7 (401408)
I0403 16:46:41.778679  2692 net.cpp:168] Memory required for data: 3667263680
I0403 16:46:41.778683  2692 layer_factory.hpp:77] Creating layer scale5c_branch2a
I0403 16:46:41.778690  2692 net.cpp:103] Creating Layer scale5c_branch2a
I0403 16:46:41.778693  2692 net.cpp:456] scale5c_branch2a <- res5c_branch2a
I0403 16:46:41.778697  2692 net.cpp:417] scale5c_branch2a -> res5c_branch2a (in-place)
I0403 16:46:41.778733  2692 layer_factory.hpp:77] Creating layer scale5c_branch2a
I0403 16:46:41.778843  2692 net.cpp:153] Setting up scale5c_branch2a
I0403 16:46:41.778848  2692 net.cpp:160] Top shape: 16 512 7 7 (401408)
I0403 16:46:41.778851  2692 net.cpp:168] Memory required for data: 3668869312
I0403 16:46:41.778854  2692 layer_factory.hpp:77] Creating layer res5c_branch2a_relu
I0403 16:46:41.778870  2692 net.cpp:103] Creating Layer res5c_branch2a_relu
I0403 16:46:41.778873  2692 net.cpp:456] res5c_branch2a_relu <- res5c_branch2a
I0403 16:46:41.778877  2692 net.cpp:417] res5c_branch2a_relu -> res5c_branch2a (in-place)
I0403 16:46:41.779031  2692 net.cpp:153] Setting up res5c_branch2a_relu
I0403 16:46:41.779037  2692 net.cpp:160] Top shape: 16 512 7 7 (401408)
I0403 16:46:41.779040  2692 net.cpp:168] Memory required for data: 3670474944
I0403 16:46:41.779042  2692 layer_factory.hpp:77] Creating layer res5c_branch2b
I0403 16:46:41.779058  2692 net.cpp:103] Creating Layer res5c_branch2b
I0403 16:46:41.779062  2692 net.cpp:456] res5c_branch2b <- res5c_branch2a
I0403 16:46:41.779065  2692 net.cpp:430] res5c_branch2b -> res5c_branch2b
I0403 16:46:41.783138  2692 net.cpp:153] Setting up res5c_branch2b
I0403 16:46:41.783159  2692 net.cpp:160] Top shape: 16 512 7 7 (401408)
I0403 16:46:41.783160  2692 net.cpp:168] Memory required for data: 3672080576
I0403 16:46:41.783176  2692 layer_factory.hpp:77] Creating layer bn5c_branch2b
I0403 16:46:41.783187  2692 net.cpp:103] Creating Layer bn5c_branch2b
I0403 16:46:41.783192  2692 net.cpp:456] bn5c_branch2b <- res5c_branch2b
I0403 16:46:41.783197  2692 net.cpp:417] bn5c_branch2b -> res5c_branch2b (in-place)
I0403 16:46:41.783392  2692 net.cpp:153] Setting up bn5c_branch2b
I0403 16:46:41.783396  2692 net.cpp:160] Top shape: 16 512 7 7 (401408)
I0403 16:46:41.783419  2692 net.cpp:168] Memory required for data: 3673686208
I0403 16:46:41.783424  2692 layer_factory.hpp:77] Creating layer scale5c_branch2b
I0403 16:46:41.783430  2692 net.cpp:103] Creating Layer scale5c_branch2b
I0403 16:46:41.783434  2692 net.cpp:456] scale5c_branch2b <- res5c_branch2b
I0403 16:46:41.783437  2692 net.cpp:417] scale5c_branch2b -> res5c_branch2b (in-place)
I0403 16:46:41.783488  2692 layer_factory.hpp:77] Creating layer scale5c_branch2b
I0403 16:46:41.783607  2692 net.cpp:153] Setting up scale5c_branch2b
I0403 16:46:41.783613  2692 net.cpp:160] Top shape: 16 512 7 7 (401408)
I0403 16:46:41.783615  2692 net.cpp:168] Memory required for data: 3675291840
I0403 16:46:41.783618  2692 layer_factory.hpp:77] Creating layer res5c_branch2b_relu
I0403 16:46:41.783633  2692 net.cpp:103] Creating Layer res5c_branch2b_relu
I0403 16:46:41.783637  2692 net.cpp:456] res5c_branch2b_relu <- res5c_branch2b
I0403 16:46:41.783639  2692 net.cpp:417] res5c_branch2b_relu -> res5c_branch2b (in-place)
I0403 16:46:41.783795  2692 net.cpp:153] Setting up res5c_branch2b_relu
I0403 16:46:41.783802  2692 net.cpp:160] Top shape: 16 512 7 7 (401408)
I0403 16:46:41.783803  2692 net.cpp:168] Memory required for data: 3676897472
I0403 16:46:41.783805  2692 layer_factory.hpp:77] Creating layer res5c_branch2c
I0403 16:46:41.783820  2692 net.cpp:103] Creating Layer res5c_branch2c
I0403 16:46:41.783823  2692 net.cpp:456] res5c_branch2c <- res5c_branch2b
I0403 16:46:41.783828  2692 net.cpp:430] res5c_branch2c -> res5c_branch2c
I0403 16:46:41.786005  2692 net.cpp:153] Setting up res5c_branch2c
I0403 16:46:41.786021  2692 net.cpp:160] Top shape: 16 2048 7 7 (1605632)
I0403 16:46:41.786023  2692 net.cpp:168] Memory required for data: 3683320000
I0403 16:46:41.786028  2692 layer_factory.hpp:77] Creating layer bn5c_branch2c
I0403 16:46:41.786046  2692 net.cpp:103] Creating Layer bn5c_branch2c
I0403 16:46:41.786051  2692 net.cpp:456] bn5c_branch2c <- res5c_branch2c
I0403 16:46:41.786056  2692 net.cpp:417] bn5c_branch2c -> res5c_branch2c (in-place)
I0403 16:46:41.786283  2692 net.cpp:153] Setting up bn5c_branch2c
I0403 16:46:41.786289  2692 net.cpp:160] Top shape: 16 2048 7 7 (1605632)
I0403 16:46:41.786290  2692 net.cpp:168] Memory required for data: 3689742528
I0403 16:46:41.786295  2692 layer_factory.hpp:77] Creating layer scale5c_branch2c
I0403 16:46:41.786312  2692 net.cpp:103] Creating Layer scale5c_branch2c
I0403 16:46:41.786315  2692 net.cpp:456] scale5c_branch2c <- res5c_branch2c
I0403 16:46:41.786319  2692 net.cpp:417] scale5c_branch2c -> res5c_branch2c (in-place)
I0403 16:46:41.786370  2692 layer_factory.hpp:77] Creating layer scale5c_branch2c
I0403 16:46:41.786496  2692 net.cpp:153] Setting up scale5c_branch2c
I0403 16:46:41.786501  2692 net.cpp:160] Top shape: 16 2048 7 7 (1605632)
I0403 16:46:41.786504  2692 net.cpp:168] Memory required for data: 3696165056
I0403 16:46:41.786507  2692 layer_factory.hpp:77] Creating layer res5c
I0403 16:46:41.786525  2692 net.cpp:103] Creating Layer res5c
I0403 16:46:41.786527  2692 net.cpp:456] res5c <- res5b_res5b_relu_0_split_1
I0403 16:46:41.786530  2692 net.cpp:456] res5c <- res5c_branch2c
I0403 16:46:41.786535  2692 net.cpp:430] res5c -> res5c
I0403 16:46:41.786578  2692 net.cpp:153] Setting up res5c
I0403 16:46:41.786583  2692 net.cpp:160] Top shape: 16 2048 7 7 (1605632)
I0403 16:46:41.786584  2692 net.cpp:168] Memory required for data: 3702587584
I0403 16:46:41.786586  2692 layer_factory.hpp:77] Creating layer res5c_relu
I0403 16:46:41.786600  2692 net.cpp:103] Creating Layer res5c_relu
I0403 16:46:41.786602  2692 net.cpp:456] res5c_relu <- res5c
I0403 16:46:41.786605  2692 net.cpp:417] res5c_relu -> res5c (in-place)
I0403 16:46:41.787125  2692 net.cpp:153] Setting up res5c_relu
I0403 16:46:41.787134  2692 net.cpp:160] Top shape: 16 2048 7 7 (1605632)
I0403 16:46:41.787137  2692 net.cpp:168] Memory required for data: 3709010112
I0403 16:46:41.787149  2692 layer_factory.hpp:77] Creating layer pool5
I0403 16:46:41.787155  2692 net.cpp:103] Creating Layer pool5
I0403 16:46:41.787168  2692 net.cpp:456] pool5 <- res5c
I0403 16:46:41.787174  2692 net.cpp:430] pool5 -> pool5
I0403 16:46:41.787394  2692 net.cpp:153] Setting up pool5
I0403 16:46:41.787400  2692 net.cpp:160] Top shape: 16 2048 1 1 (32768)
I0403 16:46:41.787403  2692 net.cpp:168] Memory required for data: 3709141184
I0403 16:46:41.787405  2692 layer_factory.hpp:77] Creating layer pool5/dropout
I0403 16:46:41.787420  2692 net.cpp:103] Creating Layer pool5/dropout
I0403 16:46:41.787423  2692 net.cpp:456] pool5/dropout <- pool5
I0403 16:46:41.787426  2692 net.cpp:417] pool5/dropout -> pool5 (in-place)
I0403 16:46:41.787451  2692 net.cpp:153] Setting up pool5/dropout
I0403 16:46:41.787466  2692 net.cpp:160] Top shape: 16 2048 1 1 (32768)
I0403 16:46:41.787467  2692 net.cpp:168] Memory required for data: 3709272256
I0403 16:46:41.787469  2692 layer_factory.hpp:77] Creating layer fc10
I0403 16:46:41.787483  2692 net.cpp:103] Creating Layer fc10
I0403 16:46:41.787487  2692 net.cpp:456] fc10 <- pool5
I0403 16:46:41.787490  2692 net.cpp:430] fc10 -> fc10
I0403 16:46:41.787744  2692 net.cpp:153] Setting up fc10
I0403 16:46:41.787750  2692 net.cpp:160] Top shape: 16 10 (160)
I0403 16:46:41.787751  2692 net.cpp:168] Memory required for data: 3709272896
I0403 16:46:41.787765  2692 layer_factory.hpp:77] Creating layer fc10_fc10_0_split
I0403 16:46:41.787770  2692 net.cpp:103] Creating Layer fc10_fc10_0_split
I0403 16:46:41.787773  2692 net.cpp:456] fc10_fc10_0_split <- fc10
I0403 16:46:41.787776  2692 net.cpp:430] fc10_fc10_0_split -> fc10_fc10_0_split_0
I0403 16:46:41.787781  2692 net.cpp:430] fc10_fc10_0_split -> fc10_fc10_0_split_1
I0403 16:46:41.787822  2692 net.cpp:153] Setting up fc10_fc10_0_split
I0403 16:46:41.787827  2692 net.cpp:160] Top shape: 16 10 (160)
I0403 16:46:41.787828  2692 net.cpp:160] Top shape: 16 10 (160)
I0403 16:46:41.787830  2692 net.cpp:168] Memory required for data: 3709274176
I0403 16:46:41.787842  2692 layer_factory.hpp:77] Creating layer accuracy
I0403 16:46:41.787845  2692 net.cpp:103] Creating Layer accuracy
I0403 16:46:41.787847  2692 net.cpp:456] accuracy <- fc10_fc10_0_split_0
I0403 16:46:41.787850  2692 net.cpp:456] accuracy <- label_data_1_split_0
I0403 16:46:41.787854  2692 net.cpp:430] accuracy -> accuracy
…
