…
  type: "ReidData"
  top: "data"
  top: "label"
  include {
    phase: TRAIN
  }
  transform_param {
    mirror: true
    crop_size: 224
    mean_value: 102.691
    mean_value: 128.77
    mean_value: 131.293
  }
  reid_data_param {
    source: "data/apple_disease/train.txt"
    batch_size: 2
    new_height: 256
    new_width: 256
    pos_fraction: 1
    neg_fraction: 1
    pos_limit: 1
    neg_limit: 8
    pos_factor: 1
    neg_factor: 1.01
    root_folder: "/media/agwang/\346\226\260\345\212\240\345\215\267/DataSets/Competitions/AppleDiseases/"
  }
}
layer {
  name: "conv1_1"
  type: "Convolution"
  bottom: "data"
  top: "conv1_1"
  param {
    lr_mult: 0
  }
  param {
    lr_mult: 0
  }
  convolution_param {
    num_output: 64
    pad: 1
    kernel_size: 3
    weight_filler {
      type: "xavier"
    }
  }
}
layer {
  name: "relu1_1"
  type: "ReLU"
  bottom: "conv1_1"
  top: "conv1_1"
}
layer {
  name: "conv1_2"
  type: "Convolution"
  bottom: "conv1_1"
  top: "conv1_2"
  param {
    lr_mult: 0
  }
  param {
    lr_mult: 0
  }
  convolution_param {
    num_output: 64
    pad: 1
    kernel_size: 3
    weight_filler {
      type: "xavier"
    }
  }
}
layer {
  name: "relu1_2"
  type: "ReLU"
  bottom: "conv1_2"
  top: "conv1_2"
}
layer {
  name: "pool1"
  type: "Pooling"
  bottom: "conv1_2"
  top: "pool1"
  pooling_param {
    pool: MAX
    kernel_size: 2
    stride: 2
  }
}
layer {
  name: "conv2_1"
  type: "Convolution"
  bottom: "pool1"
  top: "conv2_1"
  param {
    lr_mult: 0
  }
  param {
    lr_mult: 0
  }
  convolution_param {
    num_output: 128
    pad: 1
    kernel_size: 3
    weight_filler {
      type: "xavier"
    }
  }
}
layer {
  name: "relu2_1"
  type: "ReLU"
  bottom: "conv2_1"
  top: "conv2_1"
}
layer {
  name: "conv2_2"
  type: "Convolution"
  bottom: "conv2_1"
  top: "conv2_2"
  param {
    lr_mult: 0
  }
  param {
    lr_mult: 0
  }
  convolution_param {
    num_output: 128
    pad: 1
    kernel_size: 3
    weight_filler {
      type: "xavier"
    }
  }
}
layer {
  name: "relu2_2"
  type: "ReLU"
  bottom: "conv2_2"
  top: "conv2_2"
}
layer {
  name: "pool2"
  type: "Pooling"
  bottom: "conv2_2"
  top: "pool2"
  pooling_param {
    pool: MAX
    kernel_size: 2
    stride: 2
  }
}
layer {
  name: "conv3_1"
  type: "Convolution"
  bottom: "pool2"
  top: "conv3_1"
  convolution_param {
    num_output: 256
    pad: 1
    kernel_size: 3
    weight_filler {
      type: "xavier"
    }
  }
}
layer {
  name: "relu3_1"
  type: "ReLU"
  bottom: "conv3_1"
  top: "conv3_1"
}
layer {
  name: "conv3_2"
  type: "Convolution"
  bottom: "conv3_1"
  top: "conv3_2"
  convolution_param {
    num_output: 256
    pad: 1
    kernel_size: 3
    weight_filler {
      type: "xavier"
    }
  }
}
layer {
  name: "relu3_2"
  type: "ReLU"
  bottom: "conv3_2"
  top: "conv3_2"
}
layer {
  name: "conv3_3"
  type: "Convolution"
  bottom: "conv3_2"
  top: "conv3_3"
  convolution_param {
    num_output: 256
    pad: 1
    kernel_size: 3
    weight_filler {
      type: "xavier"
    }
  }
}
layer {
  name: "relu3_3"
  type: "ReLU"
  bottom: "conv3_3"
  top: "conv3_3"
}
layer {
  name: "pool3"
  type: "Pooling"
  bottom: "conv3_3"
  top: "pool3"
  pooling_param {
    pool: MAX
    kernel_size: 2
    stride: 2
  }
}
layer {
  name: "conv4_1"
  type: "Convolution"
  bottom: "pool3"
  top: "conv4_1"
  convolution_param {
    num_output: 512
    pad: 1
    kernel_size: 3
    weight_filler {
      type: "xavier"
    }
  }
}
layer {
  name: "relu4_1"
  type: "ReLU"
  bottom: "conv4_1"
  top: "conv4_1"
}
layer {
  name: "conv4_2"
  type: "Convolution"
  bottom: "conv4_1"
  top: "conv4_2"
  convolution_param {
    num_output: 512
    pad: 1
    kernel_size: 3
    weight_filler {
      type: "xavier"
    }
  }
}
layer {
  name: "relu4_2"
  type: "ReLU"
  bottom: "conv4_2"
  top: "conv4_2"
}
layer {
  name: "conv4_3"
  type: "Convolution"
  bottom: "conv4_2"
  top: "conv4_3"
  convolution_param {
    num_output: 512
    pad: 1
    kernel_size: 3
    weight_filler {
      type: "xavier"
    }
  }
}
layer {
  name: "relu4_3"
  type: "ReLU"
  bottom: "conv4_3"
  top: "conv4_3"
}
layer {
  name: "pool4"
  type: "Pooling"
  bottom: "conv4_3"
  top: "pool4"
  pooling_param {
    pool: MAX
    kernel_size: 2
    stride: 2
  }
}
layer {
  name: "conv5_1"
  type: "Convolution"
  bottom: "pool4"
  top: "conv5_1"
  convolution_param {
    num_output: 512
    pad: 1
    kernel_size: 3
    weight_filler {
      type: "xavier"
    }
  }
}
layer {
  name: "relu5_1"
  type: "ReLU"
  bottom: "conv5_1"
  top: "conv5_1"
}
layer {
  name: "conv5_2"
  type: "Convolution"
  bottom: "conv5_1"
  top: "conv5_2"
  convolution_param {
    num_output: 512
    pad: 1
    kernel_size: 3
    weight_filler {
      type: "xavier"
    }
  }
}
layer {
  name: "relu5_2"
  type: "ReLU"
  bottom: "conv5_2"
  top: "conv5_2"
}
layer {
  name: "conv5_3"
  type: "Convolution"
  bottom: "conv5_2"
  top: "conv5_3"
  convolution_param {
    num_output: 512
    pad: 1
    kernel_size: 3
    weight_filler {
      type: "xavier"
    }
  }
}
layer {
  name: "relu5_3"
  type: "ReLU"
  bottom: "conv5_3"
  top: "conv5_3"
}
layer {
  name: "pool5"
  type: "Pooling"
  bottom: "conv5_3"
  top: "pool5"
  pooling_param {
    pool: MAX
    kernel_size: 2
    stride: 2
  }
}
layer {
  name: "fc6"
  type: "InnerProduct"
  bottom: "pool5"
  top: "fc6"
  inner_product_param {
    num_output: 4096
    weight_filler {
      type: "gaussian"
      std: 0.01
    }
  }
}
layer {
  name: "relu6"
  type: "ReLU"
  bottom: "fc6"
  top: "fc6"
}
layer {
  name: "drop6"
  type: "Dropout"
  bottom: "fc6"
  top: "fc6"
  dropout_param {
    dropout_ratio: 0.6
  }
}
layer {
  name: "fc7"
  type: "InnerProduct"
  bottom: "fc6"
  top: "fc7"
  inner_product_param {
    num_output: 4096
    weight_filler {
      type: "gaussian"
      std: 0.01
    }
  }
}
layer {
  name: "relu7"
  type: "ReLU"
  bottom: "fc7"
  top: "fc7"
}
layer {
  name: "drop7"
  type: "Dropout"
  bottom: "fc7"
  top: "fc7"
  dropout_param {
    dropout_ratio: 0.6
  }
}
layer {
  name: "fc8-1"
  type: "InnerProduct"
  bottom: "fc7"
  top: "fc8-1"
  inner_product_param {
    num_output: 9
    weight_filler {
      type: "gaussian"
      std: 0.01
    }
  }
}
layer {
  name: "euclidean"
  type: "PairEuclidean"
  bottom: "fc7"
  bottom: "label"
  top: "euclidean"
  top: "label_dif"
}
layer {
  name: "fc8-1_dif"
  type: "InnerProduct"
  bottom: "euclidean"
  top: "fc8-1_dif"
  inner_product_param {
    num_output: 2
    weight_filler {
      type: "gaussian"
      std: 0.01
    }
  }
}
layer {
  name: "loss"
  type: "SoftmaxWithLoss"
  bottom: "fc8-1"
  bottom: "label"
  top: "loss"
  loss_weight: 0.5
  propagate_down: true
  propagate_down: false
}
layer {
  name: "loss_dif"
  type: "SoftmaxWithLoss"
  bottom: "fc8-1_dif"
  bottom: "label_dif"
  top: "loss_dif"
  loss_weight: 0.2
  propagate_down: true
  propagate_down: false
}
I1218 21:23:12.302292  4382 layer_factory.hpp:77] Creating layer data
I1218 21:23:12.302326  4382 net.cpp:100] Creating Layer data
I1218 21:23:12.302333  4382 net.cpp:408] data -> data
I1218 21:23:12.302353  4382 net.cpp:408] data -> label
I1218 21:23:12.302659  4382 reid_data_layer.cpp:42] Opening file data/apple_disease/train.txt
I1218 21:23:12.303187  4382 reid_data_layer.cpp:68] A total of 2212 images. Label : [0, 8]
I1218 21:23:12.303196  4382 reid_data_layer.cpp:69] A total of 9 persons
I1218 21:23:37.694948  4382 reid_data_layer.cpp:104] output data size: 4,3,224,224
I1218 21:23:37.695029  4382 reid_data_layer.cpp:119] output label size : 4 (4)
I1218 21:23:37.721204  4382 net.cpp:150] Setting up data
I1218 21:23:37.721230  4382 net.cpp:157] Top shape: 4 3 224 224 (602112)
I1218 21:23:37.721235  4382 net.cpp:157] Top shape: 4 (4)
I1218 21:23:37.721237  4382 net.cpp:165] Memory required for data: 2408464
I1218 21:23:37.721243  4382 layer_factory.hpp:77] Creating layer label_data_1_split
I1218 21:23:37.721256  4382 net.cpp:100] Creating Layer label_data_1_split
I1218 21:23:37.721261  4382 net.cpp:434] label_data_1_split <- label
I1218 21:23:37.721271  4382 net.cpp:408] label_data_1_split -> label_data_1_split_0
I1218 21:23:37.721278  4382 net.cpp:408] label_data_1_split -> label_data_1_split_1
I1218 21:23:37.721318  4382 net.cpp:150] Setting up label_data_1_split
I1218 21:23:37.721323  4382 net.cpp:157] Top shape: 4 (4)
I1218 21:23:37.721325  4382 net.cpp:157] Top shape: 4 (4)
I1218 21:23:37.721328  4382 net.cpp:165] Memory required for data: 2408496
I1218 21:23:37.721330  4382 layer_factory.hpp:77] Creating layer conv1_1
I1218 21:23:37.721343  4382 net.cpp:100] Creating Layer conv1_1
I1218 21:23:37.721345  4382 net.cpp:434] conv1_1 <- data
I1218 21:23:37.721349  4382 net.cpp:408] conv1_1 -> conv1_1
I1218 21:23:37.868018  4382 net.cpp:150] Setting up conv1_1
I1218 21:23:37.868055  4382 net.cpp:157] Top shape: 4 64 224 224 (12845056)
I1218 21:23:37.868058  4382 net.cpp:165] Memory required for data: 53788720
I1218 21:23:37.868072  4382 layer_factory.hpp:77] Creating layer relu1_1
I1218 21:23:37.868079  4382 net.cpp:100] Creating Layer relu1_1
I1218 21:23:37.868083  4382 net.cpp:434] relu1_1 <- conv1_1
I1218 21:23:37.868088  4382 net.cpp:395] relu1_1 -> conv1_1 (in-place)
I1218 21:23:37.868225  4382 net.cpp:150] Setting up relu1_1
I1218 21:23:37.868233  4382 net.cpp:157] Top shape: 4 64 224 224 (12845056)
I1218 21:23:37.868247  4382 net.cpp:165] Memory required for data: 105168944
I1218 21:23:37.868249  4382 layer_factory.hpp:77] Creating layer conv1_2
I1218 21:23:37.868259  4382 net.cpp:100] Creating Layer conv1_2
I1218 21:23:37.868261  4382 net.cpp:434] conv1_2 <- conv1_1
I1218 21:23:37.868266  4382 net.cpp:408] conv1_2 -> conv1_2
I1218 21:23:37.869208  4382 net.cpp:150] Setting up conv1_2
I1218 21:23:37.869220  4382 net.cpp:157] Top shape: 4 64 224 224 (12845056)
I1218 21:23:37.869233  4382 net.cpp:165] Memory required for data: 156549168
I1218 21:23:37.869240  4382 layer_factory.hpp:77] Creating layer relu1_2
I1218 21:23:37.869246  4382 net.cpp:100] Creating Layer relu1_2
I1218 21:23:37.869247  4382 net.cpp:434] relu1_2 <- conv1_2
I1218 21:23:37.869251  4382 net.cpp:395] relu1_2 -> conv1_2 (in-place)
I1218 21:23:37.869367  4382 net.cpp:150] Setting up relu1_2
I1218 21:23:37.869376  4382 net.cpp:157] Top shape: 4 64 224 224 (12845056)
I1218 21:23:37.869379  4382 net.cpp:165] Memory required for data: 207929392
I1218 21:23:37.869381  4382 layer_factory.hpp:77] Creating layer pool1
I1218 21:23:37.869387  4382 net.cpp:100] Creating Layer pool1
I1218 21:23:37.869390  4382 net.cpp:434] pool1 <- conv1_2
I1218 21:23:37.869395  4382 net.cpp:408] pool1 -> pool1
I1218 21:23:37.869545  4382 net.cpp:150] Setting up pool1
I1218 21:23:37.869554  4382 net.cpp:157] Top shape: 4 64 112 112 (3211264)
I1218 21:23:37.869566  4382 net.cpp:165] Memory required for data: 220774448
I1218 21:23:37.869570  4382 layer_factory.hpp:77] Creating layer conv2_1
I1218 21:23:37.869575  4382 net.cpp:100] Creating Layer conv2_1
I1218 21:23:37.869578  4382 net.cpp:434] conv2_1 <- pool1
I1218 21:23:37.869582  4382 net.cpp:408] conv2_1 -> conv2_1
I1218 21:23:37.871495  4382 net.cpp:150] Setting up conv2_1
I1218 21:23:37.871522  4382 net.cpp:157] Top shape: 4 128 112 112 (6422528)
I1218 21:23:37.871541  4382 net.cpp:165] Memory required for data: 246464560
I1218 21:23:37.871551  4382 layer_factory.hpp:77] Creating layer relu2_1
I1218 21:23:37.871559  4382 net.cpp:100] Creating Layer relu2_1
I1218 21:23:37.871572  4382 net.cpp:434] relu2_1 <- conv2_1
I1218 21:23:37.871577  4382 net.cpp:395] relu2_1 -> conv2_1 (in-place)
I1218 21:23:37.871968  4382 net.cpp:150] Setting up relu2_1
I1218 21:23:37.871978  4382 net.cpp:157] Top shape: 4 128 112 112 (6422528)
I1218 21:23:37.871990  4382 net.cpp:165] Memory required for data: 272154672
I1218 21:23:37.871994  4382 layer_factory.hpp:77] Creating layer conv2_2
I1218 21:23:37.872002  4382 net.cpp:100] Creating Layer conv2_2
I1218 21:23:37.872009  4382 net.cpp:434] conv2_2 <- conv2_1
I1218 21:23:37.872014  4382 net.cpp:408] conv2_2 -> conv2_2
I1218 21:23:37.873488  4382 net.cpp:150] Setting up conv2_2
I1218 21:23:37.873512  4382 net.cpp:157] Top shape: 4 128 112 112 (6422528)
I1218 21:23:37.873517  4382 net.cpp:165] Memory required for data: 297844784
I1218 21:23:37.873522  4382 layer_factory.hpp:77] Creating layer relu2_2
I1218 21:23:37.873528  4382 net.cpp:100] Creating Layer relu2_2
I1218 21:23:37.873531  4382 net.cpp:434] relu2_2 <- conv2_2
I1218 21:23:37.873535  4382 net.cpp:395] relu2_2 -> conv2_2 (in-place)
I1218 21:23:37.873941  4382 net.cpp:150] Setting up relu2_2
I1218 21:23:37.873951  4382 net.cpp:157] Top shape: 4 128 112 112 (6422528)
I1218 21:23:37.873965  4382 net.cpp:165] Memory required for data: 323534896
I1218 21:23:37.873967  4382 layer_factory.hpp:77] Creating layer pool2
I1218 21:23:37.873975  4382 net.cpp:100] Creating Layer pool2
I1218 21:23:37.873977  4382 net.cpp:434] pool2 <- conv2_2
I1218 21:23:37.873981  4382 net.cpp:408] pool2 -> pool2
I1218 21:23:37.874120  4382 net.cpp:150] Setting up pool2
I1218 21:23:37.874128  4382 net.cpp:157] Top shape: 4 128 56 56 (1605632)
I1218 21:23:37.874141  4382 net.cpp:165] Memory required for data: 329957424
I1218 21:23:37.874143  4382 layer_factory.hpp:77] Creating layer conv3_1
I1218 21:23:37.874150  4382 net.cpp:100] Creating Layer conv3_1
I1218 21:23:37.874153  4382 net.cpp:434] conv3_1 <- pool2
I1218 21:23:37.874157  4382 net.cpp:408] conv3_1 -> conv3_1
I1218 21:23:37.877008  4382 net.cpp:150] Setting up conv3_1
I1218 21:23:37.877038  4382 net.cpp:157] Top shape: 4 256 56 56 (3211264)
I1218 21:23:37.877040  4382 net.cpp:165] Memory required for data: 342802480
I1218 21:23:37.877051  4382 layer_factory.hpp:77] Creating layer relu3_1
I1218 21:23:37.877058  4382 net.cpp:100] Creating Layer relu3_1
I1218 21:23:37.877061  4382 net.cpp:434] relu3_1 <- conv3_1
I1218 21:23:37.877066  4382 net.cpp:395] relu3_1 -> conv3_1 (in-place)
I1218 21:23:37.877192  4382 net.cpp:150] Setting up relu3_1
I1218 21:23:37.877198  4382 net.cpp:157] Top shape: 4 256 56 56 (3211264)
I1218 21:23:37.877203  4382 net.cpp:165] Memory required for data: 355647536
I1218 21:23:37.877207  4382 layer_factory.hpp:77] Creating layer conv3_2
I1218 21:23:37.877214  4382 net.cpp:100] Creating Layer conv3_2
I1218 21:23:37.877218  4382 net.cpp:434] conv3_2 <- conv3_1
I1218 21:23:37.877223  4382 net.cpp:408] conv3_2 -> conv3_2
I1218 21:23:37.881593  4382 net.cpp:150] Setting up conv3_2
I1218 21:23:37.881614  4382 net.cpp:157] Top shape: 4 256 56 56 (3211264)
I1218 21:23:37.881618  4382 net.cpp:165] Memory required for data: 368492592
I1218 21:23:37.881624  4382 layer_factory.hpp:77] Creating layer relu3_2
I1218 21:23:37.881633  4382 net.cpp:100] Creating Layer relu3_2
I1218 21:23:37.881636  4382 net.cpp:434] relu3_2 <- conv3_2
I1218 21:23:37.881649  4382 net.cpp:395] relu3_2 -> conv3_2 (in-place)
I1218 21:23:37.881778  4382 net.cpp:150] Setting up relu3_2
I1218 21:23:37.881789  4382 net.cpp:157] Top shape: 4 256 56 56 (3211264)
I1218 21:23:37.881793  4382 net.cpp:165] Memory required for data: 381337648
I1218 21:23:37.881798  4382 layer_factory.hpp:77] Creating layer conv3_3
I1218 21:23:37.881814  4382 net.cpp:100] Creating Layer conv3_3
I1218 21:23:37.881819  4382 net.cpp:434] conv3_3 <- conv3_2
I1218 21:23:37.881825  4382 net.cpp:408] conv3_3 -> conv3_3
I1218 21:23:37.886247  4382 net.cpp:150] Setting up conv3_3
I1218 21:23:37.886270  4382 net.cpp:157] Top shape: 4 256 56 56 (3211264)
I1218 21:23:37.886274  4382 net.cpp:165] Memory required for data: 394182704
I1218 21:23:37.886283  4382 layer_factory.hpp:77] Creating layer relu3_3
I1218 21:23:37.886303  4382 net.cpp:100] Creating Layer relu3_3
I1218 21:23:37.886312  4382 net.cpp:434] relu3_3 <- conv3_3
I1218 21:23:37.886322  4382 net.cpp:395] relu3_3 -> conv3_3 (in-place)
I1218 21:23:37.886453  4382 net.cpp:150] Setting up relu3_3
I1218 21:23:37.886463  4382 net.cpp:157] Top shape: 4 256 56 56 (3211264)
I1218 21:23:37.886467  4382 net.cpp:165] Memory required for data: 407027760
I1218 21:23:37.886482  4382 layer_factory.hpp:77] Creating layer pool3
I1218 21:23:37.886492  4382 net.cpp:100] Creating Layer pool3
I1218 21:23:37.886497  4382 net.cpp:434] pool3 <- conv3_3
I1218 21:23:37.886505  4382 net.cpp:408] pool3 -> pool3
I1218 21:23:37.886914  4382 net.cpp:150] Setting up pool3
I1218 21:23:37.886926  4382 net.cpp:157] Top shape: 4 256 28 28 (802816)
I1218 21:23:37.886931  4382 net.cpp:165] Memory required for data: 410239024
I1218 21:23:37.886945  4382 layer_factory.hpp:77] Creating layer conv4_1
I1218 21:23:37.886957  4382 net.cpp:100] Creating Layer conv4_1
I1218 21:23:37.886962  4382 net.cpp:434] conv4_1 <- pool3
I1218 21:23:37.886970  4382 net.cpp:408] conv4_1 -> conv4_1
I1218 21:23:37.894920  4382 net.cpp:150] Setting up conv4_1
I1218 21:23:37.894945  4382 net.cpp:157] Top shape: 4 512 28 28 (1605632)
I1218 21:23:37.894949  4382 net.cpp:165] Memory required for data: 416661552
I1218 21:23:37.894969  4382 layer_factory.hpp:77] Creating layer relu4_1
I1218 21:23:37.894979  4382 net.cpp:100] Creating Layer relu4_1
I1218 21:23:37.894989  4382 net.cpp:434] relu4_1 <- conv4_1
I1218 21:23:37.894997  4382 net.cpp:395] relu4_1 -> conv4_1 (in-place)
I1218 21:23:37.895125  4382 net.cpp:150] Setting up relu4_1
I1218 21:23:37.895135  4382 net.cpp:157] Top shape: 4 512 28 28 (1605632)
I1218 21:23:37.895139  4382 net.cpp:165] Memory required for data: 423084080
I1218 21:23:37.895146  4382 layer_factory.hpp:77] Creating layer conv4_2
I1218 21:23:37.895159  4382 net.cpp:100] Creating Layer conv4_2
I1218 21:23:37.895165  4382 net.cpp:434] conv4_2 <- conv4_1
I1218 21:23:37.895172  4382 net.cpp:408] conv4_2 -> conv4_2
I1218 21:23:37.909337  4382 net.cpp:150] Setting up conv4_2
I1218 21:23:37.909363  4382 net.cpp:157] Top shape: 4 512 28 28 (1605632)
I1218 21:23:37.909368  4382 net.cpp:165] Memory required for data: 429506608
I1218 21:23:37.909395  4382 layer_factory.hpp:77] Creating layer relu4_2
I1218 21:23:37.909415  4382 net.cpp:100] Creating Layer relu4_2
I1218 21:23:37.909422  4382 net.cpp:434] relu4_2 <- conv4_2
I1218 21:23:37.909432  4382 net.cpp:395] relu4_2 -> conv4_2 (in-place)
I1218 21:23:37.909580  4382 net.cpp:150] Setting up relu4_2
I1218 21:23:37.909591  4382 net.cpp:157] Top shape: 4 512 28 28 (1605632)
I1218 21:23:37.909596  4382 net.cpp:165] Memory required for data: 435929136
I1218 21:23:37.909612  4382 layer_factory.hpp:77] Creating layer conv4_3
I1218 21:23:37.909626  4382 net.cpp:100] Creating Layer conv4_3
I1218 21:23:37.909631  4382 net.cpp:434] conv4_3 <- conv4_2
I1218 21:23:37.909641  4382 net.cpp:408] conv4_3 -> conv4_3
I1218 21:23:37.923885  4382 net.cpp:150] Setting up conv4_3
I1218 21:23:37.923955  4382 net.cpp:157] Top shape: 4 512 28 28 (1605632)
I1218 21:23:37.923969  4382 net.cpp:165] Memory required for data: 442351664
I1218 21:23:37.923995  4382 layer_factory.hpp:77] Creating layer relu4_3
I1218 21:23:37.924015  4382 net.cpp:100] Creating Layer relu4_3
I1218 21:23:37.924031  4382 net.cpp:434] relu4_3 <- conv4_3
I1218 21:23:37.924043  4382 net.cpp:395] relu4_3 -> conv4_3 (in-place)
I1218 21:23:37.924249  4382 net.cpp:150] Setting up relu4_3
I1218 21:23:37.924264  4382 net.cpp:157] Top shape: 4 512 28 28 (1605632)
I1218 21:23:37.924271  4382 net.cpp:165] Memory required for data: 448774192
I1218 21:23:37.924278  4382 layer_factory.hpp:77] Creating layer pool4
I1218 21:23:37.924305  4382 net.cpp:100] Creating Layer pool4
I1218 21:23:37.924332  4382 net.cpp:434] pool4 <- conv4_3
I1218 21:23:37.924343  4382 net.cpp:408] pool4 -> pool4
I1218 21:23:37.924548  4382 net.cpp:150] Setting up pool4
I1218 21:23:37.924561  4382 net.cpp:157] Top shape: 4 512 14 14 (401408)
I1218 21:23:37.924567  4382 net.cpp:165] Memory required for data: 450379824
I1218 21:23:37.924576  4382 layer_factory.hpp:77] Creating layer conv5_1
I1218 21:23:37.924597  4382 net.cpp:100] Creating Layer conv5_1
I1218 21:23:37.924604  4382 net.cpp:434] conv5_1 <- pool4
I1218 21:23:37.924616  4382 net.cpp:408] conv5_1 -> conv5_1
I1218 21:23:37.940268  4382 net.cpp:150] Setting up conv5_1
I1218 21:23:37.940292  4382 net.cpp:157] Top shape: 4 512 14 14 (401408)
I1218 21:23:37.940297  4382 net.cpp:165] Memory required for data: 451985456
I1218 21:23:37.940318  4382 layer_factory.hpp:77] Creating layer relu5_1
I1218 21:23:37.940332  4382 net.cpp:100] Creating Layer relu5_1
I1218 21:23:37.940340  4382 net.cpp:434] relu5_1 <- conv5_1
I1218 21:23:37.940348  4382 net.cpp:395] relu5_1 -> conv5_1 (in-place)
I1218 21:23:37.940811  4382 net.cpp:150] Setting up relu5_1
I1218 21:23:37.940824  4382 net.cpp:157] Top shape: 4 512 14 14 (401408)
I1218 21:23:37.940829  4382 net.cpp:165] Memory required for data: 453591088
I1218 21:23:37.940845  4382 layer_factory.hpp:77] Creating layer conv5_2
I1218 21:23:37.940858  4382 net.cpp:100] Creating Layer conv5_2
I1218 21:23:37.940865  4382 net.cpp:434] conv5_2 <- conv5_1
I1218 21:23:37.940871  4382 net.cpp:408] conv5_2 -> conv5_2
I1218 21:23:37.954349  4382 net.cpp:150] Setting up conv5_2
I1218 21:23:37.954375  4382 net.cpp:157] Top shape: 4 512 14 14 (401408)
I1218 21:23:37.954381  4382 net.cpp:165] Memory required for data: 455196720
I1218 21:23:37.954402  4382 layer_factory.hpp:77] Creating layer relu5_2
I1218 21:23:37.954414  4382 net.cpp:100] Creating Layer relu5_2
I1218 21:23:37.954423  4382 net.cpp:434] relu5_2 <- conv5_2
I1218 21:23:37.954432  4382 net.cpp:395] relu5_2 -> conv5_2 (in-place)
I1218 21:23:37.954573  4382 net.cpp:150] Setting up relu5_2
I1218 21:23:37.954584  4382 net.cpp:157] Top shape: 4 512 14 14 (401408)
I1218 21:23:37.954588  4382 net.cpp:165] Memory required for data: 456802352
I1218 21:23:37.954607  4382 layer_factory.hpp:77] Creating layer conv5_3
I1218 21:23:37.954620  4382 net.cpp:100] Creating Layer conv5_3
I1218 21:23:37.954625  4382 net.cpp:434] conv5_3 <- conv5_2
I1218 21:23:37.954632  4382 net.cpp:408] conv5_3 -> conv5_3
I1218 21:23:37.968266  4382 net.cpp:150] Setting up conv5_3
I1218 21:23:37.968292  4382 net.cpp:157] Top shape: 4 512 14 14 (401408)
I1218 21:23:37.968297  4382 net.cpp:165] Memory required for data: 458407984
I1218 21:23:37.968309  4382 layer_factory.hpp:77] Creating layer relu5_3
I1218 21:23:37.968330  4382 net.cpp:100] Creating Layer relu5_3
I1218 21:23:37.968339  4382 net.cpp:434] relu5_3 <- conv5_3
I1218 21:23:37.968349  4382 net.cpp:395] relu5_3 -> conv5_3 (in-place)
I1218 21:23:37.968494  4382 net.cpp:150] Setting up relu5_3
I1218 21:23:37.968504  4382 net.cpp:157] Top shape: 4 512 14 14 (401408)
I1218 21:23:37.968509  4382 net.cpp:165] Memory required for data: 460013616
I1218 21:23:37.968513  4382 layer_factory.hpp:77] Creating layer pool5
I1218 21:23:37.968539  4382 net.cpp:100] Creating Layer pool5
I1218 21:23:37.968544  4382 net.cpp:434] pool5 <- conv5_3
I1218 21:23:37.968551  4382 net.cpp:408] pool5 -> pool5
I1218 21:23:37.968720  4382 net.cpp:150] Setting up pool5
I1218 21:23:37.968730  4382 net.cpp:157] Top shape: 4 512 7 7 (100352)
I1218 21:23:37.968735  4382 net.cpp:165] Memory required for data: 460415024
I1218 21:23:37.968750  4382 layer_factory.hpp:77] Creating layer fc6
I1218 21:23:37.968765  4382 net.cpp:100] Creating Layer fc6
I1218 21:23:37.968770  4382 net.cpp:434] fc6 <- pool5
I1218 21:23:37.968777  4382 net.cpp:408] fc6 -> fc6
I1218 21:23:40.087014  4382 net.cpp:150] Setting up fc6
I1218 21:23:40.087041  4382 net.cpp:157] Top shape: 4 4096 (16384)
I1218 21:23:40.087046  4382 net.cpp:165] Memory required for data: 460480560
I1218 21:23:40.087067  4382 layer_factory.hpp:77] Creating layer relu6
I1218 21:23:40.087098  4382 net.cpp:100] Creating Layer relu6
I1218 21:23:40.087105  4382 net.cpp:434] relu6 <- fc6
I1218 21:23:40.087113  4382 net.cpp:395] relu6 -> fc6 (in-place)
I1218 21:23:40.087721  4382 net.cpp:150] Setting up relu6
I1218 21:23:40.087733  4382 net.cpp:157] Top shape: 4 4096 (16384)
I1218 21:23:40.087738  4382 net.cpp:165] Memory required for data: 460546096
I1218 21:23:40.087743  4382 layer_factory.hpp:77] Creating layer drop6
I1218 21:23:40.087767  4382 net.cpp:100] Creating Layer drop6
I1218 21:23:40.087774  4382 net.cpp:434] drop6 <- fc6
I1218 21:23:40.087779  4382 net.cpp:395] drop6 -> fc6 (in-place)
I1218 21:23:40.087810  4382 net.cpp:150] Setting up drop6
I1218 21:23:40.087827  4382 net.cpp:157] Top shape: 4 4096 (16384)
I1218 21:23:40.087831  4382 net.cpp:165] Memory required for data: 460611632
I1218 21:23:40.087846  4382 layer_factory.hpp:77] Creating layer fc7
I1218 21:23:40.087854  4382 net.cpp:100] Creating Layer fc7
I1218 21:23:40.087858  4382 net.cpp:434] fc7 <- fc6
I1218 21:23:40.087865  4382 net.cpp:408] fc7 -> fc7
I1218 21:23:40.440124  4382 net.cpp:150] Setting up fc7
I1218 21:23:40.440153  4382 net.cpp:157] Top shape: 4 4096 (16384)
I1218 21:23:40.440157  4382 net.cpp:165] Memory required for data: 460677168
I1218 21:23:40.440168  4382 layer_factory.hpp:77] Creating layer relu7
I1218 21:23:40.440187  4382 net.cpp:100] Creating Layer relu7
I1218 21:23:40.440196  4382 net.cpp:434] relu7 <- fc7
I1218 21:23:40.440203  4382 net.cpp:395] relu7 -> fc7 (in-place)
I1218 21:23:40.440389  4382 net.cpp:150] Setting up relu7
I1218 21:23:40.440398  4382 net.cpp:157] Top shape: 4 4096 (16384)
I1218 21:23:40.440403  4382 net.cpp:165] Memory required for data: 460742704
I1218 21:23:40.440418  4382 layer_factory.hpp:77] Creating layer drop7
I1218 21:23:40.440428  4382 net.cpp:100] Creating Layer drop7
I1218 21:23:40.440433  4382 net.cpp:434] drop7 <- fc7
I1218 21:23:40.440438  4382 net.cpp:395] drop7 -> fc7 (in-place)
I1218 21:23:40.440466  4382 net.cpp:150] Setting up drop7
I1218 21:23:40.440474  4382 net.cpp:157] Top shape: 4 4096 (16384)
I1218 21:23:40.440487  4382 net.cpp:165] Memory required for data: 460808240
I1218 21:23:40.440493  4382 layer_factory.hpp:77] Creating layer fc7_drop7_0_split
I1218 21:23:40.440511  4382 net.cpp:100] Creating Layer fc7_drop7_0_split
I1218 21:23:40.440517  4382 net.cpp:434] fc7_drop7_0_split <- fc7
I1218 21:23:40.440523  4382 net.cpp:408] fc7_drop7_0_split -> fc7_drop7_0_split_0
I1218 21:23:40.440532  4382 net.cpp:408] fc7_drop7_0_split -> fc7_drop7_0_split_1
I1218 21:23:40.440563  4382 net.cpp:150] Setting up fc7_drop7_0_split
I1218 21:23:40.440580  4382 net.cpp:157] Top shape: 4 4096 (16384)
I1218 21:23:40.440598  4382 net.cpp:157] Top shape: 4 4096 (16384)
I1218 21:23:40.440603  4382 net.cpp:165] Memory required for data: 460939312
I1218 21:23:40.440606  4382 layer_factory.hpp:77] Creating layer fc8-1
I1218 21:23:40.440616  4382 net.cpp:100] Creating Layer fc8-1
I1218 21:23:40.440621  4382 net.cpp:434] fc8-1 <- fc7_drop7_0_split_0
I1218 21:23:40.440629  4382 net.cpp:408] fc8-1 -> fc8-1
I1218 21:23:40.441454  4382 net.cpp:150] Setting up fc8-1
I1218 21:23:40.441463  4382 net.cpp:157] Top shape: 4 9 (36)
I1218 21:23:40.441468  4382 net.cpp:165] Memory required for data: 460939456
I1218 21:23:40.441475  4382 layer_factory.hpp:77] Creating layer euclidean
I1218 21:23:40.441483  4382 net.cpp:100] Creating Layer euclidean
I1218 21:23:40.441489  4382 net.cpp:434] euclidean <- fc7_drop7_0_split_1
I1218 21:23:40.441496  4382 net.cpp:434] euclidean <- label_data_1_split_0
I1218 21:23:40.441504  4382 net.cpp:408] euclidean -> euclidean
I1218 21:23:40.441514  4382 net.cpp:408] euclidean -> label_dif
I1218 21:23:40.441552  4382 net.cpp:150] Setting up euclidean
I1218 21:23:40.441560  4382 net.cpp:157] Top shape: 2 4096 1 1 (8192)
I1218 21:23:40.441566  4382 net.cpp:157] Top shape: 2 (2)
I1218 21:23:40.441572  4382 net.cpp:165] Memory required for data: 460972232
I1218 21:23:40.441578  4382 layer_factory.hpp:77] Creating layer fc8-1_dif
I1218 21:23:40.441598  4382 net.cpp:100] Creating Layer fc8-1_dif
I1218 21:23:40.441604  4382 net.cpp:434] fc8-1_dif <- euclidean
I1218 21:23:40.441613  4382 net.cpp:408] fc8-1_dif -> fc8-1_dif
I1218 21:23:40.441851  4382 net.cpp:150] Setting up fc8-1_dif
I1218 21:23:40.441859  4382 net.cpp:157] Top shape: 2 2 (4)
I1218 21:23:40.441864  4382 net.cpp:165] Memory required for data: 460972248
I1218 21:23:40.441877  4382 layer_factory.hpp:77] Creating layer loss
I1218 21:23:40.441885  4382 net.cpp:100] Creating Layer loss
I1218 21:23:40.441890  4382 net.cpp:434] loss <- fc8-1
I1218 21:23:40.441895  4382 net.cpp:434] loss <- label_data_1_split_1
I1218 21:23:40.441902  4382 net.cpp:408] loss -> loss
I1218 21:23:40.441912  4382 layer_factory.hpp:77] Creating layer loss
…
I1218 21:23:40.443836  4382 net.cpp:58] Initializing net from parameters: 
state {
  phase: TEST
}
layer {
  name: "data"
  type: "ImageData"
  top: "data"
  top: "label"
  include {
    phase: TEST
  }
  transform_param {
    mirror: false
    crop_size: 224
    mean_value: 102.691
    mean_value: 128.77
    mean_value: 131.293
  }
  image_data_param {
    source: "data/apple_disease/val.txt"
    batch_size: 2
    new_height: 256
    new_width: 256
    root_folder: "/media/agwang/\346\226\260\345\212\240\345\215\267/DataSets/Competitions/AppleDiseases/"
  }
}
layer {
  name: "conv1_1"
  type: "Convolution"
  bottom: "data"
  top: "conv1_1"
  param {
    lr_mult: 0
  }
  param {
    lr_mult: 0
  }
  convolution_param {
    num_output: 64
    pad: 1
    kernel_size: 3
    weight_filler {
      type: "xavier"
    }
  }
}
layer {
  name: "relu1_1"
  type: "ReLU"
  bottom: "conv1_1"
  top: "conv1_1"
}
layer {
  name: "conv1_2"
  type: "Convolution"
  bottom: "conv1_1"
  top: "conv1_2"
  param {
    lr_mult: 0
  }
  param {
    lr_mult: 0
  }
  convolution_param {
    num_output: 64
    pad: 1
    kernel_size: 3
    weight_filler {
      type: "xavier"
    }
  }
}
layer {
  name: "relu1_2"
  type: "ReLU"
  bottom: "conv1_2"
  top: "conv1_2"
}
layer {
  name: "pool1"
  type: "Pooling"
  bottom: "conv1_2"
  top: "pool1"
  pooling_param {
    pool: MAX
    kernel_size: 2
    stride: 2
  }
}
layer {
  name: "conv2_1"
  type: "Convolution"
  bottom: "pool1"
  top: "conv2_1"
  param {
    lr_mult: 0
  }
  param {
    lr_mult: 0
  }
  convolution_param {
    num_output: 128
    pad: 1
    kernel_size: 3
    weight_filler {
      type: "xavier"
    }
  }
}
layer {
  name: "relu2_1"
  type: "ReLU"
  bottom: "conv2_1"
  top: "conv2_1"
}
layer {
  name: "conv2_2"
  type: "Convolution"
  bottom: "conv2_1"
  top: "conv2_2"
  param {
    lr_mult: 0
  }
  param {
    lr_mult: 0
  }
  convolution_param {
    num_output: 128
    pad: 1
    kernel_size: 3
    weight_filler {
      type: "xavier"
    }
  }
}
layer {
  name: "relu2_2"
  type: "ReLU"
  bottom: "conv2_2"
  top: "conv2_2"
}
layer {
  name: "pool2"
  type: "Pooling"
  bottom: "conv2_2"
  top: "pool2"
  pooling_param {
    pool: MAX
    kernel_size: 2
    stride: 2
  }
}
layer {
  name: "conv3_1"
  type: "Convolution"
  bottom: "pool2"
  top: "conv3_1"
  convolution_param {
    num_output: 256
    pad: 1
    kernel_size: 3
    weight_filler {
      type: "xavier"
    }
  }
}
layer {
  name: "relu3_1"
  type: "ReLU"
  bottom: "conv3_1"
  top: "conv3_1"
}
layer {
  name: "conv3_2"
  type: "Convolution"
  bottom: "conv3_1"
  top: "conv3_2"
  convolution_param {
    num_output: 256
    pad: 1
    kernel_size: 3
    weight_filler {
      type: "xavier"
    }
  }
}
layer {
  name: "relu3_2"
  type: "ReLU"
  bottom: "conv3_2"
  top: "conv3_2"
}
layer {
  name: "conv3_3"
  type: "Convolution"
  bottom: "conv3_2"
  top: "conv3_3"
  convolution_param {
    num_output: 256
    pad: 1
    kernel_size: 3
    weight_filler {
      type: "xavier"
    }
  }
}
layer {
  name: "relu3_3"
  type: "ReLU"
  bottom: "conv3_3"
  top: "conv3_3"
}
layer {
  name: "pool3"
  type: "Pooling"
  bottom: "conv3_3"
  top: "pool3"
  pooling_param {
    pool: MAX
    kernel_size: 2
    stride: 2
  }
}
layer {
  name: "conv4_1"
  type: "Convolution"
  bottom: "pool3"
  top: "conv4_1"
  convolution_param {
    num_output: 512
    pad: 1
    kernel_size: 3
    weight_filler {
      type: "xavier"
    }
  }
}
layer {
  name: "relu4_1"
  type: "ReLU"
  bottom: "conv4_1"
  top: "conv4_1"
}
layer {
  name: "conv4_2"
  type: "Convolution"
  bottom: "conv4_1"
  top: "conv4_2"
  convolution_param {
    num_output: 512
    pad: 1
    kernel_size: 3
    weight_filler {
      type: "xavier"
    }
  }
}
layer {
  name: "relu4_2"
  type: "ReLU"
  bottom: "conv4_2"
  top: "conv4_2"
}
layer {
  name: "conv4_3"
  type: "Convolution"
  bottom: "conv4_2"
  top: "conv4_3"
  convolution_param {
    num_output: 512
    pad: 1
    kernel_size: 3
    weight_filler {
      type: "xavier"
    }
  }
}
layer {
  name: "relu4_3"
  type: "ReLU"
  bottom: "conv4_3"
  top: "conv4_3"
}
layer {
  name: "pool4"
  type: "Pooling"
  bottom: "conv4_3"
  top: "pool4"
  pooling_param {
    pool: MAX
    kernel_size: 2
    stride: 2
  }
}
layer {
  name: "conv5_1"
  type: "Convolution"
  bottom: "pool4"
  top: "conv5_1"
  convolution_param {
    num_output: 512
    pad: 1
    kernel_size: 3
    weight_filler {
      type: "xavier"
    }
  }
}
layer {
  name: "relu5_1"
  type: "ReLU"
  bottom: "conv5_1"
  top: "conv5_1"
}
layer {
  name: "conv5_2"
  type: "Convolution"
  bottom: "conv5_1"
  top: "conv5_2"
  convolution_param {
    num_output: 512
    pad: 1
    kernel_size: 3
    weight_filler {
      type: "xavier"
    }
  }
}
layer {
  name: "relu5_2"
  type: "ReLU"
  bottom: "conv5_2"
  top: "conv5_2"
}
layer {
  name: "conv5_3"
  type: "Convolution"
  bottom: "conv5_2"
  top: "conv5_3"
  convolution_param {
    num_output: 512
    pad: 1
    kernel_size: 3
    weight_filler {
      type: "xavier"
    }
  }
}
layer {
  name: "relu5_3"
  type: "ReLU"
  bottom: "conv5_3"
  top: "conv5_3"
}
layer {
  name: "pool5"
  type: "Pooling"
  bottom: "conv5_3"
  top: "pool5"
  pooling_param {
    pool: MAX
    kernel_size: 2
    stride: 2
  }
}
layer {
  name: "fc6"
  type: "InnerProduct"
  bottom: "pool5"
  top: "fc6"
  inner_product_param {
    num_output: 4096
    weight_filler {
      type: "gaussian"
      std: 0.01
    }
  }
}
layer {
  name: "relu6"
  type: "ReLU"
  bottom: "fc6"
  top: "fc6"
}
layer {
  name: "drop6"
  type: "Dropout"
  bottom: "fc6"
  top: "fc6"
  dropout_param {
    dropout_ratio: 0.6
  }
}
layer {
  name: "fc7"
  type: "InnerProduct"
  bottom: "fc6"
  top: "fc7"
  inner_product_param {
    num_output: 4096
    weight_filler {
      type: "gaussian"
      std: 0.01
    }
  }
}
layer {
  name: "relu7"
  type: "ReLU"
  bottom: "fc7"
  top: "fc7"
}
layer {
  name: "drop7"
  type: "Dropout"
  bottom: "fc7"
  top: "fc7"
  dropout_param {
    dropout_ratio: 0.6
  }
}
layer {
  name: "fc8-1"
  type: "InnerProduct"
  bottom: "fc7"
  top: "fc8-1"
  inner_product_param {
    num_output: 9
    weight_filler {
      type: "gaussian"
      std: 0.01
    }
  }
}
layer {
  name: "euclidean"
  type: "PairEuclidean"
  bottom: "fc7"
  bottom: "label"
  top: "euclidean"
  top: "label_dif"
}
layer {
  name: "fc8-1_dif"
  type: "InnerProduct"
  bottom: "euclidean"
  top: "fc8-1_dif"
  inner_product_param {
    num_output: 2
    weight_filler {
      type: "gaussian"
      std: 0.01
    }
  }
}
layer {
  name: "loss"
  type: "SoftmaxWithLoss"
  bottom: "fc8-1"
  bottom: "label"
  top: "loss"
  loss_weight: 0.5
  propagate_down: true
  propagate_down: false
}
layer {
  name: "loss_dif"
  type: "SoftmaxWithLoss"
  bottom: "fc8-1_dif"
  bottom: "label_dif"
  top: "loss_dif"
  loss_weight: 0.2
  propagate_down: true
  propagate_down: false
}
layer {
  name: "accuracy"
  type: "Accuracy"
  bottom: "fc8-1"
  bottom: "label"
  top: "accuracy"
  include {
    phase: TEST
  }
}
I1218 21:23:40.444000  4382 layer_factory.hpp:77] Creating layer data
I1218 21:23:40.444017  4382 net.cpp:100] Creating Layer data
I1218 21:23:40.444023  4382 net.cpp:408] data -> data
I1218 21:23:40.444032  4382 net.cpp:408] data -> label
I1218 21:23:40.444041  4382 image_data_layer.cpp:41] Opening file data/apple_disease/val.txt
I1218 21:23:40.444243  4382 image_data_layer.cpp:61] A total of 557 images.
I1218 21:23:40.445207  4382 image_data_layer.cpp:88] output data size: 2,3,224,224
I1218 21:23:40.448626  4382 net.cpp:150] Setting up data
I1218 21:23:40.448650  4382 net.cpp:157] Top shape: 2 3 224 224 (301056)
I1218 21:23:40.448657  4382 net.cpp:157] Top shape: 2 (2)
I1218 21:23:40.448660  4382 net.cpp:165] Memory required for data: 1204232
I1218 21:23:40.448667  4382 layer_factory.hpp:77] Creating layer label_data_1_split
I1218 21:23:40.448679  4382 net.cpp:100] Creating Layer label_data_1_split
I1218 21:23:40.448685  4382 net.cpp:434] label_data_1_split <- label
I1218 21:23:40.448693  4382 net.cpp:408] label_data_1_split -> label_data_1_split_0
I1218 21:23:40.448705  4382 net.cpp:408] label_data_1_split -> label_data_1_split_1
I1218 21:23:40.448712  4382 net.cpp:408] label_data_1_split -> label_data_1_split_2
I1218 21:23:40.448762  4382 net.cpp:150] Setting up label_data_1_split
I1218 21:23:40.448770  4382 net.cpp:157] Top shape: 2 (2)
I1218 21:23:40.448776  4382 net.cpp:157] Top shape: 2 (2)
I1218 21:23:40.448781  4382 net.cpp:157] Top shape: 2 (2)
I1218 21:23:40.448786  4382 net.cpp:165] Memory required for data: 1204256
I1218 21:23:40.448792  4382 layer_factory.hpp:77] Creating layer conv1_1
I1218 21:23:40.448807  4382 net.cpp:100] Creating Layer conv1_1
I1218 21:23:40.448810  4382 net.cpp:434] conv1_1 <- data
I1218 21:23:40.448817  4382 net.cpp:408] conv1_1 -> conv1_1
I1218 21:23:40.449780  4382 net.cpp:150] Setting up conv1_1
I1218 21:23:40.449793  4382 net.cpp:157] Top shape: 2 64 224 224 (6422528)
I1218 21:23:40.449798  4382 net.cpp:165] Memory required for data: 26894368
I1218 21:23:40.449810  4382 layer_factory.hpp:77] Creating layer relu1_1
I1218 21:23:40.449822  4382 net.cpp:100] Creating Layer relu1_1
I1218 21:23:40.449827  4382 net.cpp:434] relu1_1 <- conv1_1
I1218 21:23:40.449832  4382 net.cpp:395] relu1_1 -> conv1_1 (in-place)
I1218 21:23:40.450253  4382 net.cpp:150] Setting up relu1_1
I1218 21:23:40.450264  4382 net.cpp:157] Top shape: 2 64 224 224 (6422528)
I1218 21:23:40.450266  4382 net.cpp:165] Memory required for data: 52584480
I1218 21:23:40.450269  4382 layer_factory.hpp:77] Creating layer conv1_2
I1218 21:23:40.450278  4382 net.cpp:100] Creating Layer conv1_2
I1218 21:23:40.450283  4382 net.cpp:434] conv1_2 <- conv1_1
I1218 21:23:40.450286  4382 net.cpp:408] conv1_2 -> conv1_2
I1218 21:23:40.451261  4382 net.cpp:150] Setting up conv1_2
I1218 21:23:40.451272  4382 net.cpp:157] Top shape: 2 64 224 224 (6422528)
I1218 21:23:40.451275  4382 net.cpp:165] Memory required for data: 78274592
I1218 21:23:40.451282  4382 layer_factory.hpp:77] Creating layer relu1_2
I1218 21:23:40.451288  4382 net.cpp:100] Creating Layer relu1_2
I1218 21:23:40.451292  4382 net.cpp:434] relu1_2 <- conv1_2
I1218 21:23:40.451295  4382 net.cpp:395] relu1_2 -> conv1_2 (in-place)
I1218 21:23:40.451732  4382 net.cpp:150] Setting up relu1_2
I1218 21:23:40.451740  4382 net.cpp:157] Top shape: 2 64 224 224 (6422528)
I1218 21:23:40.451743  4382 net.cpp:165] Memory required for data: 103964704
I1218 21:23:40.451745  4382 layer_factory.hpp:77] Creating layer pool1
I1218 21:23:40.451752  4382 net.cpp:100] Creating Layer pool1
I1218 21:23:40.451763  4382 net.cpp:434] pool1 <- conv1_2
I1218 21:23:40.451768  4382 net.cpp:408] pool1 -> pool1
I1218 21:23:40.451917  4382 net.cpp:150] Setting up pool1
I1218 21:23:40.451925  4382 net.cpp:157] Top shape: 2 64 112 112 (1605632)
I1218 21:23:40.451926  4382 net.cpp:165] Memory required for data: 110387232
I1218 21:23:40.451930  4382 layer_factory.hpp:77] Creating layer conv2_1
I1218 21:23:40.451936  4382 net.cpp:100] Creating Layer conv2_1
I1218 21:23:40.451939  4382 net.cpp:434] conv2_1 <- pool1
I1218 21:23:40.451944  4382 net.cpp:408] conv2_1 -> conv2_1
I1218 21:23:40.453976  4382 net.cpp:150] Setting up conv2_1
I1218 21:23:40.453999  4382 net.cpp:157] Top shape: 2 128 112 112 (3211264)
I1218 21:23:40.454007  4382 net.cpp:165] Memory required for data: 123232288
I1218 21:23:40.454022  4382 layer_factory.hpp:77] Creating layer relu2_1
I1218 21:23:40.454043  4382 net.cpp:100] Creating Layer relu2_1
I1218 21:23:40.454059  4382 net.cpp:434] relu2_1 <- conv2_1
I1218 21:23:40.454066  4382 net.cpp:395] relu2_1 -> conv2_1 (in-place)
I1218 21:23:40.454257  4382 net.cpp:150] Setting up relu2_1
I1218 21:23:40.454267  4382 net.cpp:157] Top shape: 2 128 112 112 (3211264)
I1218 21:23:40.454272  4382 net.cpp:165] Memory required for data: 136077344
I1218 21:23:40.454277  4382 layer_factory.hpp:77] Creating layer conv2_2
I1218 21:23:40.454289  4382 net.cpp:100] Creating Layer conv2_2
I1218 21:23:40.454293  4382 net.cpp:434] conv2_2 <- conv2_1
I1218 21:23:40.454301  4382 net.cpp:408] conv2_2 -> conv2_2
I1218 21:23:40.457023  4382 net.cpp:150] Setting up conv2_2
I1218 21:23:40.457053  4382 net.cpp:157] Top shape: 2 128 112 112 (3211264)
I1218 21:23:40.457057  4382 net.cpp:165] Memory required for data: 148922400
I1218 21:23:40.457064  4382 layer_factory.hpp:77] Creating layer relu2_2
I1218 21:23:40.457072  4382 net.cpp:100] Creating Layer relu2_2
I1218 21:23:40.457074  4382 net.cpp:434] relu2_2 <- conv2_2
I1218 21:23:40.457080  4382 net.cpp:395] relu2_2 -> conv2_2 (in-place)
I1218 21:23:40.457273  4382 net.cpp:150] Setting up relu2_2
I1218 21:23:40.457285  4382 net.cpp:157] Top shape: 2 128 112 112 (3211264)
I1218 21:23:40.457293  4382 net.cpp:165] Memory required for data: 161767456
I1218 21:23:40.457298  4382 layer_factory.hpp:77] Creating layer pool2
I1218 21:23:40.457309  4382 net.cpp:100] Creating Layer pool2
I1218 21:23:40.457314  4382 net.cpp:434] pool2 <- conv2_2
I1218 21:23:40.457324  4382 net.cpp:408] pool2 -> pool2
I1218 21:23:40.458047  4382 net.cpp:150] Setting up pool2
I1218 21:23:40.458063  4382 net.cpp:157] Top shape: 2 128 56 56 (802816)
I1218 21:23:40.458070  4382 net.cpp:165] Memory required for data: 164978720
I1218 21:23:40.458076  4382 layer_factory.hpp:77] Creating layer conv3_1
I1218 21:23:40.458091  4382 net.cpp:100] Creating Layer conv3_1
I1218 21:23:40.458096  4382 net.cpp:434] conv3_1 <- pool2
I1218 21:23:40.458104  4382 net.cpp:408] conv3_1 -> conv3_1
I1218 21:23:40.462190  4382 net.cpp:150] Setting up conv3_1
I1218 21:23:40.462219  4382 net.cpp:157] Top shape: 2 256 56 56 (1605632)
I1218 21:23:40.462226  4382 net.cpp:165] Memory required for data: 171401248
I1218 21:23:40.462244  4382 layer_factory.hpp:77] Creating layer relu3_1
I1218 21:23:40.462255  4382 net.cpp:100] Creating Layer relu3_1
I1218 21:23:40.462262  4382 net.cpp:434] relu3_1 <- conv3_1
I1218 21:23:40.462271  4382 net.cpp:395] relu3_1 -> conv3_1 (in-place)
I1218 21:23:40.463160  4382 net.cpp:150] Setting up relu3_1
I1218 21:23:40.463172  4382 net.cpp:157] Top shape: 2 256 56 56 (1605632)
I1218 21:23:40.463177  4382 net.cpp:165] Memory required for data: 177823776
I1218 21:23:40.463182  4382 layer_factory.hpp:77] Creating layer conv3_2
I1218 21:23:40.463197  4382 net.cpp:100] Creating Layer conv3_2
I1218 21:23:40.463203  4382 net.cpp:434] conv3_2 <- conv3_1
I1218 21:23:40.463212  4382 net.cpp:408] conv3_2 -> conv3_2
I1218 21:23:40.467900  4382 net.cpp:150] Setting up conv3_2
I1218 21:23:40.467922  4382 net.cpp:157] Top shape: 2 256 56 56 (1605632)
I1218 21:23:40.467926  4382 net.cpp:165] Memory required for data: 184246304
I1218 21:23:40.467957  4382 layer_factory.hpp:77] Creating layer relu3_2
I1218 21:23:40.467970  4382 net.cpp:100] Creating Layer relu3_2
I1218 21:23:40.467977  4382 net.cpp:434] relu3_2 <- conv3_2
I1218 21:23:40.467986  4382 net.cpp:395] relu3_2 -> conv3_2 (in-place)
I1218 21:23:40.468127  4382 net.cpp:150] Setting up relu3_2
I1218 21:23:40.468137  4382 net.cpp:157] Top shape: 2 256 56 56 (1605632)
I1218 21:23:40.468142  4382 net.cpp:165] Memory required for data: 190668832
I1218 21:23:40.468148  4382 layer_factory.hpp:77] Creating layer conv3_3
I1218 21:23:40.468165  4382 net.cpp:100] Creating Layer conv3_3
I1218 21:23:40.468170  4382 net.cpp:434] conv3_3 <- conv3_2
I1218 21:23:40.468178  4382 net.cpp:408] conv3_3 -> conv3_3
I1218 21:23:40.474386  4382 net.cpp:150] Setting up conv3_3
I1218 21:23:40.474447  4382 net.cpp:157] Top shape: 2 256 56 56 (1605632)
I1218 21:23:40.474472  4382 net.cpp:165] Memory required for data: 197091360
I1218 21:23:40.474496  4382 layer_factory.hpp:77] Creating layer relu3_3
I1218 21:23:40.474519  4382 net.cpp:100] Creating Layer relu3_3
I1218 21:23:40.474539  4382 net.cpp:434] relu3_3 <- conv3_3
I1218 21:23:40.474562  4382 net.cpp:395] relu3_3 -> conv3_3 (in-place)
I1218 21:23:40.474776  4382 net.cpp:150] Setting up relu3_3
I1218 21:23:40.474787  4382 net.cpp:157] Top shape: 2 256 56 56 (1605632)
I1218 21:23:40.474792  4382 net.cpp:165] Memory required for data: 203513888
I1218 21:23:40.474797  4382 layer_factory.hpp:77] Creating layer pool3
I1218 21:23:40.474812  4382 net.cpp:100] Creating Layer pool3
I1218 21:23:40.474817  4382 net.cpp:434] pool3 <- conv3_3
I1218 21:23:40.474826  4382 net.cpp:408] pool3 -> pool3
I1218 21:23:40.475013  4382 net.cpp:150] Setting up pool3
I1218 21:23:40.475024  4382 net.cpp:157] Top shape: 2 256 28 28 (401408)
I1218 21:23:40.475028  4382 net.cpp:165] Memory required for data: 205119520
I1218 21:23:40.475035  4382 layer_factory.hpp:77] Creating layer conv4_1
I1218 21:23:40.475049  4382 net.cpp:100] Creating Layer conv4_1
I1218 21:23:40.475054  4382 net.cpp:434] conv4_1 <- pool3
I1218 21:23:40.475065  4382 net.cpp:408] conv4_1 -> conv4_1
I1218 21:23:40.482842  4382 net.cpp:150] Setting up conv4_1
I1218 21:23:40.482866  4382 net.cpp:157] Top shape: 2 512 28 28 (802816)
I1218 21:23:40.482869  4382 net.cpp:165] Memory required for data: 208330784
I1218 21:23:40.482879  4382 layer_factory.hpp:77] Creating layer relu4_1
I1218 21:23:40.482899  4382 net.cpp:100] Creating Layer relu4_1
I1218 21:23:40.482908  4382 net.cpp:434] relu4_1 <- conv4_1
I1218 21:23:40.482918  4382 net.cpp:395] relu4_1 -> conv4_1 (in-place)
I1218 21:23:40.483068  4382 net.cpp:150] Setting up relu4_1
I1218 21:23:40.483078  4382 net.cpp:157] Top shape: 2 512 28 28 (802816)
I1218 21:23:40.483083  4382 net.cpp:165] Memory required for data: 211542048
I1218 21:23:40.483088  4382 layer_factory.hpp:77] Creating layer conv4_2
I1218 21:23:40.483109  4382 net.cpp:100] Creating Layer conv4_2
I1218 21:23:40.483114  4382 net.cpp:434] conv4_2 <- conv4_1
I1218 21:23:40.483121  4382 net.cpp:408] conv4_2 -> conv4_2
I1218 21:23:40.496733  4382 net.cpp:150] Setting up conv4_2
I1218 21:23:40.496762  4382 net.cpp:157] Top shape: 2 512 28 28 (802816)
I1218 21:23:40.496767  4382 net.cpp:165] Memory required for data: 214753312
I1218 21:23:40.496798  4382 layer_factory.hpp:77] Creating layer relu4_2
I1218 21:23:40.496814  4382 net.cpp:100] Creating Layer relu4_2
I1218 21:23:40.496821  4382 net.cpp:434] relu4_2 <- conv4_2
I1218 21:23:40.496830  4382 net.cpp:395] relu4_2 -> conv4_2 (in-place)
I1218 21:23:40.497355  4382 net.cpp:150] Setting up relu4_2
I1218 21:23:40.497370  4382 net.cpp:157] Top shape: 2 512 28 28 (802816)
I1218 21:23:40.497376  4382 net.cpp:165] Memory required for data: 217964576
I1218 21:23:40.497392  4382 layer_factory.hpp:77] Creating layer conv4_3
I1218 21:23:40.497413  4382 net.cpp:100] Creating Layer conv4_3
I1218 21:23:40.497426  4382 net.cpp:434] conv4_3 <- conv4_2
I1218 21:23:40.497437  4382 net.cpp:408] conv4_3 -> conv4_3
I1218 21:23:40.511533  4382 net.cpp:150] Setting up conv4_3
I1218 21:23:40.511571  4382 net.cpp:157] Top shape: 2 512 28 28 (802816)
I1218 21:23:40.511577  4382 net.cpp:165] Memory required for data: 221175840
I1218 21:23:40.511598  4382 layer_factory.hpp:77] Creating layer relu4_3
I1218 21:23:40.511613  4382 net.cpp:100] Creating Layer relu4_3
I1218 21:23:40.511622  4382 net.cpp:434] relu4_3 <- conv4_3
I1218 21:23:40.511631  4382 net.cpp:395] relu4_3 -> conv4_3 (in-place)
I1218 21:23:40.511793  4382 net.cpp:150] Setting up relu4_3
I1218 21:23:40.511803  4382 net.cpp:157] Top shape: 2 512 28 28 (802816)
I1218 21:23:40.511817  4382 net.cpp:165] Memory required for data: 224387104
I1218 21:23:40.511823  4382 layer_factory.hpp:77] Creating layer pool4
I1218 21:23:40.511835  4382 net.cpp:100] Creating Layer pool4
I1218 21:23:40.511840  4382 net.cpp:434] pool4 <- conv4_3
I1218 21:23:40.511849  4382 net.cpp:408] pool4 -> pool4
I1218 21:23:40.512018  4382 net.cpp:150] Setting up pool4
I1218 21:23:40.512029  4382 net.cpp:157] Top shape: 2 512 14 14 (200704)
I1218 21:23:40.512033  4382 net.cpp:165] Memory required for data: 225189920
I1218 21:23:40.512038  4382 layer_factory.hpp:77] Creating layer conv5_1
I1218 21:23:40.512053  4382 net.cpp:100] Creating Layer conv5_1
I1218 21:23:40.512058  4382 net.cpp:434] conv5_1 <- pool4
I1218 21:23:40.512065  4382 net.cpp:408] conv5_1 -> conv5_1
I1218 21:23:40.525764  4382 net.cpp:150] Setting up conv5_1
I1218 21:23:40.525792  4382 net.cpp:157] Top shape: 2 512 14 14 (200704)
I1218 21:23:40.525799  4382 net.cpp:165] Memory required for data: 225992736
I1218 21:23:40.525820  4382 layer_factory.hpp:77] Creating layer relu5_1
I1218 21:23:40.525831  4382 net.cpp:100] Creating Layer relu5_1
I1218 21:23:40.525841  4382 net.cpp:434] relu5_1 <- conv5_1
I1218 21:23:40.525852  4382 net.cpp:395] relu5_1 -> conv5_1 (in-place)
I1218 21:23:40.526010  4382 net.cpp:150] Setting up relu5_1
I1218 21:23:40.526021  4382 net.cpp:157] Top shape: 2 512 14 14 (200704)
I1218 21:23:40.526026  4382 net.cpp:165] Memory required for data: 226795552
I1218 21:23:40.526029  4382 layer_factory.hpp:77] Creating layer conv5_2
I1218 21:23:40.526042  4382 net.cpp:100] Creating Layer conv5_2
I1218 21:23:40.526049  4382 net.cpp:434] conv5_2 <- conv5_1
I1218 21:23:40.526057  4382 net.cpp:408] conv5_2 -> conv5_2
I1218 21:23:40.540220  4382 net.cpp:150] Setting up conv5_2
I1218 21:23:40.540243  4382 net.cpp:157] Top shape: 2 512 14 14 (200704)
I1218 21:23:40.540248  4382 net.cpp:165] Memory required for data: 227598368
I1218 21:23:40.540269  4382 layer_factory.hpp:77] Creating layer relu5_2
I1218 21:23:40.540280  4382 net.cpp:100] Creating Layer relu5_2
I1218 21:23:40.540289  4382 net.cpp:434] relu5_2 <- conv5_2
I1218 21:23:40.540300  4382 net.cpp:395] relu5_2 -> conv5_2 (in-place)
I1218 21:23:40.540457  4382 net.cpp:150] Setting up relu5_2
I1218 21:23:40.540467  4382 net.cpp:157] Top shape: 2 512 14 14 (200704)
I1218 21:23:40.540472  4382 net.cpp:165] Memory required for data: 228401184
I1218 21:23:40.540488  4382 layer_factory.hpp:77] Creating layer conv5_3
I1218 21:23:40.540501  4382 net.cpp:100] Creating Layer conv5_3
I1218 21:23:40.540506  4382 net.cpp:434] conv5_3 <- conv5_2
I1218 21:23:40.540514  4382 net.cpp:408] conv5_3 -> conv5_3
I1218 21:23:40.554025  4382 net.cpp:150] Setting up conv5_3
I1218 21:23:40.554047  4382 net.cpp:157] Top shape: 2 512 14 14 (200704)
I1218 21:23:40.554052  4382 net.cpp:165] Memory required for data: 229204000
I1218 21:23:40.554071  4382 layer_factory.hpp:77] Creating layer relu5_3
I1218 21:23:40.554081  4382 net.cpp:100] Creating Layer relu5_3
I1218 21:23:40.554090  4382 net.cpp:434] relu5_3 <- conv5_3
I1218 21:23:40.554100  4382 net.cpp:395] relu5_3 -> conv5_3 (in-place)
I1218 21:23:40.554541  4382 net.cpp:150] Setting up relu5_3
I1218 21:23:40.554553  4382 net.cpp:157] Top shape: 2 512 14 14 (200704)
I1218 21:23:40.554558  4382 net.cpp:165] Memory required for data: 230006816
I1218 21:23:40.554571  4382 layer_factory.hpp:77] Creating layer pool5
I1218 21:23:40.554587  4382 net.cpp:100] Creating Layer pool5
I1218 21:23:40.554594  4382 net.cpp:434] pool5 <- conv5_3
I1218 21:23:40.554612  4382 net.cpp:408] pool5 -> pool5
I1218 21:23:40.554810  4382 net.cpp:150] Setting up pool5
I1218 21:23:40.554821  4382 net.cpp:157] Top shape: 2 512 7 7 (50176)
I1218 21:23:40.554824  4382 net.cpp:165] Memory required for data: 230207520
I1218 21:23:40.554841  4382 layer_factory.hpp:77] Creating layer fc6
I1218 21:23:40.554852  4382 net.cpp:100] Creating Layer fc6
I1218 21:23:40.554857  4382 net.cpp:434] fc6 <- pool5
I1218 21:23:40.554864  4382 net.cpp:408] fc6 -> fc6
I1218 21:23:42.690295  4382 net.cpp:150] Setting up fc6
I1218 21:23:42.690394  4382 net.cpp:157] Top shape: 2 4096 (8192)
I1218 21:23:42.690402  4382 net.cpp:165] Memory required for data: 230240288
I1218 21:23:42.690412  4382 layer_factory.hpp:77] Creating layer relu6
I1218 21:23:42.690424  4382 net.cpp:100] Creating Layer relu6
I1218 21:23:42.690430  4382 net.cpp:434] relu6 <- fc6
I1218 21:23:42.690438  4382 net.cpp:395] relu6 -> fc6 (in-place)
I1218 21:23:42.690634  4382 net.cpp:150] Setting up relu6
I1218 21:23:42.690644  4382 net.cpp:157] Top shape: 2 4096 (8192)
I1218 21:23:42.690649  4382 net.cpp:165] Memory required for data: 230273056
I1218 21:23:42.690654  4382 layer_factory.hpp:77] Creating layer drop6
I1218 21:23:42.690662  4382 net.cpp:100] Creating Layer drop6
I1218 21:23:42.690667  4382 net.cpp:434] drop6 <- fc6
I1218 21:23:42.690673  4382 net.cpp:395] drop6 -> fc6 (in-place)
I1218 21:23:42.690706  4382 net.cpp:150] Setting up drop6
I1218 21:23:42.690716  4382 net.cpp:157] Top shape: 2 4096 (8192)
I1218 21:23:42.690721  4382 net.cpp:165] Memory required for data: 230305824
I1218 21:23:42.690724  4382 layer_factory.hpp:77] Creating layer fc7
I1218 21:23:42.690735  4382 net.cpp:100] Creating Layer fc7
I1218 21:23:42.690740  4382 net.cpp:434] fc7 <- fc6
I1218 21:23:42.690747  4382 net.cpp:408] fc7 -> fc7
I1218 21:23:43.042243  4382 net.cpp:150] Setting up fc7
I1218 21:23:43.042273  4382 net.cpp:157] Top shape: 2 4096 (8192)
I1218 21:23:43.042276  4382 net.cpp:165] Memory required for data: 230338592
I1218 21:23:43.042296  4382 layer_factory.hpp:77] Creating layer relu7
I1218 21:23:43.042305  4382 net.cpp:100] Creating Layer relu7
I1218 21:23:43.042315  4382 net.cpp:434] relu7 <- fc7
I1218 21:23:43.042323  4382 net.cpp:395] relu7 -> fc7 (in-place)
I1218 21:23:43.042934  4382 net.cpp:150] Setting up relu7
I1218 21:23:43.042946  4382 net.cpp:157] Top shape: 2 4096 (8192)
I1218 21:23:43.042951  4382 net.cpp:165] Memory required for data: 230371360
I1218 21:23:43.042955  4382 layer_factory.hpp:77] Creating layer drop7
I1218 21:23:43.042974  4382 net.cpp:100] Creating Layer drop7
I1218 21:23:43.042980  4382 net.cpp:434] drop7 <- fc7
I1218 21:23:43.042989  4382 net.cpp:395] drop7 -> fc7 (in-place)
I1218 21:23:43.043020  4382 net.cpp:150] Setting up drop7
I1218 21:23:43.043036  4382 net.cpp:157] Top shape: 2 4096 (8192)
I1218 21:23:43.043053  4382 net.cpp:165] Memory required for data: 230404128
I1218 21:23:43.043061  4382 layer_factory.hpp:77] Creating layer fc7_drop7_0_split
I1218 21:23:43.043068  4382 net.cpp:100] Creating Layer fc7_drop7_0_split
I1218 21:23:43.043073  4382 net.cpp:434] fc7_drop7_0_split <- fc7
I1218 21:23:43.043081  4382 net.cpp:408] fc7_drop7_0_split -> fc7_drop7_0_split_0
I1218 21:23:43.043089  4382 net.cpp:408] fc7_drop7_0_split -> fc7_drop7_0_split_1
I1218 21:23:43.043135  4382 net.cpp:150] Setting up fc7_drop7_0_split
I1218 21:23:43.043143  4382 net.cpp:157] Top shape: 2 4096 (8192)
I1218 21:23:43.043148  4382 net.cpp:157] Top shape: 2 4096 (8192)
I1218 21:23:43.043162  4382 net.cpp:165] Memory required for data: 230469664
I1218 21:23:43.043167  4382 layer_factory.hpp:77] Creating layer fc8-1
I1218 21:23:43.043176  4382 net.cpp:100] Creating Layer fc8-1
I1218 21:23:43.043181  4382 net.cpp:434] fc8-1 <- fc7_drop7_0_split_0
I1218 21:23:43.043190  4382 net.cpp:408] fc8-1 -> fc8-1
I1218 21:23:43.044020  4382 net.cpp:150] Setting up fc8-1
I1218 21:23:43.044029  4382 net.cpp:157] Top shape: 2 9 (18)
I1218 21:23:43.044034  4382 net.cpp:165] Memory required for data: 230469736
I1218 21:23:43.044054  4382 layer_factory.hpp:77] Creating layer fc8-1_fc8-1_0_split
I1218 21:23:43.044059  4382 net.cpp:100] Creating Layer fc8-1_fc8-1_0_split
I1218 21:23:43.044066  4382 net.cpp:434] fc8-1_fc8-1_0_split <- fc8-1
I1218 21:23:43.044076  4382 net.cpp:408] fc8-1_fc8-1_0_split -> fc8-1_fc8-1_0_split_0
I1218 21:23:43.044085  4382 net.cpp:408] fc8-1_fc8-1_0_split -> fc8-1_fc8-1_0_split_1
I1218 21:23:43.044127  4382 net.cpp:150] Setting up fc8-1_fc8-1_0_split
I1218 21:23:43.044134  4382 net.cpp:157] Top shape: 2 9 (18)
I1218 21:23:43.044152  4382 net.cpp:157] Top shape: 2 9 (18)
I1218 21:23:43.044167  4382 net.cpp:165] Memory required for data: 230469880
I1218 21:23:43.044173  4382 layer_factory.hpp:77] Creating layer euclidean
I1218 21:23:43.044183  4382 net.cpp:100] Creating Layer euclidean
I1218 21:23:43.044188  4382 net.cpp:434] euclidean <- fc7_drop7_0_split_1
I1218 21:23:43.044193  4382 net.cpp:434] euclidean <- label_data_1_split_0
I1218 21:23:43.044200  4382 net.cpp:408] euclidean -> euclidean
I1218 21:23:43.044210  4382 net.cpp:408] euclidean -> label_dif
I1218 21:23:43.044260  4382 net.cpp:150] Setting up euclidean
I1218 21:23:43.044266  4382 net.cpp:157] Top shape: 1 4096 1 1 (4096)
I1218 21:23:43.044275  4382 net.cpp:157] Top shape: 1 (1)
I1218 21:23:43.044279  4382 net.cpp:165] Memory required for data: 230486268
I1218 21:23:43.044283  4382 layer_factory.hpp:77] Creating layer fc8-1_dif
I1218 21:23:43.044292  4382 net.cpp:100] Creating Layer fc8-1_dif
I1218 21:23:43.044297  4382 net.cpp:434] fc8-1_dif <- euclidean
I1218 21:23:43.044304  4382 net.cpp:408] fc8-1_dif -> fc8-1_dif
I1218 21:23:43.044556  4382 net.cpp:150] Setting up fc8-1_dif
I1218 21:23:43.044567  4382 net.cpp:157] Top shape: 1 2 (2)
I1218 21:23:43.044574  4382 net.cpp:165] Memory required for data: 230486276
I1218 21:23:43.044585  4382 layer_factory.hpp:77] Creating layer loss
I1218 21:23:43.044594  4382 net.cpp:100] Creating Layer loss
I1218 21:23:43.044600  4382 net.cpp:434] loss <- fc8-1_fc8-1_0_split_0
I1218 21:23:43.044606  4382 net.cpp:434] loss <- label_data_1_split_1
I1218 21:23:43.044615  4382 net.cpp:408] loss -> loss
…
