…
  transform_param {
    mirror: true
    crop_size: 224
    mean_value: 102.691
    mean_value: 128.77
    mean_value: 131.293
    erase_ratio: 0.5
    scale_min: 0.02
    scale_max: 0.5
    aspect_min: 0.3
    aspect_max: 3.3
    rotate_ratio: 0.5
    rotate_min: -10
    rotate_max: 10
  }
  image_data_param {
    source: "data/apple_disease/train.txt"
    batch_size: 2
    shuffle: true
    new_height: 256
    new_width: 256
    root_folder: "/media/agwang/\346\226\260\345\212\240\345\215\267/DataSets/Competitions/AppleDiseases/"
    show_data: true
  }
}
layer {
  name: "conv1"
  type: "Convolution"
  bottom: "data"
  top: "conv1"
  param {
    lr_mult: 0
  }
  param {
    lr_mult: 0
  }
  convolution_param {
    num_output: 64
    pad: 3
    kernel_size: 7
    stride: 2
  }
}
layer {
  name: "bn_conv1"
  type: "BatchNorm"
  bottom: "conv1"
  top: "conv1"
  batch_norm_param {
    use_global_stats: true
  }
}
layer {
  name: "scale_conv1"
  type: "Scale"
  bottom: "conv1"
  top: "conv1"
  param {
    lr_mult: 0
    decay_mult: 0
  }
  param {
    lr_mult: 0
    decay_mult: 0
  }
  scale_param {
    bias_term: true
  }
}
layer {
  name: "conv1_relu"
  type: "ReLU"
  bottom: "conv1"
  top: "conv1"
}
layer {
  name: "pool1"
  type: "Pooling"
  bottom: "conv1"
  top: "pool1"
  pooling_param {
    pool: MAX
    kernel_size: 3
    stride: 2
  }
}
layer {
  name: "res2a_branch1"
  type: "Convolution"
  bottom: "pool1"
  top: "res2a_branch1"
  param {
    lr_mult: 0
  }
  convolution_param {
    num_output: 256
    bias_term: false
    pad: 0
    kernel_size: 1
    stride: 1
  }
}
layer {
  name: "bn2a_branch1"
  type: "BatchNorm"
  bottom: "res2a_branch1"
  top: "res2a_branch1"
  batch_norm_param {
    use_global_stats: true
  }
}
layer {
  name: "scale2a_branch1"
  type: "Scale"
  bottom: "res2a_branch1"
  top: "res2a_branch1"
  param {
    lr_mult: 0
    decay_mult: 0
  }
  param {
    lr_mult: 0
    decay_mult: 0
  }
  scale_param {
    bias_term: true
  }
}
layer {
  name: "res2a_branch2a"
  type: "Convolution"
  bottom: "pool1"
  top: "res2a_branch2a"
  param {
    lr_mult: 0
  }
  convolution_param {
    num_output: 64
    bias_term: false
    pad: 0
    kernel_size: 1
    stride: 1
  }
}
layer {
  name: "bn2a_branch2a"
  type: "BatchNorm"
  bottom: "res2a_branch2a"
  top: "res2a_branch2a"
  batch_norm_param {
    use_global_stats: true
  }
}
layer {
  name: "scale2a_branch2a"
  type: "Scale"
  bottom: "res2a_branch2a"
  top: "res2a_branch2a"
  param {
    lr_mult: 0
    decay_mult: 0
  }
  param {
    lr_mult: 0
    decay_mult: 0
  }
  scale_param {
    bias_term: true
  }
}
layer {
  name: "res2a_branch2a_relu"
  type: "ReLU"
  bottom: "res2a_branch2a"
  top: "res2a_branch2a"
}
layer {
  name: "res2a_branch2b"
  type: "Convolution"
  bottom: "res2a_branch2a"
  top: "res2a_branch2b"
  param {
    lr_mult: 0
  }
  convolution_param {
    num_output: 64
    bias_term: false
    pad: 1
    kernel_size: 3
    stride: 1
  }
}
layer {
  name: "bn2a_branch2b"
  type: "BatchNorm"
  bottom: "res2a_branch2b"
  top: "res2a_branch2b"
  batch_norm_param {
    use_global_stats: true
  }
}
layer {
  name: "scale2a_branch2b"
  type: "Scale"
  bottom: "res2a_branch2b"
  top: "res2a_branch2b"
  param {
    lr_mult: 0
    decay_mult: 0
  }
  param {
    lr_mult: 0
    decay_mult: 0
  }
  scale_param {
    bias_term: true
  }
}
layer {
  name: "res2a_branch2b_relu"
  type: "ReLU"
  bottom: "res2a_branch2b"
  top: "res2a_branch2b"
}
layer {
  name: "res2a_branch2c"
  type: "Convolution"
  bottom: "res2a_branch2b"
  top: "res2a_branch2c"
  param {
    lr_mult: 0
  }
  convolution_param {
    num_output: 256
    bias_term: false
    pad: 0
    kernel_size: 1
    stride: 1
  }
}
layer {
  name: "bn2a_branch2c"
  type: "BatchNorm"
  bottom: "res2a_branch2c"
  top: "res2a_branch2c"
  batch_norm_param {
    use_global_stats: true
  }
}
layer {
  name: "scale2a_branch2c"
  type: "Scale"
  bottom: "res2a_branch2c"
  top: "res2a_branch2c"
  param {
    lr_mult: 0
    decay_mult: 0
  }
  param {
    lr_mult: 0
    decay_mult: 0
  }
  scale_param {
    bias_term: true
  }
}
layer {
  name: "res2a"
  type: "Eltwise"
  bottom: "res2a_branch1"
  bottom: "res2a_branch2c"
  top: "res2a"
}
layer {
  name: "res2a_relu"
  type: "ReLU"
  bottom: "res2a"
  top: "res2a"
}
layer {
  name: "res2b_branch2a"
  type: "Convolution"
  bottom: "res2a"
  top: "res2b_branch2a"
  param {
    lr_mult: 0
  }
  convolution_param {
    num_output: 64
    bias_term: false
    pad: 0
    kernel_size: 1
    stride: 1
  }
}
layer {
  name: "bn2b_branch2a"
  type: "BatchNorm"
  bottom: "res2b_branch2a"
  top: "res2b_branch2a"
  batch_norm_param {
    use_global_stats: true
  }
}
layer {
  name: "scale2b_branch2a"
  type: "Scale"
  bottom: "res2b_branch2a"
  top: "res2b_branch2a"
  param {
    lr_mult: 0
    decay_mult: 0
  }
  param {
    lr_mult: 0
    decay_mult: 0
  }
  scale_param {
    bias_term: true
  }
}
layer {
  name: "res2b_branch2a_relu"
  type: "ReLU"
  bottom: "res2b_branch2a"
  top: "res2b_branch2a"
}
layer {
  name: "res2b_branch2b"
  type: "Convolution"
  bottom: "res2b_branch2a"
  top: "res2b_branch2b"
  param {
    lr_mult: 0
  }
  convolution_param {
    num_output: 64
    bias_term: false
    pad: 1
    kernel_size: 3
    stride: 1
  }
}
layer {
  name: "bn2b_branch2b"
  type: "BatchNorm"
  bottom: "res2b_branch2b"
  top: "res2b_branch2b"
  batch_norm_param {
    use_global_stats: true
  }
}
layer {
  name: "scale2b_branch2b"
  type: "Scale"
  bottom: "res2b_branch2b"
  top: "res2b_branch2b"
  param {
    lr_mult: 0
    decay_mult: 0
  }
  param {
    lr_mult: 0
    decay_mult: 0
  }
  scale_param {
    bias_term: true
  }
}
layer {
  name: "res2b_branch2b_relu"
  type: "ReLU"
  bottom: "res2b_branch2b"
  top: "res2b_branch2b"
}
layer {
  name: "res2b_branch2c"
  type: "Convolution"
  bottom: "res2b_branch2b"
  top: "res2b_branch2c"
  param {
    lr_mult: 0
  }
  convolution_param {
    num_output: 256
    bias_term: false
    pad: 0
    kernel_size: 1
    stride: 1
  }
}
layer {
  name: "bn2b_branch2c"
  type: "BatchNorm"
  bottom: "res2b_branch2c"
  top: "res2b_branch2c"
  batch_norm_param {
    use_global_stats: true
  }
}
layer {
  name: "scale2b_branch2c"
  type: "Scale"
  bottom: "res2b_branch2c"
  top: "res2b_branch2c"
  param {
    lr_mult: 0
    decay_mult: 0
  }
  param {
    lr_mult: 0
    decay_mult: 0
  }
  scale_param {
    bias_term: true
  }
}
layer {
  name: "res2b"
  type: "Eltwise"
  bottom: "res2a"
  bottom: "res2b_branch2c"
  top: "res2b"
}
layer {
  name: "res2b_relu"
  type: "ReLU"
  bottom: "res2b"
  top: "res2b"
}
layer {
  name: "res2c_branch2a"
  type: "Convolution"
  bottom: "res2b"
  top: "res2c_branch2a"
  param {
    lr_mult: 0
  }
  convolution_param {
    num_output: 64
    bias_term: false
    pad: 0
    kernel_size: 1
    stride: 1
  }
}
layer {
  name: "bn2c_branch2a"
  type: "BatchNorm"
  bottom: "res2c_branch2a"
  top: "res2c_branch2a"
  batch_norm_param {
    use_global_stats: true
  }
}
layer {
  name: "scale2c_branch2a"
  type: "Scale"
  bottom: "res2c_branch2a"
  top: "res2c_branch2a"
  param {
    lr_mult: 0
    decay_mult: 0
  }
  param {
    lr_mult: 0
    decay_mult: 0
  }
  scale_param {
    bias_term: true
  }
}
layer {
  name: "res2c_branch2a_relu"
  type: "ReLU"
  bottom: "res2c_branch2a"
  top: "res2c_branch2a"
}
layer {
  name: "res2c_branch2b"
  type: "Convolution"
  bottom: "res2c_branch2a"
  top: "res2c_branch2b"
  param {
    lr_mult: 0
  }
  convolution_param {
    num_output: 64
    bias_term: false
    pad: 1
    kernel_size: 3
    stride: 1
  }
}
layer {
  name: "bn2c_branch2b"
  type: "BatchNorm"
  bottom: "res2c_branch2b"
  top: "res2c_branch2b"
  batch_norm_param {
    use_global_stats: true
  }
}
layer {
  name: "scale2c_branch2b"
  type: "Scale"
  bottom: "res2c_branch2b"
  top: "res2c_branch2b"
  param {
    lr_mult: 0
    decay_mult: 0
  }
  param {
    lr_mult: 0
    decay_mult: 0
  }
  scale_param {
    bias_term: true
  }
}
layer {
  name: "res2c_branch2b_relu"
  type: "ReLU"
  bottom: "res2c_branch2b"
  top: "res2c_branch2b"
}
layer {
  name: "res2c_branch2c"
  type: "Convolution"
  bottom: "res2c_branch2b"
  top: "res2c_branch2c"
  param {
    lr_mult: 0
  }
  convolution_param {
    num_output: 256
    bias_term: false
    pad: 0
    kernel_size: 1
    stride: 1
  }
}
layer {
  name: "bn2c_branch2c"
  type: "BatchNorm"
  bottom: "res2c_branch2c"
  top: "res2c_branch2c"
  batch_norm_param {
    use_global_stats: true
  }
}
layer {
  name: "scale2c_branch2c"
  type: "Scale"
  bottom: "res2c_branch2c"
  top: "res2c_branch2c"
  param {
    lr_mult: 0
    decay_mult: 0
  }
  param {
    lr_mult: 0
    decay_mult: 0
  }
  scale_param {
    bias_term: true
  }
}
layer {
  name: "res2c"
  type: "Eltwise"
  bottom: "res2b"
  bottom: "res2c_branch2c"
  top: "res2c"
}
layer {
  name: "res2c_relu"
  type: "ReLU"
  bottom: "res2c"
  top: "res2c"
}
layer {
  name: "res3a_branch1"
  type: "Convolution"
  bottom: "res2c"
  top: "res3a_branch1"
  param {
    lr_mult: 1
  }
  convolution_param {
    num_output: 512
    bias_term: false
    pad: 0
    kernel_size: 1
    stride: 2
  }
}
layer {
  name: "bn3a_branch1"
  type: "BatchNorm"
  bottom: "res3a_branch1"
  top: "res3a_branch1"
  batch_norm_param {
    use_global_stats: true
  }
}
layer {
  name: "scale3a_branch1"
  type: "Scale"
  bottom: "res3a_branch1"
  top: "res3a_branch1"
  param {
    lr_mult: 0
    decay_mult: 0
  }
  param {
    lr_mult: 0
    decay_mult: 0
  }
  scale_param {
    bias_term: true
  }
}
layer {
  name: "res3a_branch2a"
  type: "Convolution"
  bottom: "res2c"
  top: "res3a_branch2a"
  param {
    lr_mult: 1
  }
  convolution_param {
    num_output: 128
    bias_term: false
    pad: 0
    kernel_size: 1
    stride: 2
  }
}
layer {
  name: "bn3a_branch2a"
  type: "BatchNorm"
  bottom: "res3a_branch2a"
  top: "res3a_branch2a"
  batch_norm_param {
    use_global_stats: true
  }
}
layer {
  name: "scale3a_branch2a"
  type: "Scale"
  bottom: "res3a_branch2a"
  top: "res3a_branch2a"
  param {
    lr_mult: 0
    decay_mult: 0
  }
  param {
    lr_mult: 0
    decay_mult: 0
  }
  scale_param {
    bias_term: true
  }
}
layer {
  name: "res3a_branch2a_relu"
  type: "ReLU"
  bottom: "res3a_branch2a"
  top: "res3a_branch2a"
}
layer {
  name: "res3a_branch2b"
  type: "Convolution"
  bottom: "res3a_branch2a"
  top: "res3a_branch2b"
  param {
    lr_mult: 1
  }
  convolution_param {
    num_output: 128
    bias_term: false
    pad: 1
    kernel_size: 3
    stride: 1
  }
}
layer {
  name: "bn3a_branch2b"
  type: "BatchNorm"
  bottom: "res3a_branch2b"
  top: "res3a_branch2b"
  batch_norm_param {
    use_global_stats: true
  }
}
layer {
  name: "scale3a_branch2b"
  type: "Scale"
  bottom: "res3a_branch2b"
  top: "res3a_branch2b"
  param {
    lr_mult: 0
    decay_mult: 0
  }
  param {
    lr_mult: 0
    decay_mult: 0
  }
  scale_param {
    bias_term: true
  }
}
layer {
  name: "res3a_branch2b_relu"
  type: "ReLU"
  bottom: "res3a_branch2b"
  top: "res3a_branch2b"
}
layer {
  name: "res3a_branch2c"
  type: "Convolution"
  bottom: "res3a_branch2b"
  top: "res3a_branch2c"
  param {
    lr_mult: 1
  }
  convolution_param {
    num_output: 512
    bias_term: false
    pad: 0
    kernel_size: 1
    stride: 1
  }
}
layer {
  name: "bn3a_branch2c"
  type: "BatchNorm"
  bottom: "res3a_branch2c"
  top: "res3a_branch2c"
  batch_norm_param {
    use_global_stats: true
  }
}
layer {
  name: "scale3a_branch2c"
  type: "Scale"
  bottom: "res3a_branch2c"
  top: "res3a_branch2c"
  param {
    lr_mult: 0
    decay_mult: 0
  }
  param {
    lr_mult: 0
    decay_mult: 0
  }
  scale_param {
    bias_term: true
  }
}
layer {
  name: "res3a"
  type: "Eltwise"
  bottom: "res3a_branch1"
  bottom: "res3a_branch2c"
  top: "res3a"
}
layer {
  name: "res3a_relu"
  type: "ReLU"
  bottom: "res3a"
  top: "res3a"
}
layer {
  name: "res3b_branch2a"
  type: "Convolution"
  bottom: "res3a"
  top: "res3b_branch2a"
  param {
    lr_mult: 1
  }
  convolution_param {
    num_output: 128
    bias_term: false
    pad: 0
    kernel_size: 1
    stride: 1
  }
}
layer {
  name: "bn3b_branch2a"
  type: "BatchNorm"
  bottom: "res3b_branch2a"
  top: "res3b_branch2a"
  batch_norm_param {
    use_global_stats: true
  }
}
layer {
  name: "scale3b_branch2a"
  type: "Scale"
  bottom: "res3b_branch2a"
  top: "res3b_branch2a"
  param {
    lr_mult: 0
    decay_mult: 0
  }
  param {
    lr_mult: 0
    decay_mult: 0
  }
  scale_param {
    bias_term: true
  }
}
layer {
  name: "res3b_branch2a_relu"
  type: "ReLU"
  bottom: "res3b_branch2a"
  top: "res3b_branch2a"
}
layer {
  name: "res3b_branch2b"
  type: "Convolution"
  bottom: "res3b_branch2a"
  top: "res3b_branch2b"
  param {
    lr_mult: 1
  }
  convolution_param {
    num_output: 128
    bias_term: false
    pad: 1
    kernel_size: 3
    stride: 1
  }
}
layer {
  name: "bn3b_branch2b"
  type: "BatchNorm"
  bottom: "res3b_branch2b"
  top: "res3b_branch2b"
  batch_norm_param {
    use_global_stats: true
  }
}
layer {
  name: "scale3b_branch2b"
  type: "Scale"
  bottom: "res3b_branch2b"
  top: "res3b_branch2b"
  param {
    lr_mult: 0
    decay_mult: 0
  }
  param {
    lr_mult: 0
    decay_mult: 0
  }
  scale_param {
    bias_term: true
  }
}
layer {
  name: "res3b_branch2b_relu"
  type: "ReLU"
  bottom: "res3b_branch2b"
  top: "res3b_branch2b"
}
layer {
  name: "res3b_branch2c"
  type: "Convolution"
  bottom: "res3b_branch2b"
  top: "res3b_branch2c"
  param {
    lr_mult: 1
  }
  convolution_param {
    num_output: 512
    bias_term: false
    pad: 0
    kernel_size: 1
    stride: 1
  }
}
layer {
  name: "bn3b_branch2c"
  type: "BatchNorm"
  bottom: "res3b_branch2c"
  top: "res3b_branch2c"
  batch_norm_param {
    use_global_stats: true
  }
}
layer {
  name: "scale3b_branch2c"
  type: "Scale"
  bottom: "res3b_branch2c"
  top: "res3b_branch2c"
  param {
    lr_mult: 0
    decay_mult: 0
  }
  param {
    lr_mult: 0
    decay_mult: 0
  }
  scale_param {
    bias_term: true
  }
}
layer {
  name: "res3b"
  type: "Eltwise"
  bottom: "res3a"
  bottom: "res3b_branch2c"
  top: "res3b"
}
layer {
  name: "res3b_relu"
  type: "ReLU"
  bottom: "res3b"
  top: "res3b"
}
layer {
  name: "res3c_branch2a"
  type: "Convolution"
  bottom: "res3b"
  top: "res3c_branch2a"
  param {
    lr_mult: 1
  }
  convolution_param {
    num_output: 128
    bias_term: false
    pad: 0
    kernel_size: 1
    stride: 1
  }
}
layer {
  name: "bn3c_branch2a"
  type: "BatchNorm"
  bottom: "res3c_branch2a"
  top: "res3c_branch2a"
  batch_norm_param {
    use_global_stats: true
  }
}
layer {
  name: "scale3c_branch2a"
  type: "Scale"
  bottom: "res3c_branch2a"
  top: "res3c_branch2a"
  param {
    lr_mult: 0
    decay_mult: 0
  }
  param {
    lr_mult: 0
    decay_mult: 0
  }
  scale_param {
    bias_term: true
  }
}
layer {
  name: "res3c_branch2a_relu"
  type: "ReLU"
  bottom: "res3c_branch2a"
  top: "res3c_branch2a"
}
layer {
  name: "res3c_branch2b"
  type: "Convolution"
  bottom: "res3c_branch2a"
  top: "res3c_branch2b"
  param {
    lr_mult: 1
  }
  convolution_param {
    num_output: 128
    bias_term: false
    pad: 1
    kernel_size: 3
    stride: 1
  }
}
layer {
  name: "bn3c_branch2b"
  type: "BatchNorm"
  bottom: "res3c_branch2b"
  top: "res3c_branch2b"
  batch_norm_param {
    use_global_stats: true
  }
}
layer {
  name: "scale3c_branch2b"
  type: "Scale"
  bottom: "res3c_branch2b"
  top: "res3c_branch2b"
  param {
    lr_mult: 0
    decay_mult: 0
  }
  param {
    lr_mult: 0
    decay_mult: 0
  }
  scale_param {
    bias_term: true
  }
}
layer {
  name: "res3c_branch2b_relu"
  type: "ReLU"
  bottom: "res3c_branch2b"
  top: "res3c_branch2b"
}
layer {
  name: "res3c_branch2c"
  type: "Convolution"
  bottom: "res3c_branch2b"
  top: "res3c_branch2c"
  param {
    lr_mult: 1
  }
  convolution_param {
    num_output: 512
    bias_term: false
    pad: 0
    kernel_size: 1
    stride: 1
  }
}
layer {
  name: "bn3c_branch2c"
  type: "BatchNorm"
  bottom: "res3c_branch2c"
  top: "res3c_branch2c"
  batch_norm_param {
    use_global_stats: true
  }
}
layer {
  name: "scale3c_branch2c"
  type: "Scale"
  bottom: "res3c_branch2c"
  top: "res3c_branch2c"
  param {
    lr_mult: 0
    decay_mult: 0
  }
  param {
    lr_mult: 0
    decay_mult: 0
  }
  scale_param {
    bias_term: true
  }
}
layer {
  name: "res3c"
  type: "Eltwise"
  bottom: "res3b"
  bottom: "res3c_branch2c"
  top: "res3c"
}
layer {
  name: "res3c_relu"
  type: "ReLU"
  bottom: "res3c"
  top: "res3c"
}
layer {
  name: "res3d_branch2a"
  type: "Convolution"
  bottom: "res3c"
  top: "res3d_branch2a"
  param {
    lr_mult: 1
  }
  convolution_param {
    num_output: 128
    bias_term: false
    pad: 0
    kernel_size: 1
    stride: 1
  }
}
layer {
  name: "bn3d_branch2a"
  type: "BatchNorm"
  bottom: "res3d_branch2a"
  top: "res3d_branch2a"
  batch_norm_param {
    use_global_stats: true
  }
}
layer {
  name: "scale3d_branch2a"
  type: "Scale"
  bottom: "res3d_branch2a"
  top: "res3d_branch2a"
  param {
    lr_mult: 0
    decay_mult: 0
  }
  param {
    lr_mult: 0
    decay_mult: 0
  }
  scale_param {
    bias_term: true
  }
}
layer {
  name: "res3d_branch2a_relu"
  type: "ReLU"
  bottom: "res3d_branch2a"
  top: "res3d_branch2a"
}
layer {
  name: "res3d_branch2b"
  type: "Convolution"
  bottom: "res3d_branch2a"
  top: "res3d_branch2b"
  param {
    lr_mult: 1
  }
  convolution_param {
    num_output: 128
    bias_term: false
    pad: 1
    kernel_size: 3
    stride: 1
  }
}
layer {
  name: "bn3d_branch2b"
  type: "BatchNorm"
  bottom: "res3d_branch2b"
  top: "res3d_branch2b"
  batch_norm_param {
    use_global_stats: true
  }
}
layer {
  name: "scale3d_branch2b"
  type: "Scale"
  bottom: "res3d_branch2b"
  top: "res3d_branch2b"
  param {
    lr_mult: 0
    decay_mult: 0
  }
  param {
    lr_mult: 0
    decay_mult: 0
  }
  scale_param {
    bias_term: true
  }
}
layer {
  name: "res3d_branch2b_relu"
  type: "ReLU"
  bottom: "res3d_branch2b"
  top: "res3d_branch2b"
}
layer {
  name: "res3d_branch2c"
  type: "Convolution"
  bottom: "res3d_branch2b"
  top: "res3d_branch2c"
  param {
    lr_mult: 1
  }
  convolution_param {
    num_output: 512
    bias_term: false
    pad: 0
    kernel_size: 1
    stride: 1
  }
}
layer {
  name: "bn3d_branch2c"
  type: "BatchNorm"
  bottom: "res3d_branch2c"
  top: "res3d_branch2c"
  batch_norm_param {
    use_global_stats: true
  }
}
layer {
  name: "scale3d_branch2c"
  type: "Scale"
  bottom: "res3d_branch2c"
  top: "res3d_branch2c"
  param {
    lr_mult: 0
    decay_mult: 0
  }
  param {
    lr_mult: 0
    decay_mult: 0
  }
  scale_param {
    bias_term: true
  }
}
layer {
  name: "res3d"
  type: "Eltwise"
  bottom: "res3c"
  bottom: "res3d_branch2c"
  top: "res3d"
}
layer {
  name: "res3d_relu"
  type: "ReLU"
  bottom: "res3d"
  top: "res3d"
}
layer {
  name: "res4a_branch1"
  type: "Convolution"
  bottom: "res3d"
  top: "res4a_branch1"
  param {
    lr_mult: 1
  }
  convolution_param {
    num_output: 1024
    bias_term: false
    pad: 0
    kernel_size: 1
    stride: 2
  }
}
layer {
  name: "bn4a_branch1"
  type: "BatchNorm"
  bottom: "res4a_branch1"
  top: "res4a_branch1"
  batch_norm_param {
    use_global_stats: true
  }
}
layer {
  name: "scale4a_branch1"
  type: "Scale"
  bottom: "res4a_branch1"
  top: "res4a_branch1"
  param {
    lr_mult: 0
    decay_mult: 0
  }
  param {
    lr_mult: 0
    decay_mult: 0
  }
  scale_param {
    bias_term: true
  }
}
layer {
  name: "res4a_branch2a"
  type: "Convolution"
  bottom: "res3d"
  top: "res4a_branch2a"
  param {
    lr_mult: 1
  }
  convolution_param {
    num_output: 256
    bias_term: false
    pad: 0
    kernel_size: 1
    stride: 2
  }
}
layer {
  name: "bn4a_branch2a"
  type: "BatchNorm"
  bottom: "res4a_branch2a"
  top: "res4a_branch2a"
  batch_norm_param {
    use_global_stats: true
  }
}
layer {
  name: "scale4a_branch2a"
  type: "Scale"
  bottom: "res4a_branch2a"
  top: "res4a_branch2a"
  param {
    lr_mult: 0
    decay_mult: 0
  }
  param {
    lr_mult: 0
    decay_mult: 0
  }
  scale_param {
    bias_term: true
  }
}
layer {
  name: "res4a_branch2a_relu"
  type: "ReLU"
  bottom: "res4a_branch2a"
  top: "res4a_branch2a"
}
layer {
  name: "res4a_branch2b"
  type: "Convolution"
  bottom: "res4a_branch2a"
  top: "res4a_branch2b"
  param {
    lr_mult: 1
  }
  convolution_param {
    num_output: 256
    bias_term: false
    pad: 1
    kernel_size: 3
    stride: 1
  }
}
layer {
  name: "bn4a_branch2b"
  type: "BatchNorm"
  bottom: "res4a_branch2b"
  top: "res4a_branch2b"
  batch_norm_param {
    use_global_stats: true
  }
}
layer {
  name: "scale4a_branch2b"
  type: "Scale"
  bottom: "res4a_branch2b"
  top: "res4a_branch2b"
  param {
    lr_mult: 0
    decay_mult: 0
  }
  param {
    lr_mult: 0
    decay_mult: 0
  }
  scale_param {
    bias_term: true
  }
}
layer {
  name: "res4a_branch2b_relu"
  type: "ReLU"
  bottom: "res4a_branch2b"
  top: "res4a_branch2b"
}
layer {
  name: "res4a_branch2c"
  type: "Convolution"
  bottom: "res4a_branch2b"
  top: "res4a_branch2c"
  param {
    lr_mult: 1
  }
  convolution_param {
    num_output: 1024
    bias_term: false
    pad: 0
    kernel_size: 1
    stride: 1
  }
}
layer {
  name: "bn4a_branch2c"
  type: "BatchNorm"
  bottom: "res4a_branch2c"
  top: "res4a_branch2c"
  batch_norm_param {
    use_global_stats: true
  }
}
layer {
  name: "scale4a_branch2c"
  type: "Scale"
  bottom: "res4a_branch2c"
  top: "res4a_branch2c"
  param {
    lr_mult: 0
    decay_mult: 0
  }
  param {
    lr_mult: 0
    decay_mult: 0
  }
  scale_param {
    bias_term: true
  }
}
layer {
  name: "res4a"
  type: "Eltwise"
  bottom: "res4a_branch1"
  bottom: "res4a_branch2c"
  top: "res4a"
}
layer {
  name: "res4a_relu"
  type: "ReLU"
  bottom: "res4a"
  top: "res4a"
}
layer {
  name: "res4b_branch2a"
  type: "Convolution"
  bottom: "res4a"
  top: "res4b_branch2a"
  param {
    lr_mult: 1
  }
  convolution_param {
    num_output: 256
    bias_term: false
    pad: 0
    kernel_size: 1
    stride: 1
  }
}
layer {
  name: "bn4b_branch2a"
  type: "BatchNorm"
  bottom: "res4b_branch2a"
  top: "res4b_branch2a"
  batch_norm_param {
    use_global_stats: true
  }
}
layer {
  name: "scale4b_branch2a"
  type: "Scale"
  bottom: "res4b_branch2a"
  top: "res4b_branch2a"
  param {
    lr_mult: 0
    decay_mult: 0
  }
  param {
    lr_mult: 0
    decay_mult: 0
  }
  scale_param {
    bias_term: true
  }
}
layer {
  name: "res4b_branch2a_relu"
  type: "ReLU"
  bottom: "res4b_branch2a"
  top: "res4b_branch2a"
}
layer {
  name: "res4b_branch2b"
  type: "Convolution"
  bottom: "res4b_branch2a"
  top: "res4b_branch2b"
  param {
    lr_mult: 1
  }
  convolution_param {
    num_output: 256
    bias_term: false
    pad: 1
    kernel_size: 3
    stride: 1
  }
}
layer {
  name: "bn4b_branch2b"
  type: "BatchNorm"
  bottom: "res4b_branch2b"
  top: "res4b_branch2b"
  batch_norm_param {
    use_global_stats: true
  }
}
layer {
  name: "scale4b_branch2b"
  type: "Scale"
  bottom: "res4b_branch2b"
  top: "res4b_branch2b"
  param {
    lr_mult: 0
    decay_mult: 0
  }
  param {
    lr_mult: 0
    decay_mult: 0
  }
  scale_param {
    bias_term: true
  }
}
layer {
  name: "res4b_branch2b_relu"
  type: "ReLU"
  bottom: "res4b_branch2b"
  top: "res4b_branch2b"
}
layer {
  name: "res4b_branch2c"
  type: "Convolution"
  bottom: "res4b_branch2b"
  top: "res4b_branch2c"
  param {
    lr_mult: 1
  }
  convolution_param {
    num_output: 1024
    bias_term: false
    pad: 0
    kernel_size: 1
    stride: 1
  }
}
layer {
  name: "bn4b_branch2c"
  type: "BatchNorm"
  bottom: "res4b_branch2c"
  top: "res4b_branch2c"
  batch_norm_param {
    use_global_stats: true
  }
}
layer {
  name: "scale4b_branch2c"
  type: "Scale"
  bottom: "res4b_branch2c"
  top: "res4b_branch2c"
  param {
    lr_mult: 0
    decay_mult: 0
  }
  param {
    lr_mult: 0
    decay_mult: 0
  }
  scale_param {
    bias_term: true
  }
}
layer {
  name: "res4b"
  type: "Eltwise"
  bottom: "res4a"
  bottom: "res4b_branch2c"
  top: "res4b"
}
layer {
  name: "res4b_relu"
  type: "ReLU"
  bottom: "res4b"
  top: "res4b"
}
layer {
  name: "res4c_branch2a"
  type: "Convolution"
  bottom: "res4b"
  top: "res4c_branch2a"
  param {
    lr_mult: 1
  }
  convolution_param {
    num_output: 256
    bias_term: false
    pad: 0
    kernel_size: 1
    stride: 1
  }
}
layer {
  name: "bn4c_branch2a"
  type: "BatchNorm"
  bottom: "res4c_branch2a"
  top: "res4c_branch2a"
  batch_norm_param {
    use_global_stats: true
  }
}
layer {
  name: "scale4c_branch2a"
  type: "Scale"
  bottom: "res4c_branch2a"
  top: "res4c_branch2a"
  param {
    lr_mult: 0
    decay_mult: 0
  }
  param {
    lr_mult: 0
    decay_mult: 0
  }
  scale_param {
    bias_term: true
  }
}
layer {
  name: "res4c_branch2a_relu"
  type: "ReLU"
  bottom: "res4c_branch2a"
  top: "res4c_branch2a"
}
layer {
  name: "res4c_branch2b"
  type: "Convolution"
  bottom: "res4c_branch2a"
  top: "res4c_branch2b"
  param {
    lr_mult: 1
  }
  convolution_param {
    num_output: 256
    bias_term: false
    pad: 1
    kernel_size: 3
    stride: 1
  }
}
layer {
  name: "bn4c_branch2b"
  type: "BatchNorm"
  bottom: "res4c_branch2b"
  top: "res4c_branch2b"
  batch_norm_param {
    use_global_stats: true
  }
}
layer {
  name: "scale4c_branch2b"
  type: "Scale"
  bottom: "res4c_branch2b"
  top: "res4c_branch2b"
  param {
    lr_mult: 0
    decay_mult: 0
  }
  param {
    lr_mult: 0
    decay_mult: 0
  }
  scale_param {
    bias_term: true
  }
}
layer {
  name: "res4c_branch2b_relu"
  type: "ReLU"
  bottom: "res4c_branch2b"
  top: "res4c_branch2b"
}
layer {
  name: "res4c_branch2c"
  type: "Convolution"
  bottom: "res4c_branch2b"
  top: "res4c_branch2c"
  param {
    lr_mult: 1
  }
  convolution_param {
    num_output: 1024
    bias_term: false
    pad: 0
    kernel_size: 1
    stride: 1
  }
}
layer {
  name: "bn4c_branch2c"
  type: "BatchNorm"
  bottom: "res4c_branch2c"
  top: "res4c_branch2c"
  batch_norm_param {
    use_global_stats: true
  }
}
layer {
  name: "scale4c_branch2c"
  type: "Scale"
  bottom: "res4c_branch2c"
  top: "res4c_branch2c"
  param {
    lr_mult: 0
    decay_mult: 0
  }
  param {
    lr_mult: 0
    decay_mult: 0
  }
  scale_param {
    bias_term: true
  }
}
layer {
  name: "res4c"
  type: "Eltwise"
  bottom: "res4b"
  bottom: "res4c_branch2c"
  top: "res4c"
}
layer {
  name: "res4c_relu"
  type: "ReLU"
  bottom: "res4c"
  top: "res4c"
}
layer {
  name: "res4d_branch2a"
  type: "Convolution"
  bottom: "res4c"
  top: "res4d_branch2a"
  param {
    lr_mult: 1
  }
  convolution_param {
    num_output: 256
    bias_term: false
    pad: 0
    kernel_size: 1
    stride: 1
  }
}
layer {
  name: "bn4d_branch2a"
  type: "BatchNorm"
  bottom: "res4d_branch2a"
  top: "res4d_branch2a"
  batch_norm_param {
    use_global_stats: true
  }
}
layer {
  name: "scale4d_branch2a"
  type: "Scale"
  bottom: "res4d_branch2a"
  top: "res4d_branch2a"
  param {
    lr_mult: 0
    decay_mult: 0
  }
  param {
    lr_mult: 0
    decay_mult: 0
  }
  scale_param {
    bias_term: true
  }
}
layer {
  name: "res4d_branch2a_relu"
  type: "ReLU"
  bottom: "res4d_branch2a"
  top: "res4d_branch2a"
}
layer {
  name: "res4d_branch2b"
  type: "Convolution"
  bottom: "res4d_branch2a"
  top: "res4d_branch2b"
  param {
    lr_mult: 1
  }
  convolution_param {
    num_output: 256
    bias_term: false
    pad: 1
    kernel_size: 3
    stride: 1
  }
}
layer {
  name: "bn4d_branch2b"
  type: "BatchNorm"
  bottom: "res4d_branch2b"
  top: "res4d_branch2b"
  batch_norm_param {
    use_global_stats: true
  }
}
layer {
  name: "scale4d_branch2b"
  type: "Scale"
  bottom: "res4d_branch2b"
  top: "res4d_branch2b"
  param {
    lr_mult: 0
    decay_mult: 0
  }
  param {
    lr_mult: 0
    decay_mult: 0
  }
  scale_param {
    bias_term: true
  }
}
layer {
  name: "res4d_branch2b_relu"
  type: "ReLU"
  bottom: "res4d_branch2b"
  top: "res4d_branch2b"
}
layer {
  name: "res4d_branch2c"
  type: "Convolution"
  bottom: "res4d_branch2b"
  top: "res4d_branch2c"
  param {
    lr_mult: 1
  }
  convolution_param {
    num_output: 1024
    bias_term: false
    pad: 0
    kernel_size: 1
    stride: 1
  }
}
layer {
  name: "bn4d_branch2c"
  type: "BatchNorm"
  bottom: "res4d_branch2c"
  top: "res4d_branch2c"
  batch_norm_param {
    use_global_stats: true
  }
}
layer {
  name: "scale4d_branch2c"
  type: "Scale"
  bottom: "res4d_branch2c"
  top: "res4d_branch2c"
  param {
    lr_mult: 0
    decay_mult: 0
  }
  param {
    lr_mult: 0
    decay_mult: 0
  }
  scale_param {
    bias_term: true
  }
}
layer {
  name: "res4d"
  type: "Eltwise"
  bottom: "res4c"
  bottom: "res4d_branch2c"
  top: "res4d"
}
layer {
  name: "res4d_relu"
  type: "ReLU"
  bottom: "res4d"
  top: "res4d"
}
layer {
  name: "res4e_branch2a"
  type: "Convolution"
  bottom: "res4d"
  top: "res4e_branch2a"
  param {
    lr_mult: 1
  }
  convolution_param {
    num_output: 256
    bias_term: false
    pad: 0
    kernel_size: 1
    stride: 1
  }
}
layer {
  name: "bn4e_branch2a"
  type: "BatchNorm"
  bottom: "res4e_branch2a"
  top: "res4e_branch2a"
  batch_norm_param {
    use_global_stats: true
  }
}
layer {
  name: "scale4e_branch2a"
  type: "Scale"
  bottom: "res4e_branch2a"
  top: "res4e_branch2a"
  param {
    lr_mult: 0
    decay_mult: 0
  }
  param {
    lr_mult: 0
    decay_mult: 0
  }
  scale_param {
    bias_term: true
  }
}
layer {
  name: "res4e_branch2a_relu"
  type: "ReLU"
  bottom: "res4e_branch2a"
  top: "res4e_branch2a"
}
layer {
  name: "res4e_branch2b"
  type: "Convolution"
  bottom: "res4e_branch2a"
  top: "res4e_branch2b"
  param {
    lr_mult: 1
  }
  convolution_param {
    num_output: 256
    bias_term: false
    pad: 1
    kernel_size: 3
    stride: 1
  }
}
layer {
  name: "bn4e_branch2b"
I1217 18:49:40.152108 17754 layer_factory.hpp:77] Creating layer data
I1217 18:49:40.152137 17754 net.cpp:100] Creating Layer data
I1217 18:49:40.152143 17754 net.cpp:408] data -> data
I1217 18:49:40.152158 17754 net.cpp:408] data -> label
I1217 18:49:40.152447 17754 image_data_layer.cpp:41] Opening file data/apple_disease/train.txt
I1217 18:49:40.152901 17754 image_data_layer.cpp:56] Shuffling data
I1217 18:49:40.153012 17754 image_data_layer.cpp:61] A total of 2212 images.
I1217 18:49:40.256738 17754 image_data_layer.cpp:88] output data size: 2,3,224,224
I1217 18:49:40.259824 17754 net.cpp:150] Setting up data
I1217 18:49:40.259845 17754 net.cpp:157] Top shape: 2 3 224 224 (301056)
I1217 18:49:40.259850 17754 net.cpp:157] Top shape: 2 (2)
I1217 18:49:40.259862 17754 net.cpp:165] Memory required for data: 1204232
I1217 18:49:40.259869 17754 layer_factory.hpp:77] Creating layer label_data_1_split
I1217 18:49:40.259882 17754 net.cpp:100] Creating Layer label_data_1_split
I1217 18:49:40.259889 17754 net.cpp:434] label_data_1_split <- label
I1217 18:49:40.259898 17754 net.cpp:408] label_data_1_split -> label_data_1_split_0
I1217 18:49:40.259907 17754 net.cpp:408] label_data_1_split -> label_data_1_split_1
I1217 18:49:40.259956 17754 net.cpp:150] Setting up label_data_1_split
I1217 18:49:40.259961 17754 net.cpp:157] Top shape: 2 (2)
I1217 18:49:40.259974 17754 net.cpp:157] Top shape: 2 (2)
I1217 18:49:40.259977 17754 net.cpp:165] Memory required for data: 1204248
I1217 18:49:40.259979 17754 layer_factory.hpp:77] Creating layer conv1
I1217 18:49:40.259989 17754 net.cpp:100] Creating Layer conv1
I1217 18:49:40.259994 17754 net.cpp:434] conv1 <- data
I1217 18:49:40.259999 17754 net.cpp:408] conv1 -> conv1
init done 
opengl support available 
I1217 18:49:40.423373 17754 net.cpp:150] Setting up conv1
I1217 18:49:40.423394 17754 net.cpp:157] Top shape: 2 64 112 112 (1605632)
I1217 18:49:40.423398 17754 net.cpp:165] Memory required for data: 7626776
I1217 18:49:40.423420 17754 layer_factory.hpp:77] Creating layer bn_conv1
I1217 18:49:40.423432 17754 net.cpp:100] Creating Layer bn_conv1
I1217 18:49:40.423437 17754 net.cpp:434] bn_conv1 <- conv1
I1217 18:49:40.423442 17754 net.cpp:395] bn_conv1 -> conv1 (in-place)
I1217 18:49:40.423619 17754 net.cpp:150] Setting up bn_conv1
I1217 18:49:40.423624 17754 net.cpp:157] Top shape: 2 64 112 112 (1605632)
I1217 18:49:40.423626 17754 net.cpp:165] Memory required for data: 14049304
I1217 18:49:40.423645 17754 layer_factory.hpp:77] Creating layer scale_conv1
I1217 18:49:40.423652 17754 net.cpp:100] Creating Layer scale_conv1
I1217 18:49:40.423655 17754 net.cpp:434] scale_conv1 <- conv1
I1217 18:49:40.423660 17754 net.cpp:395] scale_conv1 -> conv1 (in-place)
I1217 18:49:40.423687 17754 layer_factory.hpp:77] Creating layer scale_conv1
I1217 18:49:40.423766 17754 net.cpp:150] Setting up scale_conv1
I1217 18:49:40.423773 17754 net.cpp:157] Top shape: 2 64 112 112 (1605632)
I1217 18:49:40.423774 17754 net.cpp:165] Memory required for data: 20471832
I1217 18:49:40.423779 17754 layer_factory.hpp:77] Creating layer conv1_relu
I1217 18:49:40.423784 17754 net.cpp:100] Creating Layer conv1_relu
I1217 18:49:40.423786 17754 net.cpp:434] conv1_relu <- conv1
I1217 18:49:40.423790 17754 net.cpp:395] conv1_relu -> conv1 (in-place)
I1217 18:49:40.423907 17754 net.cpp:150] Setting up conv1_relu
I1217 18:49:40.423914 17754 net.cpp:157] Top shape: 2 64 112 112 (1605632)
I1217 18:49:40.423918 17754 net.cpp:165] Memory required for data: 26894360
I1217 18:49:40.423919 17754 layer_factory.hpp:77] Creating layer pool1
I1217 18:49:40.423925 17754 net.cpp:100] Creating Layer pool1
I1217 18:49:40.423929 17754 net.cpp:434] pool1 <- conv1
I1217 18:49:40.423933 17754 net.cpp:408] pool1 -> pool1
I1217 18:49:40.424077 17754 net.cpp:150] Setting up pool1
I1217 18:49:40.424085 17754 net.cpp:157] Top shape: 2 64 56 56 (401408)
I1217 18:49:40.424088 17754 net.cpp:165] Memory required for data: 28499992
I1217 18:49:40.424089 17754 layer_factory.hpp:77] Creating layer pool1_pool1_0_split
I1217 18:49:40.424094 17754 net.cpp:100] Creating Layer pool1_pool1_0_split
I1217 18:49:40.424098 17754 net.cpp:434] pool1_pool1_0_split <- pool1
I1217 18:49:40.424101 17754 net.cpp:408] pool1_pool1_0_split -> pool1_pool1_0_split_0
I1217 18:49:40.424106 17754 net.cpp:408] pool1_pool1_0_split -> pool1_pool1_0_split_1
I1217 18:49:40.424129 17754 net.cpp:150] Setting up pool1_pool1_0_split
I1217 18:49:40.424134 17754 net.cpp:157] Top shape: 2 64 56 56 (401408)
I1217 18:49:40.424137 17754 net.cpp:157] Top shape: 2 64 56 56 (401408)
I1217 18:49:40.424140 17754 net.cpp:165] Memory required for data: 31711256
I1217 18:49:40.424142 17754 layer_factory.hpp:77] Creating layer res2a_branch1
I1217 18:49:40.424150 17754 net.cpp:100] Creating Layer res2a_branch1
I1217 18:49:40.424154 17754 net.cpp:434] res2a_branch1 <- pool1_pool1_0_split_0
I1217 18:49:40.424159 17754 net.cpp:408] res2a_branch1 -> res2a_branch1
I1217 18:49:40.425215 17754 net.cpp:150] Setting up res2a_branch1
I1217 18:49:40.425225 17754 net.cpp:157] Top shape: 2 256 56 56 (1605632)
I1217 18:49:40.425228 17754 net.cpp:165] Memory required for data: 38133784
I1217 18:49:40.425232 17754 layer_factory.hpp:77] Creating layer bn2a_branch1
I1217 18:49:40.425240 17754 net.cpp:100] Creating Layer bn2a_branch1
I1217 18:49:40.425242 17754 net.cpp:434] bn2a_branch1 <- res2a_branch1
I1217 18:49:40.425246 17754 net.cpp:395] bn2a_branch1 -> res2a_branch1 (in-place)
I1217 18:49:40.425882 17754 net.cpp:150] Setting up bn2a_branch1
I1217 18:49:40.425894 17754 net.cpp:157] Top shape: 2 256 56 56 (1605632)
I1217 18:49:40.425896 17754 net.cpp:165] Memory required for data: 44556312
I1217 18:49:40.425904 17754 layer_factory.hpp:77] Creating layer scale2a_branch1
I1217 18:49:40.425912 17754 net.cpp:100] Creating Layer scale2a_branch1
I1217 18:49:40.425915 17754 net.cpp:434] scale2a_branch1 <- res2a_branch1
I1217 18:49:40.425930 17754 net.cpp:395] scale2a_branch1 -> res2a_branch1 (in-place)
I1217 18:49:40.425962 17754 layer_factory.hpp:77] Creating layer scale2a_branch1
I1217 18:49:40.426035 17754 net.cpp:150] Setting up scale2a_branch1
I1217 18:49:40.426043 17754 net.cpp:157] Top shape: 2 256 56 56 (1605632)
I1217 18:49:40.426045 17754 net.cpp:165] Memory required for data: 50978840
I1217 18:49:40.426049 17754 layer_factory.hpp:77] Creating layer res2a_branch2a
I1217 18:49:40.426057 17754 net.cpp:100] Creating Layer res2a_branch2a
I1217 18:49:40.426061 17754 net.cpp:434] res2a_branch2a <- pool1_pool1_0_split_1
I1217 18:49:40.426065 17754 net.cpp:408] res2a_branch2a -> res2a_branch2a
I1217 18:49:40.426829 17754 net.cpp:150] Setting up res2a_branch2a
I1217 18:49:40.426841 17754 net.cpp:157] Top shape: 2 64 56 56 (401408)
I1217 18:49:40.426846 17754 net.cpp:165] Memory required for data: 52584472
I1217 18:49:40.426849 17754 layer_factory.hpp:77] Creating layer bn2a_branch2a
I1217 18:49:40.426856 17754 net.cpp:100] Creating Layer bn2a_branch2a
I1217 18:49:40.426858 17754 net.cpp:434] bn2a_branch2a <- res2a_branch2a
I1217 18:49:40.426863 17754 net.cpp:395] bn2a_branch2a -> res2a_branch2a (in-place)
I1217 18:49:40.426985 17754 net.cpp:150] Setting up bn2a_branch2a
I1217 18:49:40.426990 17754 net.cpp:157] Top shape: 2 64 56 56 (401408)
I1217 18:49:40.426993 17754 net.cpp:165] Memory required for data: 54190104
I1217 18:49:40.427001 17754 layer_factory.hpp:77] Creating layer scale2a_branch2a
I1217 18:49:40.427007 17754 net.cpp:100] Creating Layer scale2a_branch2a
I1217 18:49:40.427011 17754 net.cpp:434] scale2a_branch2a <- res2a_branch2a
I1217 18:49:40.427014 17754 net.cpp:395] scale2a_branch2a -> res2a_branch2a (in-place)
I1217 18:49:40.427040 17754 layer_factory.hpp:77] Creating layer scale2a_branch2a
I1217 18:49:40.427117 17754 net.cpp:150] Setting up scale2a_branch2a
I1217 18:49:40.427124 17754 net.cpp:157] Top shape: 2 64 56 56 (401408)
I1217 18:49:40.427126 17754 net.cpp:165] Memory required for data: 55795736
I1217 18:49:40.427130 17754 layer_factory.hpp:77] Creating layer res2a_branch2a_relu
I1217 18:49:40.427136 17754 net.cpp:100] Creating Layer res2a_branch2a_relu
I1217 18:49:40.427140 17754 net.cpp:434] res2a_branch2a_relu <- res2a_branch2a
I1217 18:49:40.427144 17754 net.cpp:395] res2a_branch2a_relu -> res2a_branch2a (in-place)
I1217 18:49:40.427263 17754 net.cpp:150] Setting up res2a_branch2a_relu
I1217 18:49:40.427271 17754 net.cpp:157] Top shape: 2 64 56 56 (401408)
I1217 18:49:40.427274 17754 net.cpp:165] Memory required for data: 57401368
I1217 18:49:40.427278 17754 layer_factory.hpp:77] Creating layer res2a_branch2b
I1217 18:49:40.427284 17754 net.cpp:100] Creating Layer res2a_branch2b
I1217 18:49:40.427286 17754 net.cpp:434] res2a_branch2b <- res2a_branch2a
I1217 18:49:40.427291 17754 net.cpp:408] res2a_branch2b -> res2a_branch2b
I1217 18:49:40.428529 17754 net.cpp:150] Setting up res2a_branch2b
I1217 18:49:40.428539 17754 net.cpp:157] Top shape: 2 64 56 56 (401408)
I1217 18:49:40.428544 17754 net.cpp:165] Memory required for data: 59007000
I1217 18:49:40.428547 17754 layer_factory.hpp:77] Creating layer bn2a_branch2b
I1217 18:49:40.428556 17754 net.cpp:100] Creating Layer bn2a_branch2b
I1217 18:49:40.428560 17754 net.cpp:434] bn2a_branch2b <- res2a_branch2b
I1217 18:49:40.428565 17754 net.cpp:395] bn2a_branch2b -> res2a_branch2b (in-place)
I1217 18:49:40.428692 17754 net.cpp:150] Setting up bn2a_branch2b
I1217 18:49:40.428699 17754 net.cpp:157] Top shape: 2 64 56 56 (401408)
I1217 18:49:40.428701 17754 net.cpp:165] Memory required for data: 60612632
I1217 18:49:40.428707 17754 layer_factory.hpp:77] Creating layer scale2a_branch2b
I1217 18:49:40.428712 17754 net.cpp:100] Creating Layer scale2a_branch2b
I1217 18:49:40.428716 17754 net.cpp:434] scale2a_branch2b <- res2a_branch2b
I1217 18:49:40.428720 17754 net.cpp:395] scale2a_branch2b -> res2a_branch2b (in-place)
I1217 18:49:40.428746 17754 layer_factory.hpp:77] Creating layer scale2a_branch2b
I1217 18:49:40.428823 17754 net.cpp:150] Setting up scale2a_branch2b
I1217 18:49:40.428836 17754 net.cpp:157] Top shape: 2 64 56 56 (401408)
I1217 18:49:40.428839 17754 net.cpp:165] Memory required for data: 62218264
I1217 18:49:40.428844 17754 layer_factory.hpp:77] Creating layer res2a_branch2b_relu
I1217 18:49:40.428850 17754 net.cpp:100] Creating Layer res2a_branch2b_relu
I1217 18:49:40.428853 17754 net.cpp:434] res2a_branch2b_relu <- res2a_branch2b
I1217 18:49:40.428856 17754 net.cpp:395] res2a_branch2b_relu -> res2a_branch2b (in-place)
I1217 18:49:40.428978 17754 net.cpp:150] Setting up res2a_branch2b_relu
I1217 18:49:40.428985 17754 net.cpp:157] Top shape: 2 64 56 56 (401408)
I1217 18:49:40.428989 17754 net.cpp:165] Memory required for data: 63823896
I1217 18:49:40.428992 17754 layer_factory.hpp:77] Creating layer res2a_branch2c
I1217 18:49:40.428997 17754 net.cpp:100] Creating Layer res2a_branch2c
I1217 18:49:40.429002 17754 net.cpp:434] res2a_branch2c <- res2a_branch2b
I1217 18:49:40.429006 17754 net.cpp:408] res2a_branch2c -> res2a_branch2c
I1217 18:49:40.429776 17754 net.cpp:150] Setting up res2a_branch2c
I1217 18:49:40.429787 17754 net.cpp:157] Top shape: 2 256 56 56 (1605632)
I1217 18:49:40.429791 17754 net.cpp:165] Memory required for data: 70246424
I1217 18:49:40.429795 17754 layer_factory.hpp:77] Creating layer bn2a_branch2c
I1217 18:49:40.429802 17754 net.cpp:100] Creating Layer bn2a_branch2c
I1217 18:49:40.429805 17754 net.cpp:434] bn2a_branch2c <- res2a_branch2c
I1217 18:49:40.429811 17754 net.cpp:395] bn2a_branch2c -> res2a_branch2c (in-place)
I1217 18:49:40.429932 17754 net.cpp:150] Setting up bn2a_branch2c
I1217 18:49:40.429937 17754 net.cpp:157] Top shape: 2 256 56 56 (1605632)
I1217 18:49:40.429941 17754 net.cpp:165] Memory required for data: 76668952
I1217 18:49:40.429946 17754 layer_factory.hpp:77] Creating layer scale2a_branch2c
I1217 18:49:40.429952 17754 net.cpp:100] Creating Layer scale2a_branch2c
I1217 18:49:40.429956 17754 net.cpp:434] scale2a_branch2c <- res2a_branch2c
I1217 18:49:40.429960 17754 net.cpp:395] scale2a_branch2c -> res2a_branch2c (in-place)
I1217 18:49:40.429986 17754 layer_factory.hpp:77] Creating layer scale2a_branch2c
I1217 18:49:40.430058 17754 net.cpp:150] Setting up scale2a_branch2c
I1217 18:49:40.430064 17754 net.cpp:157] Top shape: 2 256 56 56 (1605632)
I1217 18:49:40.430068 17754 net.cpp:165] Memory required for data: 83091480
I1217 18:49:40.430071 17754 layer_factory.hpp:77] Creating layer res2a
I1217 18:49:40.430081 17754 net.cpp:100] Creating Layer res2a
I1217 18:49:40.430085 17754 net.cpp:434] res2a <- res2a_branch1
I1217 18:49:40.430088 17754 net.cpp:434] res2a <- res2a_branch2c
I1217 18:49:40.430093 17754 net.cpp:408] res2a -> res2a
I1217 18:49:40.430119 17754 net.cpp:150] Setting up res2a
I1217 18:49:40.430125 17754 net.cpp:157] Top shape: 2 256 56 56 (1605632)
I1217 18:49:40.430128 17754 net.cpp:165] Memory required for data: 89514008
I1217 18:49:40.430130 17754 layer_factory.hpp:77] Creating layer res2a_relu
I1217 18:49:40.430135 17754 net.cpp:100] Creating Layer res2a_relu
I1217 18:49:40.430137 17754 net.cpp:434] res2a_relu <- res2a
I1217 18:49:40.430140 17754 net.cpp:395] res2a_relu -> res2a (in-place)
I1217 18:49:40.430526 17754 net.cpp:150] Setting up res2a_relu
I1217 18:49:40.430536 17754 net.cpp:157] Top shape: 2 256 56 56 (1605632)
I1217 18:49:40.430541 17754 net.cpp:165] Memory required for data: 95936536
I1217 18:49:40.430542 17754 layer_factory.hpp:77] Creating layer res2a_res2a_relu_0_split
I1217 18:49:40.430548 17754 net.cpp:100] Creating Layer res2a_res2a_relu_0_split
I1217 18:49:40.430552 17754 net.cpp:434] res2a_res2a_relu_0_split <- res2a
I1217 18:49:40.430555 17754 net.cpp:408] res2a_res2a_relu_0_split -> res2a_res2a_relu_0_split_0
I1217 18:49:40.430562 17754 net.cpp:408] res2a_res2a_relu_0_split -> res2a_res2a_relu_0_split_1
I1217 18:49:40.430590 17754 net.cpp:150] Setting up res2a_res2a_relu_0_split
I1217 18:49:40.430596 17754 net.cpp:157] Top shape: 2 256 56 56 (1605632)
I1217 18:49:40.430600 17754 net.cpp:157] Top shape: 2 256 56 56 (1605632)
I1217 18:49:40.430609 17754 net.cpp:165] Memory required for data: 108781592
I1217 18:49:40.430613 17754 layer_factory.hpp:77] Creating layer res2b_branch2a
I1217 18:49:40.430620 17754 net.cpp:100] Creating Layer res2b_branch2a
I1217 18:49:40.430624 17754 net.cpp:434] res2b_branch2a <- res2a_res2a_relu_0_split_0
I1217 18:49:40.430629 17754 net.cpp:408] res2b_branch2a -> res2b_branch2a
I1217 18:49:40.431120 17754 net.cpp:150] Setting up res2b_branch2a
I1217 18:49:40.431129 17754 net.cpp:157] Top shape: 2 64 56 56 (401408)
I1217 18:49:40.431133 17754 net.cpp:165] Memory required for data: 110387224
I1217 18:49:40.431138 17754 layer_factory.hpp:77] Creating layer bn2b_branch2a
I1217 18:49:40.431144 17754 net.cpp:100] Creating Layer bn2b_branch2a
I1217 18:49:40.431149 17754 net.cpp:434] bn2b_branch2a <- res2b_branch2a
I1217 18:49:40.431151 17754 net.cpp:395] bn2b_branch2a -> res2b_branch2a (in-place)
I1217 18:49:40.431279 17754 net.cpp:150] Setting up bn2b_branch2a
I1217 18:49:40.431284 17754 net.cpp:157] Top shape: 2 64 56 56 (401408)
I1217 18:49:40.431288 17754 net.cpp:165] Memory required for data: 111992856
I1217 18:49:40.431298 17754 layer_factory.hpp:77] Creating layer scale2b_branch2a
I1217 18:49:40.431303 17754 net.cpp:100] Creating Layer scale2b_branch2a
I1217 18:49:40.431306 17754 net.cpp:434] scale2b_branch2a <- res2b_branch2a
I1217 18:49:40.431310 17754 net.cpp:395] scale2b_branch2a -> res2b_branch2a (in-place)
I1217 18:49:40.431337 17754 layer_factory.hpp:77] Creating layer scale2b_branch2a
I1217 18:49:40.431416 17754 net.cpp:150] Setting up scale2b_branch2a
I1217 18:49:40.431421 17754 net.cpp:157] Top shape: 2 64 56 56 (401408)
I1217 18:49:40.431423 17754 net.cpp:165] Memory required for data: 113598488
I1217 18:49:40.431427 17754 layer_factory.hpp:77] Creating layer res2b_branch2a_relu
I1217 18:49:40.431432 17754 net.cpp:100] Creating Layer res2b_branch2a_relu
I1217 18:49:40.431434 17754 net.cpp:434] res2b_branch2a_relu <- res2b_branch2a
I1217 18:49:40.431438 17754 net.cpp:395] res2b_branch2a_relu -> res2b_branch2a (in-place)
I1217 18:49:40.431898 17754 net.cpp:150] Setting up res2b_branch2a_relu
I1217 18:49:40.431910 17754 net.cpp:157] Top shape: 2 64 56 56 (401408)
I1217 18:49:40.431913 17754 net.cpp:165] Memory required for data: 115204120
I1217 18:49:40.431916 17754 layer_factory.hpp:77] Creating layer res2b_branch2b
I1217 18:49:40.431923 17754 net.cpp:100] Creating Layer res2b_branch2b
I1217 18:49:40.431928 17754 net.cpp:434] res2b_branch2b <- res2b_branch2a
I1217 18:49:40.431933 17754 net.cpp:408] res2b_branch2b -> res2b_branch2b
I1217 18:49:40.432719 17754 net.cpp:150] Setting up res2b_branch2b
I1217 18:49:40.432731 17754 net.cpp:157] Top shape: 2 64 56 56 (401408)
I1217 18:49:40.432734 17754 net.cpp:165] Memory required for data: 116809752
I1217 18:49:40.432740 17754 layer_factory.hpp:77] Creating layer bn2b_branch2b
I1217 18:49:40.432746 17754 net.cpp:100] Creating Layer bn2b_branch2b
I1217 18:49:40.432750 17754 net.cpp:434] bn2b_branch2b <- res2b_branch2b
I1217 18:49:40.432755 17754 net.cpp:395] bn2b_branch2b -> res2b_branch2b (in-place)
I1217 18:49:40.432888 17754 net.cpp:150] Setting up bn2b_branch2b
I1217 18:49:40.432893 17754 net.cpp:157] Top shape: 2 64 56 56 (401408)
I1217 18:49:40.432896 17754 net.cpp:165] Memory required for data: 118415384
I1217 18:49:40.432902 17754 layer_factory.hpp:77] Creating layer scale2b_branch2b
I1217 18:49:40.432909 17754 net.cpp:100] Creating Layer scale2b_branch2b
I1217 18:49:40.432914 17754 net.cpp:434] scale2b_branch2b <- res2b_branch2b
I1217 18:49:40.432916 17754 net.cpp:395] scale2b_branch2b -> res2b_branch2b (in-place)
I1217 18:49:40.432945 17754 layer_factory.hpp:77] Creating layer scale2b_branch2b
I1217 18:49:40.433023 17754 net.cpp:150] Setting up scale2b_branch2b
I1217 18:49:40.433029 17754 net.cpp:157] Top shape: 2 64 56 56 (401408)
I1217 18:49:40.433032 17754 net.cpp:165] Memory required for data: 120021016
I1217 18:49:40.433037 17754 layer_factory.hpp:77] Creating layer res2b_branch2b_relu
I1217 18:49:40.433044 17754 net.cpp:100] Creating Layer res2b_branch2b_relu
I1217 18:49:40.433054 17754 net.cpp:434] res2b_branch2b_relu <- res2b_branch2b
I1217 18:49:40.433058 17754 net.cpp:395] res2b_branch2b_relu -> res2b_branch2b (in-place)
I1217 18:49:40.433181 17754 net.cpp:150] Setting up res2b_branch2b_relu
I1217 18:49:40.433188 17754 net.cpp:157] Top shape: 2 64 56 56 (401408)
I1217 18:49:40.433192 17754 net.cpp:165] Memory required for data: 121626648
I1217 18:49:40.433194 17754 layer_factory.hpp:77] Creating layer res2b_branch2c
I1217 18:49:40.433200 17754 net.cpp:100] Creating Layer res2b_branch2c
I1217 18:49:40.433204 17754 net.cpp:434] res2b_branch2c <- res2b_branch2b
I1217 18:49:40.433208 17754 net.cpp:408] res2b_branch2c -> res2b_branch2c
I1217 18:49:40.433990 17754 net.cpp:150] Setting up res2b_branch2c
I1217 18:49:40.434005 17754 net.cpp:157] Top shape: 2 256 56 56 (1605632)
I1217 18:49:40.434008 17754 net.cpp:165] Memory required for data: 128049176
I1217 18:49:40.434012 17754 layer_factory.hpp:77] Creating layer bn2b_branch2c
I1217 18:49:40.434018 17754 net.cpp:100] Creating Layer bn2b_branch2c
I1217 18:49:40.434021 17754 net.cpp:434] bn2b_branch2c <- res2b_branch2c
I1217 18:49:40.434026 17754 net.cpp:395] bn2b_branch2c -> res2b_branch2c (in-place)
I1217 18:49:40.434149 17754 net.cpp:150] Setting up bn2b_branch2c
I1217 18:49:40.434155 17754 net.cpp:157] Top shape: 2 256 56 56 (1605632)
I1217 18:49:40.434159 17754 net.cpp:165] Memory required for data: 134471704
I1217 18:49:40.434165 17754 layer_factory.hpp:77] Creating layer scale2b_branch2c
I1217 18:49:40.434170 17754 net.cpp:100] Creating Layer scale2b_branch2c
I1217 18:49:40.434173 17754 net.cpp:434] scale2b_branch2c <- res2b_branch2c
I1217 18:49:40.434176 17754 net.cpp:395] scale2b_branch2c -> res2b_branch2c (in-place)
I1217 18:49:40.434203 17754 layer_factory.hpp:77] Creating layer scale2b_branch2c
I1217 18:49:40.434276 17754 net.cpp:150] Setting up scale2b_branch2c
I1217 18:49:40.434283 17754 net.cpp:157] Top shape: 2 256 56 56 (1605632)
I1217 18:49:40.434285 17754 net.cpp:165] Memory required for data: 140894232
I1217 18:49:40.434289 17754 layer_factory.hpp:77] Creating layer res2b
I1217 18:49:40.434294 17754 net.cpp:100] Creating Layer res2b
I1217 18:49:40.434298 17754 net.cpp:434] res2b <- res2a_res2a_relu_0_split_1
I1217 18:49:40.434301 17754 net.cpp:434] res2b <- res2b_branch2c
I1217 18:49:40.434306 17754 net.cpp:408] res2b -> res2b
I1217 18:49:40.434330 17754 net.cpp:150] Setting up res2b
I1217 18:49:40.434335 17754 net.cpp:157] Top shape: 2 256 56 56 (1605632)
I1217 18:49:40.434340 17754 net.cpp:165] Memory required for data: 147316760
I1217 18:49:40.434341 17754 layer_factory.hpp:77] Creating layer res2b_relu
I1217 18:49:40.434345 17754 net.cpp:100] Creating Layer res2b_relu
I1217 18:49:40.434348 17754 net.cpp:434] res2b_relu <- res2b
I1217 18:49:40.434352 17754 net.cpp:395] res2b_relu -> res2b (in-place)
I1217 18:49:40.434473 17754 net.cpp:150] Setting up res2b_relu
I1217 18:49:40.434480 17754 net.cpp:157] Top shape: 2 256 56 56 (1605632)
I1217 18:49:40.434484 17754 net.cpp:165] Memory required for data: 153739288
I1217 18:49:40.434486 17754 layer_factory.hpp:77] Creating layer res2b_res2b_relu_0_split
I1217 18:49:40.434490 17754 net.cpp:100] Creating Layer res2b_res2b_relu_0_split
I1217 18:49:40.434494 17754 net.cpp:434] res2b_res2b_relu_0_split <- res2b
I1217 18:49:40.434497 17754 net.cpp:408] res2b_res2b_relu_0_split -> res2b_res2b_relu_0_split_0
I1217 18:49:40.434502 17754 net.cpp:408] res2b_res2b_relu_0_split -> res2b_res2b_relu_0_split_1
I1217 18:49:40.434530 17754 net.cpp:150] Setting up res2b_res2b_relu_0_split
I1217 18:49:40.434535 17754 net.cpp:157] Top shape: 2 256 56 56 (1605632)
I1217 18:49:40.434540 17754 net.cpp:157] Top shape: 2 256 56 56 (1605632)
I1217 18:49:40.434542 17754 net.cpp:165] Memory required for data: 166584344
I1217 18:49:40.434545 17754 layer_factory.hpp:77] Creating layer res2c_branch2a
I1217 18:49:40.434552 17754 net.cpp:100] Creating Layer res2c_branch2a
I1217 18:49:40.434556 17754 net.cpp:434] res2c_branch2a <- res2b_res2b_relu_0_split_0
I1217 18:49:40.434559 17754 net.cpp:408] res2c_branch2a -> res2c_branch2a
I1217 18:49:40.435333 17754 net.cpp:150] Setting up res2c_branch2a
I1217 18:49:40.435343 17754 net.cpp:157] Top shape: 2 64 56 56 (401408)
I1217 18:49:40.435346 17754 net.cpp:165] Memory required for data: 168189976
I1217 18:49:40.435350 17754 layer_factory.hpp:77] Creating layer bn2c_branch2a
I1217 18:49:40.435356 17754 net.cpp:100] Creating Layer bn2c_branch2a
I1217 18:49:40.435360 17754 net.cpp:434] bn2c_branch2a <- res2c_branch2a
I1217 18:49:40.435364 17754 net.cpp:395] bn2c_branch2a -> res2c_branch2a (in-place)
I1217 18:49:40.435492 17754 net.cpp:150] Setting up bn2c_branch2a
I1217 18:49:40.435498 17754 net.cpp:157] Top shape: 2 64 56 56 (401408)
I1217 18:49:40.435503 17754 net.cpp:165] Memory required for data: 169795608
I1217 18:49:40.435508 17754 layer_factory.hpp:77] Creating layer scale2c_branch2a
I1217 18:49:40.435513 17754 net.cpp:100] Creating Layer scale2c_branch2a
I1217 18:49:40.435516 17754 net.cpp:434] scale2c_branch2a <- res2c_branch2a
I1217 18:49:40.435520 17754 net.cpp:395] scale2c_branch2a -> res2c_branch2a (in-place)
I1217 18:49:40.435547 17754 layer_factory.hpp:77] Creating layer scale2c_branch2a
I1217 18:49:40.435626 17754 net.cpp:150] Setting up scale2c_branch2a
I1217 18:49:40.435631 17754 net.cpp:157] Top shape: 2 64 56 56 (401408)
I1217 18:49:40.435634 17754 net.cpp:165] Memory required for data: 171401240
I1217 18:49:40.435638 17754 layer_factory.hpp:77] Creating layer res2c_branch2a_relu
I1217 18:49:40.435643 17754 net.cpp:100] Creating Layer res2c_branch2a_relu
I1217 18:49:40.435647 17754 net.cpp:434] res2c_branch2a_relu <- res2c_branch2a
I1217 18:49:40.435650 17754 net.cpp:395] res2c_branch2a_relu -> res2c_branch2a (in-place)
I1217 18:49:40.435772 17754 net.cpp:150] Setting up res2c_branch2a_relu
I1217 18:49:40.435781 17754 net.cpp:157] Top shape: 2 64 56 56 (401408)
I1217 18:49:40.435783 17754 net.cpp:165] Memory required for data: 173006872
I1217 18:49:40.435786 17754 layer_factory.hpp:77] Creating layer res2c_branch2b
I1217 18:49:40.435792 17754 net.cpp:100] Creating Layer res2c_branch2b
I1217 18:49:40.435796 17754 net.cpp:434] res2c_branch2b <- res2c_branch2a
I1217 18:49:40.435801 17754 net.cpp:408] res2c_branch2b -> res2c_branch2b
I1217 18:49:40.436566 17754 net.cpp:150] Setting up res2c_branch2b
I1217 18:49:40.436578 17754 net.cpp:157] Top shape: 2 64 56 56 (401408)
I1217 18:49:40.436581 17754 net.cpp:165] Memory required for data: 174612504
I1217 18:49:40.436585 17754 layer_factory.hpp:77] Creating layer bn2c_branch2b
I1217 18:49:40.436591 17754 net.cpp:100] Creating Layer bn2c_branch2b
I1217 18:49:40.436595 17754 net.cpp:434] bn2c_branch2b <- res2c_branch2b
I1217 18:49:40.436600 17754 net.cpp:395] bn2c_branch2b -> res2c_branch2b (in-place)
I1217 18:49:40.436733 17754 net.cpp:150] Setting up bn2c_branch2b
I1217 18:49:40.436738 17754 net.cpp:157] Top shape: 2 64 56 56 (401408)
I1217 18:49:40.436741 17754 net.cpp:165] Memory required for data: 176218136
I1217 18:49:40.436748 17754 layer_factory.hpp:77] Creating layer scale2c_branch2b
I1217 18:49:40.436753 17754 net.cpp:100] Creating Layer scale2c_branch2b
I1217 18:49:40.436756 17754 net.cpp:434] scale2c_branch2b <- res2c_branch2b
I1217 18:49:40.436759 17754 net.cpp:395] scale2c_branch2b -> res2c_branch2b (in-place)
I1217 18:49:40.436787 17754 layer_factory.hpp:77] Creating layer scale2c_branch2b
I1217 18:49:40.436866 17754 net.cpp:150] Setting up scale2c_branch2b
I1217 18:49:40.436872 17754 net.cpp:157] Top shape: 2 64 56 56 (401408)
I1217 18:49:40.436875 17754 net.cpp:165] Memory required for data: 177823768
I1217 18:49:40.436879 17754 layer_factory.hpp:77] Creating layer res2c_branch2b_relu
I1217 18:49:40.436884 17754 net.cpp:100] Creating Layer res2c_branch2b_relu
I1217 18:49:40.436888 17754 net.cpp:434] res2c_branch2b_relu <- res2c_branch2b
I1217 18:49:40.436892 17754 net.cpp:395] res2c_branch2b_relu -> res2c_branch2b (in-place)
I1217 18:49:40.437012 17754 net.cpp:150] Setting up res2c_branch2b_relu
I1217 18:49:40.437019 17754 net.cpp:157] Top shape: 2 64 56 56 (401408)
I1217 18:49:40.437021 17754 net.cpp:165] Memory required for data: 179429400
I1217 18:49:40.437031 17754 layer_factory.hpp:77] Creating layer res2c_branch2c
I1217 18:49:40.437039 17754 net.cpp:100] Creating Layer res2c_branch2c
I1217 18:49:40.437042 17754 net.cpp:434] res2c_branch2c <- res2c_branch2b
I1217 18:49:40.437047 17754 net.cpp:408] res2c_branch2c -> res2c_branch2c
I1217 18:49:40.437822 17754 net.cpp:150] Setting up res2c_branch2c
I1217 18:49:40.437834 17754 net.cpp:157] Top shape: 2 256 56 56 (1605632)
I1217 18:49:40.437837 17754 net.cpp:165] Memory required for data: 185851928
I1217 18:49:40.437841 17754 layer_factory.hpp:77] Creating layer bn2c_branch2c
I1217 18:49:40.437849 17754 net.cpp:100] Creating Layer bn2c_branch2c
I1217 18:49:40.437852 17754 net.cpp:434] bn2c_branch2c <- res2c_branch2c
I1217 18:49:40.437855 17754 net.cpp:395] bn2c_branch2c -> res2c_branch2c (in-place)
I1217 18:49:40.437983 17754 net.cpp:150] Setting up bn2c_branch2c
I1217 18:49:40.437988 17754 net.cpp:157] Top shape: 2 256 56 56 (1605632)
I1217 18:49:40.437993 17754 net.cpp:165] Memory required for data: 192274456
I1217 18:49:40.438004 17754 layer_factory.hpp:77] Creating layer scale2c_branch2c
I1217 18:49:40.438009 17754 net.cpp:100] Creating Layer scale2c_branch2c
I1217 18:49:40.438014 17754 net.cpp:434] scale2c_branch2c <- res2c_branch2c
I1217 18:49:40.438017 17754 net.cpp:395] scale2c_branch2c -> res2c_branch2c (in-place)
I1217 18:49:40.438047 17754 layer_factory.hpp:77] Creating layer scale2c_branch2c
I1217 18:49:40.438120 17754 net.cpp:150] Setting up scale2c_branch2c
I1217 18:49:40.438127 17754 net.cpp:157] Top shape: 2 256 56 56 (1605632)
I1217 18:49:40.438128 17754 net.cpp:165] Memory required for data: 198696984
I1217 18:49:40.438133 17754 layer_factory.hpp:77] Creating layer res2c
I1217 18:49:40.438136 17754 net.cpp:100] Creating Layer res2c
I1217 18:49:40.438139 17754 net.cpp:434] res2c <- res2b_res2b_relu_0_split_1
I1217 18:49:40.438143 17754 net.cpp:434] res2c <- res2c_branch2c
I1217 18:49:40.438145 17754 net.cpp:408] res2c -> res2c
I1217 18:49:40.438169 17754 net.cpp:150] Setting up res2c
I1217 18:49:40.438172 17754 net.cpp:157] Top shape: 2 256 56 56 (1605632)
I1217 18:49:40.438175 17754 net.cpp:165] Memory required for data: 205119512
I1217 18:49:40.438177 17754 layer_factory.hpp:77] Creating layer res2c_relu
I1217 18:49:40.438180 17754 net.cpp:100] Creating Layer res2c_relu
I1217 18:49:40.438182 17754 net.cpp:434] res2c_relu <- res2c
I1217 18:49:40.438186 17754 net.cpp:395] res2c_relu -> res2c (in-place)
I1217 18:49:40.438573 17754 net.cpp:150] Setting up res2c_relu
I1217 18:49:40.438582 17754 net.cpp:157] Top shape: 2 256 56 56 (1605632)
I1217 18:49:40.438585 17754 net.cpp:165] Memory required for data: 211542040
I1217 18:49:40.438587 17754 layer_factory.hpp:77] Creating layer res2c_res2c_relu_0_split
I1217 18:49:40.438592 17754 net.cpp:100] Creating Layer res2c_res2c_relu_0_split
I1217 18:49:40.438596 17754 net.cpp:434] res2c_res2c_relu_0_split <- res2c
I1217 18:49:40.438599 17754 net.cpp:408] res2c_res2c_relu_0_split -> res2c_res2c_relu_0_split_0
I1217 18:49:40.438603 17754 net.cpp:408] res2c_res2c_relu_0_split -> res2c_res2c_relu_0_split_1
I1217 18:49:40.438632 17754 net.cpp:150] Setting up res2c_res2c_relu_0_split
I1217 18:49:40.438635 17754 net.cpp:157] Top shape: 2 256 56 56 (1605632)
I1217 18:49:40.438638 17754 net.cpp:157] Top shape: 2 256 56 56 (1605632)
I1217 18:49:40.438640 17754 net.cpp:165] Memory required for data: 224387096
I1217 18:49:40.438642 17754 layer_factory.hpp:77] Creating layer res3a_branch1
I1217 18:49:40.438648 17754 net.cpp:100] Creating Layer res3a_branch1
I1217 18:49:40.438652 17754 net.cpp:434] res3a_branch1 <- res2c_res2c_relu_0_split_0
I1217 18:49:40.438654 17754 net.cpp:408] res3a_branch1 -> res3a_branch1
I1217 18:49:40.439458 17754 net.cpp:150] Setting up res3a_branch1
I1217 18:49:40.439466 17754 net.cpp:157] Top shape: 2 512 28 28 (802816)
I1217 18:49:40.439469 17754 net.cpp:165] Memory required for data: 227598360
I1217 18:49:40.439473 17754 layer_factory.hpp:77] Creating layer bn3a_branch1
I1217 18:49:40.439484 17754 net.cpp:100] Creating Layer bn3a_branch1
I1217 18:49:40.439487 17754 net.cpp:434] bn3a_branch1 <- res3a_branch1
I1217 18:49:40.439492 17754 net.cpp:395] bn3a_branch1 -> res3a_branch1 (in-place)
I1217 18:49:40.440114 17754 net.cpp:150] Setting up bn3a_branch1
I1217 18:49:40.440122 17754 net.cpp:157] Top shape: 2 512 28 28 (802816)
I1217 18:49:40.440125 17754 net.cpp:165] Memory required for data: 230809624
I1217 18:49:40.440130 17754 layer_factory.hpp:77] Creating layer scale3a_branch1
I1217 18:49:40.440135 17754 net.cpp:100] Creating Layer scale3a_branch1
I1217 18:49:40.440138 17754 net.cpp:434] scale3a_branch1 <- res3a_branch1
I1217 18:49:40.440142 17754 net.cpp:395] scale3a_branch1 -> res3a_branch1 (in-place)
I1217 18:49:40.440172 17754 layer_factory.hpp:77] Creating layer scale3a_branch1
I1217 18:49:40.440250 17754 net.cpp:150] Setting up scale3a_branch1
I1217 18:49:40.440254 17754 net.cpp:157] Top shape: 2 512 28 28 (802816)
I1217 18:49:40.440256 17754 net.cpp:165] Memory required for data: 234020888
I1217 18:49:40.440260 17754 layer_factory.hpp:77] Creating layer res3a_branch2a
I1217 18:49:40.440265 17754 net.cpp:100] Creating Layer res3a_branch2a
I1217 18:49:40.440268 17754 net.cpp:434] res3a_branch2a <- res2c_res2c_relu_0_split_1
I1217 18:49:40.440273 17754 net.cpp:408] res3a_branch2a -> res3a_branch2a
I1217 18:49:40.441275 17754 net.cpp:150] Setting up res3a_branch2a
I1217 18:49:40.441283 17754 net.cpp:157] Top shape: 2 128 28 28 (200704)
I1217 18:49:40.441287 17754 net.cpp:165] Memory required for data: 234823704
I1217 18:49:40.441289 17754 layer_factory.hpp:77] Creating layer bn3a_branch2a
I1217 18:49:40.441295 17754 net.cpp:100] Creating Layer bn3a_branch2a
I1217 18:49:40.441298 17754 net.cpp:434] bn3a_branch2a <- res3a_branch2a
I1217 18:49:40.441303 17754 net.cpp:395] bn3a_branch2a -> res3a_branch2a (in-place)
I1217 18:49:40.441429 17754 net.cpp:150] Setting up bn3a_branch2a
I1217 18:49:40.441434 17754 net.cpp:157] Top shape: 2 128 28 28 (200704)
I1217 18:49:40.441437 17754 net.cpp:165] Memory required for data: 235626520
I1217 18:49:40.441442 17754 layer_factory.hpp:77] Creating layer scale3a_branch2a
I1217 18:49:40.441447 17754 net.cpp:100] Creating Layer scale3a_branch2a
I1217 18:49:40.441449 17754 net.cpp:434] scale3a_branch2a <- res3a_branch2a
I1217 18:49:40.441452 17754 net.cpp:395] scale3a_branch2a -> res3a_branch2a (in-place)
I1217 18:49:40.441478 17754 layer_factory.hpp:77] Creating layer scale3a_branch2a
I1217 18:49:40.441546 17754 net.cpp:150] Setting up scale3a_branch2a
I1217 18:49:40.441551 17754 net.cpp:157] Top shape: 2 128 28 28 (200704)
I1217 18:49:40.441553 17754 net.cpp:165] Memory required for data: 236429336
I1217 18:49:40.441556 17754 layer_factory.hpp:77] Creating layer res3a_branch2a_relu
I1217 18:49:40.441561 17754 net.cpp:100] Creating Layer res3a_branch2a_relu
I1217 18:49:40.441563 17754 net.cpp:434] res3a_branch2a_relu <- res3a_branch2a
I1217 18:49:40.441566 17754 net.cpp:395] res3a_branch2a_relu -> res3a_branch2a (in-place)
I1217 18:49:40.441943 17754 net.cpp:150] Setting up res3a_branch2a_relu
I1217 18:49:40.441951 17754 net.cpp:157] Top shape: 2 128 28 28 (200704)
I1217 18:49:40.441954 17754 net.cpp:165] Memory required for data: 237232152
I1217 18:49:40.441956 17754 layer_factory.hpp:77] Creating layer res3a_branch2b
I1217 18:49:40.441962 17754 net.cpp:100] Creating Layer res3a_branch2b
I1217 18:49:40.441965 17754 net.cpp:434] res3a_branch2b <- res3a_branch2a
I1217 18:49:40.441970 17754 net.cpp:408] res3a_branch2b -> res3a_branch2b
I1217 18:49:40.443068 17754 net.cpp:150] Setting up res3a_branch2b
I1217 18:49:40.443079 17754 net.cpp:157] Top shape: 2 128 28 28 (200704)
I1217 18:49:40.443083 17754 net.cpp:165] Memory required for data: 238034968
I1217 18:49:40.443086 17754 layer_factory.hpp:77] Creating layer bn3a_branch2b
I1217 18:49:40.443092 17754 net.cpp:100] Creating Layer bn3a_branch2b
I1217 18:49:40.443097 17754 net.cpp:434] bn3a_branch2b <- res3a_branch2b
I1217 18:49:40.443102 17754 net.cpp:395] bn3a_branch2b -> res3a_branch2b (in-place)
I1217 18:49:40.443233 17754 net.cpp:150] Setting up bn3a_branch2b
I1217 18:49:40.443254 17754 net.cpp:157] Top shape: 2 128 28 28 (200704)
I1217 18:49:40.443258 17754 net.cpp:165] Memory required for data: 238837784
I1217 18:49:40.443272 17754 layer_factory.hpp:77] Creating layer scale3a_branch2b
I1217 18:49:40.443279 17754 net.cpp:100] Creating Layer scale3a_branch2b
I1217 18:49:40.443281 17754 net.cpp:434] scale3a_branch2b <- res3a_branch2b
I1217 18:49:40.443284 17754 net.cpp:395] scale3a_branch2b -> res3a_branch2b (in-place)
I1217 18:49:40.443321 17754 layer_factory.hpp:77] Creating layer scale3a_branch2b
I1217 18:49:40.443414 17754 net.cpp:150] Setting up scale3a_branch2b
I1217 18:49:40.443419 17754 net.cpp:157] Top shape: 2 128 28 28 (200704)
I1217 18:49:40.443433 17754 net.cpp:165] Memory required for data: 239640600
I1217 18:49:40.443436 17754 layer_factory.hpp:77] Creating layer res3a_branch2b_relu
I1217 18:49:40.443440 17754 net.cpp:100] Creating Layer res3a_branch2b_relu
I1217 18:49:40.443444 17754 net.cpp:434] res3a_branch2b_relu <- res3a_branch2b
I1217 18:49:40.443446 17754 net.cpp:395] res3a_branch2b_relu -> res3a_branch2b (in-place)
I1217 18:49:40.443578 17754 net.cpp:150] Setting up res3a_branch2b_relu
I1217 18:49:40.443585 17754 net.cpp:157] Top shape: 2 128 28 28 (200704)
I1217 18:49:40.443598 17754 net.cpp:165] Memory required for data: 240443416
I1217 18:49:40.443600 17754 layer_factory.hpp:77] Creating layer res3a_branch2c
I1217 18:49:40.443610 17754 net.cpp:100] Creating Layer res3a_branch2c
I1217 18:49:40.443614 17754 net.cpp:434] res3a_branch2c <- res3a_branch2b
I1217 18:49:40.443617 17754 net.cpp:408] res3a_branch2c -> res3a_branch2c
I1217 18:49:40.444427 17754 net.cpp:150] Setting up res3a_branch2c
I1217 18:49:40.444437 17754 net.cpp:157] Top shape: 2 512 28 28 (802816)
I1217 18:49:40.444438 17754 net.cpp:165] Memory required for data: 243654680
I1217 18:49:40.444442 17754 layer_factory.hpp:77] Creating layer bn3a_branch2c
I1217 18:49:40.444447 17754 net.cpp:100] Creating Layer bn3a_branch2c
I1217 18:49:40.444449 17754 net.cpp:434] bn3a_branch2c <- res3a_branch2c
I1217 18:49:40.444453 17754 net.cpp:395] bn3a_branch2c -> res3a_branch2c (in-place)
I1217 18:49:40.444577 17754 net.cpp:150] Setting up bn3a_branch2c
I1217 18:49:40.444581 17754 net.cpp:157] Top shape: 2 512 28 28 (802816)
I1217 18:49:40.444583 17754 net.cpp:165] Memory required for data: 246865944
I1217 18:49:40.444588 17754 layer_factory.hpp:77] Creating layer scale3a_branch2c
I1217 18:49:40.444592 17754 net.cpp:100] Creating Layer scale3a_branch2c
I1217 18:49:40.444594 17754 net.cpp:434] scale3a_branch2c <- res3a_branch2c
I1217 18:49:40.444598 17754 net.cpp:395] scale3a_branch2c -> res3a_branch2c (in-place)
I1217 18:49:40.444623 17754 layer_factory.hpp:77] Creating layer scale3a_branch2c
I1217 18:49:40.444692 17754 net.cpp:150] Setting up scale3a_branch2c
I1217 18:49:40.444696 17754 net.cpp:157] Top shape: 2 512 28 28 (802816)
I1217 18:49:40.444699 17754 net.cpp:165] Memory required for data: 250077208
I1217 18:49:40.444702 17754 layer_factory.hpp:77] Creating layer res3a
I1217 18:49:40.444706 17754 net.cpp:100] Creating Layer res3a
I1217 18:49:40.444708 17754 net.cpp:434] res3a <- res3a_branch1
I1217 18:49:40.444711 17754 net.cpp:434] res3a <- res3a_branch2c
I1217 18:49:40.444715 17754 net.cpp:408] res3a -> res3a
I1217 18:49:40.444738 17754 net.cpp:150] Setting up res3a
I1217 18:49:40.444742 17754 net.cpp:157] Top shape: 2 512 28 28 (802816)
I1217 18:49:40.444744 17754 net.cpp:165] Memory required for data: 253288472
I1217 18:49:40.444746 17754 layer_factory.hpp:77] Creating layer res3a_relu
I1217 18:49:40.444751 17754 net.cpp:100] Creating Layer res3a_relu
I1217 18:49:40.444752 17754 net.cpp:434] res3a_relu <- res3a
I1217 18:49:40.444756 17754 net.cpp:395] res3a_relu -> res3a (in-place)
I1217 18:49:40.444876 17754 net.cpp:150] Setting up res3a_relu
I1217 18:49:40.444882 17754 net.cpp:157] Top shape: 2 512 28 28 (802816)
I1217 18:49:40.444885 17754 net.cpp:165] Memory required for data: 256499736
I1217 18:49:40.444887 17754 layer_factory.hpp:77] Creating layer res3a_res3a_relu_0_split
I1217 18:49:40.444898 17754 net.cpp:100] Creating Layer res3a_res3a_relu_0_split
I1217 18:49:40.444900 17754 net.cpp:434] res3a_res3a_relu_0_split <- res3a
I1217 18:49:40.444905 17754 net.cpp:408] res3a_res3a_relu_0_split -> res3a_res3a_relu_0_split_0
I1217 18:49:40.444911 17754 net.cpp:408] res3a_res3a_relu_0_split -> res3a_res3a_relu_0_split_1
I1217 18:49:40.444938 17754 net.cpp:150] Setting up res3a_res3a_relu_0_split
I1217 18:49:40.444942 17754 net.cpp:157] Top shape: 2 512 28 28 (802816)
I1217 18:49:40.444946 17754 net.cpp:157] Top shape: 2 512 28 28 (802816)
I1217 18:49:40.444947 17754 net.cpp:165] Memory required for data: 262922264
I1217 18:49:40.444949 17754 layer_factory.hpp:77] Creating layer res3b_branch2a
I1217 18:49:40.444955 17754 net.cpp:100] Creating Layer res3b_branch2a
I1217 18:49:40.444958 17754 net.cpp:434] res3b_branch2a <- res3a_res3a_relu_0_split_0
I1217 18:49:40.444962 17754 net.cpp:408] res3b_branch2a -> res3b_branch2a
I1217 18:49:40.445744 17754 net.cpp:150] Setting up res3b_branch2a
I1217 18:49:40.445753 17754 net.cpp:157] Top shape: 2 128 28 28 (200704)
I1217 18:49:40.445755 17754 net.cpp:165] Memory required for data: 263725080
I1217 18:49:40.445760 17754 layer_factory.hpp:77] Creating layer bn3b_branch2a
I1217 18:49:40.445763 17754 net.cpp:100] Creating Layer bn3b_branch2a
I1217 18:49:40.445766 17754 net.cpp:434] bn3b_branch2a <- res3b_branch2a
I1217 18:49:40.445770 17754 net.cpp:395] bn3b_branch2a -> res3b_branch2a (in-place)
I1217 18:49:40.445894 17754 net.cpp:150] Setting up bn3b_branch2a
I1217 18:49:40.445899 17754 net.cpp:157] Top shape: 2 128 28 28 (200704)
I1217 18:49:40.445900 17754 net.cpp:165] Memory required for data: 264527896
I1217 18:49:40.445905 17754 layer_factory.hpp:77] Creating layer scale3b_branch2a
I1217 18:49:40.445910 17754 net.cpp:100] Creating Layer scale3b_branch2a
I1217 18:49:40.445912 17754 net.cpp:434] scale3b_branch2a <- res3b_branch2a
I1217 18:49:40.445916 17754 net.cpp:395] scale3b_branch2a -> res3b_branch2a (in-place)
I1217 18:49:40.445940 17754 layer_factory.hpp:77] Creating layer scale3b_branch2a
I1217 18:49:40.446012 17754 net.cpp:150] Setting up scale3b_branch2a
I1217 18:49:40.446017 17754 net.cpp:157] Top shape: 2 128 28 28 (200704)
I1217 18:49:40.446018 17754 net.cpp:165] Memory required for data: 265330712
I1217 18:49:40.446022 17754 layer_factory.hpp:77] Creating layer res3b_branch2a_relu
I1217 18:49:40.446025 17754 net.cpp:100] Creating Layer res3b_branch2a_relu
I1217 18:49:40.446028 17754 net.cpp:434] res3b_branch2a_relu <- res3b_branch2a
I1217 18:49:40.446030 17754 net.cpp:395] res3b_branch2a_relu -> res3b_branch2a (in-place)
I1217 18:49:40.446152 17754 net.cpp:150] Setting up res3b_branch2a_relu
I1217 18:49:40.446158 17754 net.cpp:157] Top shape: 2 128 28 28 (200704)
I1217 18:49:40.446161 17754 net.cpp:165] Memory required for data: 266133528
I1217 18:49:40.446163 17754 layer_factory.hpp:77] Creating layer res3b_branch2b
I1217 18:49:40.446169 17754 net.cpp:100] Creating Layer res3b_branch2b
I1217 18:49:40.446171 17754 net.cpp:434] res3b_branch2b <- res3b_branch2a
I1217 18:49:40.446175 17754 net.cpp:408] res3b_branch2b -> res3b_branch2b
I1217 18:49:40.447257 17754 net.cpp:150] Setting up res3b_branch2b
I1217 18:49:40.447264 17754 net.cpp:157] Top shape: 2 128 28 28 (200704)
I1217 18:49:40.447268 17754 net.cpp:165] Memory required for data: 266936344
I1217 18:49:40.447270 17754 layer_factory.hpp:77] Creating layer bn3b_branch2b
I1217 18:49:40.447276 17754 net.cpp:100] Creating Layer bn3b_branch2b
I1217 18:49:40.447278 17754 net.cpp:434] bn3b_branch2b <- res3b_branch2b
I1217 18:49:40.447283 17754 net.cpp:395] bn3b_branch2b -> res3b_branch2b (in-place)
I1217 18:49:40.447413 17754 net.cpp:150] Setting up bn3b_branch2b
I1217 18:49:40.447418 17754 net.cpp:157] Top shape: 2 128 28 28 (200704)
I1217 18:49:40.447420 17754 net.cpp:165] Memory required for data: 267739160
I1217 18:49:40.447425 17754 layer_factory.hpp:77] Creating layer scale3b_branch2b
I1217 18:49:40.447429 17754 net.cpp:100] Creating Layer scale3b_branch2b
I1217 18:49:40.447438 17754 net.cpp:434] scale3b_branch2b <- res3b_branch2b
I1217 18:49:40.447443 17754 net.cpp:395] scale3b_branch2b -> res3b_branch2b (in-place)
I1217 18:49:40.447470 17754 layer_factory.hpp:77] Creating layer scale3b_branch2b
I1217 18:49:40.447540 17754 net.cpp:150] Setting up scale3b_branch2b
I1217 18:49:40.447544 17754 net.cpp:157] Top shape: 2 128 28 28 (200704)
I1217 18:49:40.447546 17754 net.cpp:165] Memory required for data: 268541976
I1217 18:49:40.447551 17754 layer_factory.hpp:77] Creating layer res3b_branch2b_relu
I1217 18:49:40.447556 17754 net.cpp:100] Creating Layer res3b_branch2b_relu
I1217 18:49:40.447557 17754 net.cpp:434] res3b_branch2b_relu <- res3b_branch2b
I1217 18:49:40.447561 17754 net.cpp:395] res3b_branch2b_relu -> res3b_branch2b (in-place)
I1217 18:49:40.447681 17754 net.cpp:150] Setting up res3b_branch2b_relu
I1217 18:49:40.447687 17754 net.cpp:157] Top shape: 2 128 28 28 (200704)
I1217 18:49:40.447690 17754 net.cpp:165] Memory required for data: 269344792
I1217 18:49:40.447692 17754 layer_factory.hpp:77] Creating layer res3b_branch2c
I1217 18:49:40.447697 17754 net.cpp:100] Creating Layer res3b_branch2c
I1217 18:49:40.447700 17754 net.cpp:434] res3b_branch2c <- res3b_branch2b
I1217 18:49:40.447705 17754 net.cpp:408] res3b_branch2c -> res3b_branch2c
I1217 18:49:40.448499 17754 net.cpp:150] Setting up res3b_branch2c
I1217 18:49:40.448509 17754 net.cpp:157] Top shape: 2 512 28 28 (802816)
I1217 18:49:40.448511 17754 net.cpp:165] Memory required for data: 272556056
I1217 18:49:40.448515 17754 layer_factory.hpp:77] Creating layer bn3b_branch2c
I1217 18:49:40.448520 17754 net.cpp:100] Creating Layer bn3b_branch2c
I1217 18:49:40.448523 17754 net.cpp:434] bn3b_branch2c <- res3b_branch2c
I1217 18:49:40.448526 17754 net.cpp:395] bn3b_branch2c -> res3b_branch2c (in-place)
I1217 18:49:40.448654 17754 net.cpp:150] Setting up bn3b_branch2c
I1217 18:49:40.448659 17754 net.cpp:157] Top shape: 2 512 28 28 (802816)
I1217 18:49:40.448662 17754 net.cpp:165] Memory required for data: 275767320
I1217 18:49:40.448667 17754 layer_factory.hpp:77] Creating layer scale3b_branch2c
I1217 18:49:40.448670 17754 net.cpp:100] Creating Layer scale3b_branch2c
I1217 18:49:40.448673 17754 net.cpp:434] scale3b_branch2c <- res3b_branch2c
I1217 18:49:40.448676 17754 net.cpp:395] scale3b_branch2c -> res3b_branch2c (in-place)
I1217 18:49:40.448704 17754 layer_factory.hpp:77] Creating layer scale3b_branch2c
I1217 18:49:40.448772 17754 net.cpp:150] Setting up scale3b_branch2c
I1217 18:49:40.448778 17754 net.cpp:157] Top shape: 2 512 28 28 (802816)
I1217 18:49:40.448781 17754 net.cpp:165] Memory required for data: 278978584
I1217 18:49:40.448784 17754 layer_factory.hpp:77] Creating layer res3b
I1217 18:49:40.448787 17754 net.cpp:100] Creating Layer res3b
I1217 18:49:40.448791 17754 net.cpp:434] res3b <- res3a_res3a_relu_0_split_1
I1217 18:49:40.448792 17754 net.cpp:434] res3b <- res3b_branch2c
I1217 18:49:40.448796 17754 net.cpp:408] res3b -> res3b
I1217 18:49:40.448820 17754 net.cpp:150] Setting up res3b
I1217 18:49:40.448823 17754 net.cpp:157] Top shape: 2 512 28 28 (802816)
I1217 18:49:40.448825 17754 net.cpp:165] Memory required for data: 282189848
I1217 18:49:40.448827 17754 layer_factory.hpp:77] Creating layer res3b_relu
I1217 18:49:40.448832 17754 net.cpp:100] Creating Layer res3b_relu
I1217 18:49:40.448833 17754 net.cpp:434] res3b_relu <- res3b
I1217 18:49:40.448837 17754 net.cpp:395] res3b_relu -> res3b (in-place)
I1217 18:49:40.448956 17754 net.cpp:150] Setting up res3b_relu
I1217 18:49:40.448962 17754 net.cpp:157] Top shape: 2 512 28 28 (802816)
I1217 18:49:40.448964 17754 net.cpp:165] Memory required for data: 285401112
I1217 18:49:40.448966 17754 layer_factory.hpp:77] Creating layer res3b_res3b_relu_0_split
I1217 18:49:40.448971 17754 net.cpp:100] Creating Layer res3b_res3b_relu_0_split
I1217 18:49:40.448972 17754 net.cpp:434] res3b_res3b_relu_0_split <- res3b
I1217 18:49:40.448976 17754 net.cpp:408] res3b_res3b_relu_0_split -> res3b_res3b_relu_0_split_0
I1217 18:49:40.448981 17754 net.cpp:408] res3b_res3b_relu_0_split -> res3b_res3b_relu_0_split_1
I1217 18:49:40.449013 17754 net.cpp:150] Setting up res3b_res3b_relu_0_split
I1217 18:49:40.449018 17754 net.cpp:157] Top shape: 2 512 28 28 (802816)
I1217 18:49:40.449019 17754 net.cpp:157] Top shape: 2 512 28 28 (802816)
I1217 18:49:40.449021 17754 net.cpp:165] Memory required for data: 291823640
I1217 18:49:40.449024 17754 layer_factory.hpp:77] Creating layer res3c_branch2a
I1217 18:49:40.449029 17754 net.cpp:100] Creating Layer res3c_branch2a
I1217 18:49:40.449033 17754 net.cpp:434] res3c_branch2a <- res3b_res3b_relu_0_split_0
I1217 18:49:40.449035 17754 net.cpp:408] res3c_branch2a -> res3c_branch2a
I1217 18:49:40.449817 17754 net.cpp:150] Setting up res3c_branch2a
I1217 18:49:40.449826 17754 net.cpp:157] Top shape: 2 128 28 28 (200704)
I1217 18:49:40.449828 17754 net.cpp:165] Memory required for data: 292626456
I1217 18:49:40.449832 17754 layer_factory.hpp:77] Creating layer bn3c_branch2a
I1217 18:49:40.449837 17754 net.cpp:100] Creating Layer bn3c_branch2a
I1217 18:49:40.449841 17754 net.cpp:434] bn3c_branch2a <- res3c_branch2a
I1217 18:49:40.449843 17754 net.cpp:395] bn3c_branch2a -> res3c_branch2a (in-place)
I1217 18:49:40.449991 17754 net.cpp:150] Setting up bn3c_branch2a
I1217 18:49:40.449996 17754 net.cpp:157] Top shape: 2 128 28 28 (200704)
I1217 18:49:40.449998 17754 net.cpp:165] Memory required for data: 293429272
I1217 18:49:40.450004 17754 layer_factory.hpp:77] Creating layer scale3c_branch2a
I1217 18:49:40.450009 17754 net.cpp:100] Creating Layer scale3c_branch2a
I1217 18:49:40.450011 17754 net.cpp:434] scale3c_branch2a <- res3c_branch2a
I1217 18:49:40.450014 17754 net.cpp:395] scale3c_branch2a -> res3c_branch2a (in-place)
I1217 18:49:40.450040 17754 layer_factory.hpp:77] Creating layer scale3c_branch2a
I1217 18:49:40.450111 17754 net.cpp:150] Setting up scale3c_branch2a
I1217 18:49:40.450116 17754 net.cpp:157] Top shape: 2 128 28 28 (200704)
I1217 18:49:40.450119 17754 net.cpp:165] Memory required for data: 294232088
I1217 18:49:40.450121 17754 layer_factory.hpp:77] Creating layer res3c_branch2a_relu
I1217 18:49:40.450125 17754 net.cpp:100] Creating Layer res3c_branch2a_relu
I1217 18:49:40.450127 17754 net.cpp:434] res3c_branch2a_relu <- res3c_branch2a
I1217 18:49:40.450131 17754 net.cpp:395] res3c_branch2a_relu -> res3c_branch2a (in-place)
I1217 18:49:40.450512 17754 net.cpp:150] Setting up res3c_branch2a_relu
I1217 18:49:40.450520 17754 net.cpp:157] Top shape: 2 128 28 28 (200704)
I1217 18:49:40.450523 17754 net.cpp:165] Memory required for data: 295034904
I1217 18:49:40.450525 17754 layer_factory.hpp:77] Creating layer res3c_branch2b
I1217 18:49:40.450532 17754 net.cpp:100] Creating Layer res3c_branch2b
I1217 18:49:40.450536 17754 net.cpp:434] res3c_branch2b <- res3c_branch2a
I1217 18:49:40.450539 17754 net.cpp:408] res3c_branch2b -> res3c_branch2b
I1217 18:49:40.452483 17754 net.cpp:150] Setting up res3c_branch2b
I1217 18:49:40.452493 17754 net.cpp:157] Top shape: 2 128 28 28 (200704)
I1217 18:49:40.452495 17754 net.cpp:165] Memory required for data: 295837720
I1217 18:49:40.452499 17754 layer_factory.hpp:77] Creating layer bn3c_branch2b
I1217 18:49:40.452504 17754 net.cpp:100] Creating Layer bn3c_branch2b
I1217 18:49:40.452508 17754 net.cpp:434] bn3c_branch2b <- res3c_branch2b
I1217 18:49:40.452512 17754 net.cpp:395] bn3c_branch2b -> res3c_branch2b (in-place)
I1217 18:49:40.452648 17754 net.cpp:150] Setting up bn3c_branch2b
I1217 18:49:40.452652 17754 net.cpp:157] Top shape: 2 128 28 28 (200704)
I1217 18:49:40.452654 17754 net.cpp:165] Memory required for data: 296640536
I1217 18:49:40.452661 17754 layer_factory.hpp:77] Creating layer scale3c_branch2b
I1217 18:49:40.452666 17754 net.cpp:100] Creating Layer scale3c_branch2b
I1217 18:49:40.452667 17754 net.cpp:434] scale3c_branch2b <- res3c_branch2b
I1217 18:49:40.452670 17754 net.cpp:395] scale3c_branch2b -> res3c_branch2b (in-place)
I1217 18:49:40.452698 17754 layer_factory.hpp:77] Creating layer scale3c_branch2b
I1217 18:49:40.452775 17754 net.cpp:150] Setting up scale3c_branch2b
I1217 18:49:40.452780 17754 net.cpp:157] Top shape: 2 128 28 28 (200704)
I1217 18:49:40.452788 17754 net.cpp:165] Memory required for data: 297443352
I1217 18:49:40.452793 17754 layer_factory.hpp:77] Creating layer res3c_branch2b_relu
I1217 18:49:40.452797 17754 net.cpp:100] Creating Layer res3c_branch2b_relu
I1217 18:49:40.452800 17754 net.cpp:434] res3c_branch2b_relu <- res3c_branch2b
I1217 18:49:40.452803 17754 net.cpp:395] res3c_branch2b_relu -> res3c_branch2b (in-place)
I1217 18:49:40.452930 17754 net.cpp:150] Setting up res3c_branch2b_relu
I1217 18:49:40.452936 17754 net.cpp:157] Top shape: 2 128 28 28 (200704)
I1217 18:49:40.452939 17754 net.cpp:165] Memory required for data: 298246168
I1217 18:49:40.452940 17754 layer_factory.hpp:77] Creating layer res3c_branch2c
I1217 18:49:40.452946 17754 net.cpp:100] Creating Layer res3c_branch2c
I1217 18:49:40.452950 17754 net.cpp:434] res3c_branch2c <- res3c_branch2b
I1217 18:49:40.452953 17754 net.cpp:408] res3c_branch2c -> res3c_branch2c
I1217 18:49:40.454239 17754 net.cpp:150] Setting up res3c_branch2c
I1217 18:49:40.454248 17754 net.cpp:157] Top shape: 2 512 28 28 (802816)
I1217 18:49:40.454250 17754 net.cpp:165] Memory required for data: 301457432
I1217 18:49:40.454254 17754 layer_factory.hpp:77] Creating layer bn3c_branch2c
I1217 18:49:40.454259 17754 net.cpp:100] Creating Layer bn3c_branch2c
I1217 18:49:40.454262 17754 net.cpp:434] bn3c_branch2c <- res3c_branch2c
I1217 18:49:40.454265 17754 net.cpp:395] bn3c_branch2c -> res3c_branch2c (in-place)
I1217 18:49:40.454396 17754 net.cpp:150] Setting up bn3c_branch2c
I1217 18:49:40.454401 17754 net.cpp:157] Top shape: 2 512 28 28 (802816)
I1217 18:49:40.454403 17754 net.cpp:165] Memory required for data: 304668696
I1217 18:49:40.454408 17754 layer_factory.hpp:77] Creating layer scale3c_branch2c
I1217 18:49:40.454412 17754 net.cpp:100] Creating Layer scale3c_branch2c
I1217 18:49:40.454414 17754 net.cpp:434] scale3c_branch2c <- res3c_branch2c
I1217 18:49:40.454417 17754 net.cpp:395] scale3c_branch2c -> res3c_branch2c (in-place)
I1217 18:49:40.454447 17754 layer_factory.hpp:77] Creating layer scale3c_branch2c
I1217 18:49:40.454519 17754 net.cpp:150] Setting up scale3c_branch2c
I1217 18:49:40.454522 17754 net.cpp:157] Top shape: 2 512 28 28 (802816)
I1217 18:49:40.454524 17754 net.cpp:165] Memory required for data: 307879960
I1217 18:49:40.454529 17754 layer_factory.hpp:77] Creating layer res3c
I1217 18:49:40.454533 17754 net.cpp:100] Creating Layer res3c
I1217 18:49:40.454535 17754 net.cpp:434] res3c <- res3b_res3b_relu_0_split_1
I1217 18:49:40.454538 17754 net.cpp:434] res3c <- res3c_branch2c
I1217 18:49:40.454541 17754 net.cpp:408] res3c -> res3c
I1217 18:49:40.454568 17754 net.cpp:150] Setting up res3c
I1217 18:49:40.454571 17754 net.cpp:157] Top shape: 2 512 28 28 (802816)
I1217 18:49:40.454573 17754 net.cpp:165] Memory required for data: 311091224
I1217 18:49:40.454577 17754 layer_factory.hpp:77] Creating layer res3c_relu
I1217 18:49:40.454581 17754 net.cpp:100] Creating Layer res3c_relu
I1217 18:49:40.454583 17754 net.cpp:434] res3c_relu <- res3c
I1217 18:49:40.454587 17754 net.cpp:395] res3c_relu -> res3c (in-place)
I1217 18:49:40.454710 17754 net.cpp:150] Setting up res3c_relu
I1217 18:49:40.454715 17754 net.cpp:157] Top shape: 2 512 28 28 (802816)
I1217 18:49:40.454717 17754 net.cpp:165] Memory required for data: 314302488
I1217 18:49:40.454720 17754 layer_factory.hpp:77] Creating layer res3c_res3c_relu_0_split
I1217 18:49:40.454725 17754 net.cpp:100] Creating Layer res3c_res3c_relu_0_split
I1217 18:49:40.454726 17754 net.cpp:434] res3c_res3c_relu_0_split <- res3c
I1217 18:49:40.454741 17754 net.cpp:408] res3c_res3c_relu_0_split -> res3c_res3c_relu_0_split_0
I1217 18:49:40.454744 17754 net.cpp:408] res3c_res3c_relu_0_split -> res3c_res3c_relu_0_split_1
I1217 18:49:40.454782 17754 net.cpp:150] Setting up res3c_res3c_relu_0_split
I1217 18:49:40.454785 17754 net.cpp:157] Top shape: 2 512 28 28 (802816)
I1217 18:49:40.454788 17754 net.cpp:157] Top shape: 2 512 28 28 (802816)
I1217 18:49:40.454790 17754 net.cpp:165] Memory required for data: 320725016
I1217 18:49:40.454798 17754 layer_factory.hpp:77] Creating layer res3d_branch2a
I1217 18:49:40.454804 17754 net.cpp:100] Creating Layer res3d_branch2a
I1217 18:49:40.454807 17754 net.cpp:434] res3d_branch2a <- res3c_res3c_relu_0_split_0
I1217 18:49:40.454810 17754 net.cpp:408] res3d_branch2a -> res3d_branch2a
I1217 18:49:40.456851 17754 net.cpp:150] Setting up res3d_branch2a
I1217 18:49:40.456861 17754 net.cpp:157] Top shape: 2 128 28 28 (200704)
I1217 18:49:40.456863 17754 net.cpp:165] Memory required for data: 321527832
I1217 18:49:40.456867 17754 layer_factory.hpp:77] Creating layer bn3d_branch2a
I1217 18:49:40.456871 17754 net.cpp:100] Creating Layer bn3d_branch2a
I1217 18:49:40.456874 17754 net.cpp:434] bn3d_branch2a <- res3d_branch2a
I1217 18:49:40.456878 17754 net.cpp:395] bn3d_branch2a -> res3d_branch2a (in-place)
I1217 18:49:40.457010 17754 net.cpp:150] Setting up bn3d_branch2a
I1217 18:49:40.457015 17754 net.cpp:157] Top shape: 2 128 28 28 (200704)
I1217 18:49:40.457017 17754 net.cpp:165] Memory required for data: 322330648
I1217 18:49:40.457034 17754 layer_factory.hpp:77] Creating layer scale3d_branch2a
I1217 18:49:40.457041 17754 net.cpp:100] Creating Layer scale3d_branch2a
I1217 18:49:40.457043 17754 net.cpp:434] scale3d_branch2a <- res3d_branch2a
I1217 18:49:40.457046 17754 net.cpp:395] scale3d_branch2a -> res3d_branch2a (in-place)
I1217 18:49:40.457075 17754 layer_factory.hpp:77] Creating layer scale3d_branch2a
I1217 18:49:40.457149 17754 net.cpp:150] Setting up scale3d_branch2a
I1217 18:49:40.457154 17754 net.cpp:157] Top shape: 2 128 28 28 (200704)
I1217 18:49:40.457156 17754 net.cpp:165] Memory required for data: 323133464
I1217 18:49:40.457159 17754 layer_factory.hpp:77] Creating layer res3d_branch2a_relu
I1217 18:49:40.457164 17754 net.cpp:100] Creating Layer res3d_branch2a_relu
I1217 18:49:40.457165 17754 net.cpp:434] res3d_branch2a_relu <- res3d_branch2a
I1217 18:49:40.457168 17754 net.cpp:395] res3d_branch2a_relu -> res3d_branch2a (in-place)
I1217 18:49:40.457295 17754 net.cpp:150] Setting up res3d_branch2a_relu
I1217 18:49:40.457301 17754 net.cpp:157] Top shape: 2 128 28 28 (200704)
I1217 18:49:40.457304 17754 net.cpp:165] Memory required for data: 323936280
I1217 18:49:40.457305 17754 layer_factory.hpp:77] Creating layer res3d_branch2b
I1217 18:49:40.457324 17754 net.cpp:100] Creating Layer res3d_branch2b
I1217 18:49:40.457326 17754 net.cpp:434] res3d_branch2b <- res3d_branch2a
I1217 18:49:40.457329 17754 net.cpp:408] res3d_branch2b -> res3d_branch2b
I1217 18:49:40.458793 17754 net.cpp:150] Setting up res3d_branch2b
I1217 18:49:40.458802 17754 net.cpp:157] Top shape: 2 128 28 28 (200704)
I1217 18:49:40.458806 17754 net.cpp:165] Memory required for data: 324739096
I1217 18:49:40.458809 17754 layer_factory.hpp:77] Creating layer bn3d_branch2b
I1217 18:49:40.458814 17754 net.cpp:100] Creating Layer bn3d_branch2b
I1217 18:49:40.458817 17754 net.cpp:434] bn3d_branch2b <- res3d_branch2b
I1217 18:49:40.458822 17754 net.cpp:395] bn3d_branch2b -> res3d_branch2b (in-place)
I1217 18:49:40.458961 17754 net.cpp:150] Setting up bn3d_branch2b
I1217 18:49:40.458964 17754 net.cpp:157] Top shape: 2 128 28 28 (200704)
I1217 18:49:40.458967 17754 net.cpp:165] Memory required for data: 325541912
I1217 18:49:40.458972 17754 layer_factory.hpp:77] Creating layer scale3d_branch2b
I1217 18:49:40.458976 17754 net.cpp:100] Creating Layer scale3d_branch2b
I1217 18:49:40.458979 17754 net.cpp:434] scale3d_branch2b <- res3d_branch2b
I1217 18:49:40.458982 17754 net.cpp:395] scale3d_branch2b -> res3d_branch2b (in-place)
I1217 18:49:40.459010 17754 layer_factory.hpp:77] Creating layer scale3d_branch2b
I1217 18:49:40.459086 17754 net.cpp:150] Setting up scale3d_branch2b
I1217 18:49:40.459090 17754 net.cpp:157] Top shape: 2 128 28 28 (200704)
I1217 18:49:40.459092 17754 net.cpp:165] Memory required for data: 326344728
I1217 18:49:40.459096 17754 layer_factory.hpp:77] Creating layer res3d_branch2b_relu
I1217 18:49:40.459101 17754 net.cpp:100] Creating Layer res3d_branch2b_relu
I1217 18:49:40.459103 17754 net.cpp:434] res3d_branch2b_relu <- res3d_branch2b
I1217 18:49:40.459113 17754 net.cpp:395] res3d_branch2b_relu -> res3d_branch2b (in-place)
I1217 18:49:40.459246 17754 net.cpp:150] Setting up res3d_branch2b_relu
I1217 18:49:40.459252 17754 net.cpp:157] Top shape: 2 128 28 28 (200704)
I1217 18:49:40.459254 17754 net.cpp:165] Memory required for data: 327147544
I1217 18:49:40.459257 17754 layer_factory.hpp:77] Creating layer res3d_branch2c
I1217 18:49:40.459262 17754 net.cpp:100] Creating Layer res3d_branch2c
I1217 18:49:40.459265 17754 net.cpp:434] res3d_branch2c <- res3d_branch2b
I1217 18:49:40.459270 17754 net.cpp:408] res3d_branch2c -> res3d_branch2c
I1217 18:49:40.460129 17754 net.cpp:150] Setting up res3d_branch2c
I1217 18:49:40.460140 17754 net.cpp:157] Top shape: 2 512 28 28 (802816)
I1217 18:49:40.460142 17754 net.cpp:165] Memory required for data: 330358808
I1217 18:49:40.460146 17754 layer_factory.hpp:77] Creating layer bn3d_branch2c
I1217 18:49:40.460151 17754 net.cpp:100] Creating Layer bn3d_branch2c
I1217 18:49:40.460153 17754 net.cpp:434] bn3d_branch2c <- res3d_branch2c
I1217 18:49:40.460157 17754 net.cpp:395] bn3d_branch2c -> res3d_branch2c (in-place)
I1217 18:49:40.460294 17754 net.cpp:150] Setting up bn3d_branch2c
I1217 18:49:40.460297 17754 net.cpp:157] Top shape: 2 512 28 28 (802816)
I1217 18:49:40.460300 17754 net.cpp:165] Memory required for data: 333570072
I1217 18:49:40.460305 17754 layer_factory.hpp:77] Creating layer scale3d_branch2c
I1217 18:49:40.460309 17754 net.cpp:100] Creating Layer scale3d_branch2c
I1217 18:49:40.460312 17754 net.cpp:434] scale3d_branch2c <- res3d_branch2c
I1217 18:49:40.460315 17754 net.cpp:395] scale3d_branch2c -> res3d_branch2c (in-place)
I1217 18:49:40.460345 17754 layer_factory.hpp:77] Creating layer scale3d_branch2c
I1217 18:49:40.460419 17754 net.cpp:150] Setting up scale3d_branch2c
I1217 18:49:40.460423 17754 net.cpp:157] Top shape: 2 512 28 28 (802816)
I1217 18:49:40.460427 17754 net.cpp:165] Memory required for data: 336781336
I1217 18:49:40.460429 17754 layer_factory.hpp:77] Creating layer res3d
I1217 18:49:40.460434 17754 net.cpp:100] Creating Layer res3d
I1217 18:49:40.460436 17754 net.cpp:434] res3d <- res3c_res3c_relu_0_split_1
I1217 18:49:40.460439 17754 net.cpp:434] res3d <- res3d_branch2c
I1217 18:49:40.460443 17754 net.cpp:408] res3d -> res3d
I1217 18:49:40.460469 17754 net.cpp:150] Setting up res3d
I1217 18:49:40.460472 17754 net.cpp:157] Top shape: 2 512 28 28 (802816)
I1217 18:49:40.460475 17754 net.cpp:165] Memory required for data: 339992600
I1217 18:49:40.460477 17754 layer_factory.hpp:77] Creating layer res3d_relu
I1217 18:49:40.460480 17754 net.cpp:100] Creating Layer res3d_relu
I1217 18:49:40.460484 17754 net.cpp:434] res3d_relu <- res3d
I1217 18:49:40.460486 17754 net.cpp:395] res3d_relu -> res3d (in-place)
I1217 18:49:40.460611 17754 net.cpp:150] Setting up res3d_relu
I1217 18:49:40.460618 17754 net.cpp:157] Top shape: 2 512 28 28 (802816)
I1217 18:49:40.460619 17754 net.cpp:165] Memory required for data: 343203864
I1217 18:49:40.460623 17754 layer_factory.hpp:77] Creating layer res3d_res3d_relu_0_split
I1217 18:49:40.460626 17754 net.cpp:100] Creating Layer res3d_res3d_relu_0_split
I1217 18:49:40.460628 17754 net.cpp:434] res3d_res3d_relu_0_split <- res3d
I1217 18:49:40.460633 17754 net.cpp:408] res3d_res3d_relu_0_split -> res3d_res3d_relu_0_split_0
I1217 18:49:40.460636 17754 net.cpp:408] res3d_res3d_relu_0_split -> res3d_res3d_relu_0_split_1
I1217 18:49:40.460664 17754 net.cpp:150] Setting up res3d_res3d_relu_0_split
I1217 18:49:40.460669 17754 net.cpp:157] Top shape: 2 512 28 28 (802816)
I1217 18:49:40.460671 17754 net.cpp:157] Top shape: 2 512 28 28 (802816)
I1217 18:49:40.460674 17754 net.cpp:165] Memory required for data: 349626392
I1217 18:49:40.460675 17754 layer_factory.hpp:77] Creating layer res4a_branch1
I1217 18:49:40.460681 17754 net.cpp:100] Creating Layer res4a_branch1
I1217 18:49:40.460683 17754 net.cpp:434] res4a_branch1 <- res3d_res3d_relu_0_split_0
I1217 18:49:40.460687 17754 net.cpp:408] res4a_branch1 -> res4a_branch1
I1217 18:49:40.462209 17754 net.cpp:150] Setting up res4a_branch1
I1217 18:49:40.462227 17754 net.cpp:157] Top shape: 2 1024 14 14 (401408)
I1217 18:49:40.462230 17754 net.cpp:165] Memory required for data: 351232024
I1217 18:49:40.462234 17754 layer_factory.hpp:77] Creating layer bn4a_branch1
I1217 18:49:40.462241 17754 net.cpp:100] Creating Layer bn4a_branch1
I1217 18:49:40.462244 17754 net.cpp:434] bn4a_branch1 <- res4a_branch1
I1217 18:49:40.462249 17754 net.cpp:395] bn4a_branch1 -> res4a_branch1 (in-place)
I1217 18:49:40.462393 17754 net.cpp:150] Setting up bn4a_branch1
I1217 18:49:40.462399 17754 net.cpp:157] Top shape: 2 1024 14 14 (401408)
I1217 18:49:40.462400 17754 net.cpp:165] Memory required for data: 352837656
I1217 18:49:40.462405 17754 layer_factory.hpp:77] Creating layer scale4a_branch1
I1217 18:49:40.462410 17754 net.cpp:100] Creating Layer scale4a_branch1
I1217 18:49:40.462414 17754 net.cpp:434] scale4a_branch1 <- res4a_branch1
I1217 18:49:40.462416 17754 net.cpp:395] scale4a_branch1 -> res4a_branch1 (in-place)
I1217 18:49:40.462442 17754 layer_factory.hpp:77] Creating layer scale4a_branch1
I1217 18:49:40.462534 17754 net.cpp:150] Setting up scale4a_branch1
I1217 18:49:40.462539 17754 net.cpp:157] Top shape: 2 1024 14 14 (401408)
I1217 18:49:40.462541 17754 net.cpp:165] Memory required for data: 354443288
I1217 18:49:40.462545 17754 layer_factory.hpp:77] Creating layer res4a_branch2a
I1217 18:49:40.462551 17754 net.cpp:100] Creating Layer res4a_branch2a
I1217 18:49:40.462553 17754 net.cpp:434] res4a_branch2a <- res3d_res3d_relu_0_split_1
I1217 18:49:40.462558 17754 net.cpp:408] res4a_branch2a -> res4a_branch2a
I1217 18:49:40.463459 17754 net.cpp:150] Setting up res4a_branch2a
I1217 18:49:40.463467 17754 net.cpp:157] Top shape: 2 256 14 14 (100352)
I1217 18:49:40.463470 17754 net.cpp:165] Memory required for data: 354844696
I1217 18:49:40.463474 17754 layer_factory.hpp:77] Creating layer bn4a_branch2a
I1217 18:49:40.463479 17754 net.cpp:100] Creating Layer bn4a_branch2a
I1217 18:49:40.463482 17754 net.cpp:434] bn4a_branch2a <- res4a_branch2a
I1217 18:49:40.463486 17754 net.cpp:395] bn4a_branch2a -> res4a_branch2a (in-place)
I1217 18:49:40.463618 17754 net.cpp:150] Setting up bn4a_branch2a
I1217 18:49:40.463624 17754 net.cpp:157] Top shape: 2 256 14 14 (100352)
I1217 18:49:40.463625 17754 net.cpp:165] Memory required for data: 355246104
I1217 18:49:40.463630 17754 layer_factory.hpp:77] Creating layer scale4a_branch2a
I1217 18:49:40.463635 17754 net.cpp:100] Creating Layer scale4a_branch2a
I1217 18:49:40.463637 17754 net.cpp:434] scale4a_branch2a <- res4a_branch2a
I1217 18:49:40.463640 17754 net.cpp:395] scale4a_branch2a -> res4a_branch2a (in-place)
I1217 18:49:40.463668 17754 layer_factory.hpp:77] Creating layer scale4a_branch2a
I1217 18:49:40.463742 17754 net.cpp:150] Setting up scale4a_branch2a
I1217 18:49:40.463747 17754 net.cpp:157] Top shape: 2 256 14 14 (100352)
I1217 18:49:40.463749 17754 net.cpp:165] Memory required for data: 355647512
I1217 18:49:40.463752 17754 layer_factory.hpp:77] Creating layer res4a_branch2a_relu
I1217 18:49:40.463757 17754 net.cpp:100] Creating Layer res4a_branch2a_relu
I1217 18:49:40.463758 17754 net.cpp:434] res4a_branch2a_relu <- res4a_branch2a
I1217 18:49:40.463762 17754 net.cpp:395] res4a_branch2a_relu -> res4a_branch2a (in-place)
I1217 18:49:40.464151 17754 net.cpp:150] Setting up res4a_branch2a_relu
I1217 18:49:40.464160 17754 net.cpp:157] Top shape: 2 256 14 14 (100352)
I1217 18:49:40.464162 17754 net.cpp:165] Memory required for data: 356048920
I1217 18:49:40.464165 17754 layer_factory.hpp:77] Creating layer res4a_branch2b
I1217 18:49:40.464171 17754 net.cpp:100] Creating Layer res4a_branch2b
I1217 18:49:40.464174 17754 net.cpp:434] res4a_branch2b <- res4a_branch2a
I1217 18:49:40.464179 17754 net.cpp:408] res4a_branch2b -> res4a_branch2b
I1217 18:49:40.465700 17754 net.cpp:150] Setting up res4a_branch2b
I1217 18:49:40.465709 17754 net.cpp:157] Top shape: 2 256 14 14 (100352)
I1217 18:49:40.465711 17754 net.cpp:165] Memory required for data: 356450328
I1217 18:49:40.465715 17754 layer_factory.hpp:77] Creating layer bn4a_branch2b
I1217 18:49:40.465729 17754 net.cpp:100] Creating Layer bn4a_branch2b
I1217 18:49:40.465732 17754 net.cpp:434] bn4a_branch2b <- res4a_branch2b
I1217 18:49:40.465736 17754 net.cpp:395] bn4a_branch2b -> res4a_branch2b (in-place)
I1217 18:49:40.465874 17754 net.cpp:150] Setting up bn4a_branch2b
I1217 18:49:40.465879 17754 net.cpp:157] Top shape: 2 256 14 14 (100352)
I1217 18:49:40.465881 17754 net.cpp:165] Memory required for data: 356851736
I1217 18:49:40.465886 17754 layer_factory.hpp:77] Creating layer scale4a_branch2b
I1217 18:49:40.465891 17754 net.cpp:100] Creating Layer scale4a_branch2b
I1217 18:49:40.465893 17754 net.cpp:434] scale4a_branch2b <- res4a_branch2b
I1217 18:49:40.465896 17754 net.cpp:395] scale4a_branch2b -> res4a_branch2b (in-place)
I1217 18:49:40.465926 17754 layer_factory.hpp:77] Creating layer scale4a_branch2b
I1217 18:49:40.466001 17754 net.cpp:150] Setting up scale4a_branch2b
I1217 18:49:40.466004 17754 net.cpp:157] Top shape: 2 256 14 14 (100352)
I1217 18:49:40.466006 17754 net.cpp:165] Memory required for data: 357253144
I1217 18:49:40.466011 17754 layer_factory.hpp:77] Creating layer res4a_branch2b_relu
I1217 18:49:40.466014 17754 net.cpp:100] Creating Layer res4a_branch2b_relu
I1217 18:49:40.466017 17754 net.cpp:434] res4a_branch2b_relu <- res4a_branch2b
I1217 18:49:40.466020 17754 net.cpp:395] res4a_branch2b_relu -> res4a_branch2b (in-place)
I1217 18:49:40.466404 17754 net.cpp:150] Setting up res4a_branch2b_relu
I1217 18:49:40.466413 17754 net.cpp:157] Top shape: 2 256 14 14 (100352)
I1217 18:49:40.466415 17754 net.cpp:165] Memory required for data: 357654552
I1217 18:49:40.466418 17754 layer_factory.hpp:77] Creating layer res4a_branch2c
I1217 18:49:40.466424 17754 net.cpp:100] Creating Layer res4a_branch2c
I1217 18:49:40.466428 17754 net.cpp:434] res4a_branch2c <- res4a_branch2b
I1217 18:49:40.466431 17754 net.cpp:408] res4a_branch2c -> res4a_branch2c
I1217 18:49:40.467797 17754 net.cpp:150] Setting up res4a_branch2c
I1217 18:49:40.467808 17754 net.cpp:157] Top shape: 2 1024 14 14 (401408)
I1217 18:49:40.467809 17754 net.cpp:165] Memory required for data: 359260184
I1217 18:49:40.467813 17754 layer_factory.hpp:77] Creating layer bn4a_branch2c
I1217 18:49:40.467819 17754 net.cpp:100] Creating Layer bn4a_branch2c
I1217 18:49:40.467823 17754 net.cpp:434] bn4a_branch2c <- res4a_branch2c
I1217 18:49:40.467825 17754 net.cpp:395] bn4a_branch2c -> res4a_branch2c (in-place)
I1217 18:49:40.467963 17754 net.cpp:150] Setting up bn4a_branch2c
I1217 18:49:40.467968 17754 net.cpp:157] Top shape: 2 1024 14 14 (401408)
I1217 18:49:40.467970 17754 net.cpp:165] Memory required for data: 360865816
I1217 18:49:40.467975 17754 layer_factory.hpp:77] Creating layer scale4a_branch2c
I1217 18:49:40.467979 17754 net.cpp:100] Creating Layer scale4a_branch2c
I1217 18:49:40.467983 17754 net.cpp:434] scale4a_branch2c <- res4a_branch2c
I1217 18:49:40.467985 17754 net.cpp:395] scale4a_branch2c -> res4a_branch2c (in-place)
I1217 18:49:40.468013 17754 layer_factory.hpp:77] Creating layer scale4a_branch2c
I1217 18:49:40.468091 17754 net.cpp:150] Setting up scale4a_branch2c
I1217 18:49:40.468094 17754 net.cpp:157] Top shape: 2 1024 14 14 (401408)
I1217 18:49:40.468096 17754 net.cpp:165] Memory required for data: 362471448
I1217 18:49:40.468101 17754 layer_factory.hpp:77] Creating layer res4a
I1217 18:49:40.468104 17754 net.cpp:100] Creating Layer res4a
I1217 18:49:40.468107 17754 net.cpp:434] res4a <- res4a_branch1
I1217 18:49:40.468111 17754 net.cpp:434] res4a <- res4a_branch2c
I1217 18:49:40.468113 17754 net.cpp:408] res4a -> res4a
I1217 18:49:40.468138 17754 net.cpp:150] Setting up res4a
I1217 18:49:40.468142 17754 net.cpp:157] Top shape: 2 1024 14 14 (401408)
I1217 18:49:40.468144 17754 net.cpp:165] Memory required for data: 364077080
I1217 18:49:40.468147 17754 layer_factory.hpp:77] Creating layer res4a_relu
I1217 18:49:40.468150 17754 net.cpp:100] Creating Layer res4a_relu
I1217 18:49:40.468152 17754 net.cpp:434] res4a_relu <- res4a
I1217 18:49:40.468155 17754 net.cpp:395] res4a_relu -> res4a (in-place)
I1217 18:49:40.468293 17754 net.cpp:150] Setting up res4a_relu
I1217 18:49:40.468299 17754 net.cpp:157] Top shape: 2 1024 14 14 (401408)
I1217 18:49:40.468302 17754 net.cpp:165] Memory required for data: 365682712
I1217 18:49:40.468304 17754 layer_factory.hpp:77] Creating layer res4a_res4a_relu_0_split
I1217 18:49:40.468317 17754 net.cpp:100] Creating Layer res4a_res4a_relu_0_split
I1217 18:49:40.468319 17754 net.cpp:434] res4a_res4a_relu_0_split <- res4a
I1217 18:49:40.468323 17754 net.cpp:408] res4a_res4a_relu_0_split -> res4a_res4a_relu_0_split_0
I1217 18:49:40.468327 17754 net.cpp:408] res4a_res4a_relu_0_split -> res4a_res4a_relu_0_split_1
I1217 18:49:40.468358 17754 net.cpp:150] Setting up res4a_res4a_relu_0_split
I1217 18:49:40.468361 17754 net.cpp:157] Top shape: 2 1024 14 14 (401408)
I1217 18:49:40.468364 17754 net.cpp:157] Top shape: 2 1024 14 14 (401408)
I1217 18:49:40.468365 17754 net.cpp:165] Memory required for data: 368893976
I1217 18:49:40.468369 17754 layer_factory.hpp:77] Creating layer res4b_branch2a
I1217 18:49:40.468375 17754 net.cpp:100] Creating Layer res4b_branch2a
I1217 18:49:40.468377 17754 net.cpp:434] res4b_branch2a <- res4a_res4a_relu_0_split_0
I1217 18:49:40.468380 17754 net.cpp:408] res4b_branch2a -> res4b_branch2a
I1217 18:49:40.469522 17754 net.cpp:150] Setting up res4b_branch2a
I1217 18:49:40.469532 17754 net.cpp:157] Top shape: 2 256 14 14 (100352)
I1217 18:49:40.469534 17754 net.cpp:165] Memory required for data: 369295384
I1217 18:49:40.469538 17754 layer_factory.hpp:77] Creating layer bn4b_branch2a
I1217 18:49:40.469542 17754 net.cpp:100] Creating Layer bn4b_branch2a
I1217 18:49:40.469545 17754 net.cpp:434] bn4b_branch2a <- res4b_branch2a
I1217 18:49:40.469548 17754 net.cpp:395] bn4b_branch2a -> res4b_branch2a (in-place)
I1217 18:49:40.469686 17754 net.cpp:150] Setting up bn4b_branch2a
I1217 18:49:40.469689 17754 net.cpp:157] Top shape: 2 256 14 14 (100352)
I1217 18:49:40.469692 17754 net.cpp:165] Memory required for data: 369696792
I1217 18:49:40.469697 17754 layer_factory.hpp:77] Creating layer scale4b_branch2a
I1217 18:49:40.469702 17754 net.cpp:100] Creating Layer scale4b_branch2a
I1217 18:49:40.469703 17754 net.cpp:434] scale4b_branch2a <- res4b_branch2a
I1217 18:49:40.469707 17754 net.cpp:395] scale4b_branch2a -> res4b_branch2a (in-place)
I1217 18:49:40.469734 17754 layer_factory.hpp:77] Creating layer scale4b_branch2a
I1217 18:49:40.469808 17754 net.cpp:150] Setting up scale4b_branch2a
I1217 18:49:40.469813 17754 net.cpp:157] Top shape: 2 256 14 14 (100352)
I1217 18:49:40.469815 17754 net.cpp:165] Memory required for data: 370098200
I1217 18:49:40.469818 17754 layer_factory.hpp:77] Creating layer res4b_branch2a_relu
I1217 18:49:40.469822 17754 net.cpp:100] Creating Layer res4b_branch2a_relu
I1217 18:49:40.469825 17754 net.cpp:434] res4b_branch2a_relu <- res4b_branch2a
I1217 18:49:40.469827 17754 net.cpp:395] res4b_branch2a_relu -> res4b_branch2a (in-place)
I1217 18:49:40.469951 17754 net.cpp:150] Setting up res4b_branch2a_relu
I1217 18:49:40.469956 17754 net.cpp:157] Top shape: 2 256 14 14 (100352)
I1217 18:49:40.469959 17754 net.cpp:165] Memory required for data: 370499608
I1217 18:49:40.469961 17754 layer_factory.hpp:77] Creating layer res4b_branch2b
I1217 18:49:40.469967 17754 net.cpp:100] Creating Layer res4b_branch2b
I1217 18:49:40.469969 17754 net.cpp:434] res4b_branch2b <- res4b_branch2a
I1217 18:49:40.469974 17754 net.cpp:408] res4b_branch2b -> res4b_branch2b
I1217 18:49:40.471729 17754 net.cpp:150] Setting up res4b_branch2b
I1217 18:49:40.471738 17754 net.cpp:157] Top shape: 2 256 14 14 (100352)
I1217 18:49:40.471741 17754 net.cpp:165] Memory required for data: 370901016
I1217 18:49:40.471745 17754 layer_factory.hpp:77] Creating layer bn4b_branch2b
I1217 18:49:40.471750 17754 net.cpp:100] Creating Layer bn4b_branch2b
I1217 18:49:40.471753 17754 net.cpp:434] bn4b_branch2b <- res4b_branch2b
I1217 18:49:40.471758 17754 net.cpp:395] bn4b_branch2b -> res4b_branch2b (in-place)
I1217 18:49:40.471899 17754 net.cpp:150] Setting up bn4b_branch2b
I1217 18:49:40.471912 17754 net.cpp:157] Top shape: 2 256 14 14 (100352)
I1217 18:49:40.471915 17754 net.cpp:165] Memory required for data: 371302424
I1217 18:49:40.471920 17754 layer_factory.hpp:77] Creating layer scale4b_branch2b
I1217 18:49:40.471925 17754 net.cpp:100] Creating Layer scale4b_branch2b
I1217 18:49:40.471927 17754 net.cpp:434] scale4b_branch2b <- res4b_branch2b
I1217 18:49:40.471931 17754 net.cpp:395] scale4b_branch2b -> res4b_branch2b (in-place)
I1217 18:49:40.471959 17754 layer_factory.hpp:77] Creating layer scale4b_branch2b
I1217 18:49:40.472036 17754 net.cpp:150] Setting up scale4b_branch2b
I1217 18:49:40.472040 17754 net.cpp:157] Top shape: 2 256 14 14 (100352)
I1217 18:49:40.472043 17754 net.cpp:165] Memory required for data: 371703832
I1217 18:49:40.472046 17754 layer_factory.hpp:77] Creating layer res4b_branch2b_relu
I1217 18:49:40.472050 17754 net.cpp:100] Creating Layer res4b_branch2b_relu
I1217 18:49:40.472052 17754 net.cpp:434] res4b_branch2b_relu <- res4b_branch2b
I1217 18:49:40.472055 17754 net.cpp:395] res4b_branch2b_relu -> res4b_branch2b (in-place)
I1217 18:49:40.472182 17754 net.cpp:150] Setting up res4b_branch2b_relu
I1217 18:49:40.472188 17754 net.cpp:157] Top shape: 2 256 14 14 (100352)
I1217 18:49:40.472190 17754 net.cpp:165] Memory required for data: 372105240
I1217 18:49:40.472193 17754 layer_factory.hpp:77] Creating layer res4b_branch2c
I1217 18:49:40.472199 17754 net.cpp:100] Creating Layer res4b_branch2c
I1217 18:49:40.472201 17754 net.cpp:434] res4b_branch2c <- res4b_branch2b
I1217 18:49:40.472205 17754 net.cpp:408] res4b_branch2c -> res4b_branch2c
I1217 18:49:40.473608 17754 net.cpp:150] Setting up res4b_branch2c
I1217 18:49:40.473618 17754 net.cpp:157] Top shape: 2 1024 14 14 (401408)
I1217 18:49:40.473620 17754 net.cpp:165] Memory required for data: 373710872
I1217 18:49:40.473624 17754 layer_factory.hpp:77] Creating layer bn4b_branch2c
I1217 18:49:40.473630 17754 net.cpp:100] Creating Layer bn4b_branch2c
I1217 18:49:40.473632 17754 net.cpp:434] bn4b_branch2c <- res4b_branch2c
I1217 18:49:40.473636 17754 net.cpp:395] bn4b_branch2c -> res4b_branch2c (in-place)
I1217 18:49:40.473779 17754 net.cpp:150] Setting up bn4b_branch2c
I1217 18:49:40.473783 17754 net.cpp:157] Top shape: 2 1024 14 14 (401408)
I1217 18:49:40.473786 17754 net.cpp:165] Memory required for data: 375316504
I1217 18:49:40.473791 17754 layer_factory.hpp:77] Creating layer scale4b_branch2c
I1217 18:49:40.473795 17754 net.cpp:100] Creating Layer scale4b_branch2c
I1217 18:49:40.473798 17754 net.cpp:434] scale4b_branch2c <- res4b_branch2c
I1217 18:49:40.473800 17754 net.cpp:395] scale4b_branch2c -> res4b_branch2c (in-place)
I1217 18:49:40.473827 17754 layer_factory.hpp:77] Creating layer scale4b_branch2c
I1217 18:49:40.473907 17754 net.cpp:150] Setting up scale4b_branch2c
I1217 18:49:40.473912 17754 net.cpp:157] Top shape: 2 1024 14 14 (401408)
I1217 18:49:40.473913 17754 net.cpp:165] Memory required for data: 376922136
I1217 18:49:40.473917 17754 layer_factory.hpp:77] Creating layer res4b
I1217 18:49:40.473922 17754 net.cpp:100] Creating Layer res4b
I1217 18:49:40.473924 17754 net.cpp:434] res4b <- res4a_res4a_relu_0_split_1
I1217 18:49:40.473927 17754 net.cpp:434] res4b <- res4b_branch2c
I1217 18:49:40.473930 17754 net.cpp:408] res4b -> res4b
I1217 18:49:40.473958 17754 net.cpp:150] Setting up res4b
I1217 18:49:40.473961 17754 net.cpp:157] Top shape: 2 1024 14 14 (401408)
I1217 18:49:40.473963 17754 net.cpp:165] Memory required for data: 378527768
I1217 18:49:40.473965 17754 layer_factory.hpp:77] Creating layer res4b_relu
I1217 18:49:40.473969 17754 net.cpp:100] Creating Layer res4b_relu
I1217 18:49:40.473971 17754 net.cpp:434] res4b_relu <- res4b
I1217 18:49:40.473974 17754 net.cpp:395] res4b_relu -> res4b (in-place)
I1217 18:49:40.474097 17754 net.cpp:150] Setting up res4b_relu
I1217 18:49:40.474103 17754 net.cpp:157] Top shape: 2 1024 14 14 (401408)
I1217 18:49:40.474105 17754 net.cpp:165] Memory required for data: 380133400
I1217 18:49:40.474107 17754 layer_factory.hpp:77] Creating layer res4b_res4b_relu_0_split
I1217 18:49:40.474118 17754 net.cpp:100] Creating Layer res4b_res4b_relu_0_split
I1217 18:49:40.474122 17754 net.cpp:434] res4b_res4b_relu_0_split <- res4b
I1217 18:49:40.474125 17754 net.cpp:408] res4b_res4b_relu_0_split -> res4b_res4b_relu_0_split_0
I1217 18:49:40.474129 17754 net.cpp:408] res4b_res4b_relu_0_split -> res4b_res4b_relu_0_split_1
I1217 18:49:40.474164 17754 net.cpp:150] Setting up res4b_res4b_relu_0_split
I1217 18:49:40.474169 17754 net.cpp:157] Top shape: 2 1024 14 14 (401408)
I1217 18:49:40.474171 17754 net.cpp:157] Top shape: 2 1024 14 14 (401408)
I1217 18:49:40.474174 17754 net.cpp:165] Memory required for data: 383344664
I1217 18:49:40.474175 17754 layer_factory.hpp:77] Creating layer res4c_branch2a
I1217 18:49:40.474181 17754 net.cpp:100] Creating Layer res4c_branch2a
I1217 18:49:40.474184 17754 net.cpp:434] res4c_branch2a <- res4b_res4b_relu_0_split_0
I1217 18:49:40.474187 17754 net.cpp:408] res4c_branch2a -> res4c_branch2a
I1217 18:49:40.475057 17754 net.cpp:150] Setting up res4c_branch2a
I1217 18:49:40.475065 17754 net.cpp:157] Top shape: 2 256 14 14 (100352)
I1217 18:49:40.475069 17754 net.cpp:165] Memory required for data: 383746072
I1217 18:49:40.475071 17754 layer_factory.hpp:77] Creating layer bn4c_branch2a
I1217 18:49:40.475076 17754 net.cpp:100] Creating Layer bn4c_branch2a
I1217 18:49:40.475078 17754 net.cpp:434] bn4c_branch2a <- res4c_branch2a
I1217 18:49:40.475082 17754 net.cpp:395] bn4c_branch2a -> res4c_branch2a (in-place)
I1217 18:49:40.475221 17754 net.cpp:150] Setting up bn4c_branch2a
I1217 18:49:40.475225 17754 net.cpp:157] Top shape: 2 256 14 14 (100352)
I1217 18:49:40.475227 17754 net.cpp:165] Memory required for data: 384147480
I1217 18:49:40.475232 17754 layer_factory.hpp:77] Creating layer scale4c_branch2a
I1217 18:49:40.475236 17754 net.cpp:100] Creating Layer scale4c_branch2a
I1217 18:49:40.475239 17754 net.cpp:434] scale4c_branch2a <- res4c_branch2a
I1217 18:49:40.475244 17754 net.cpp:395] scale4c_branch2a -> res4c_branch2a (in-place)
I1217 18:49:40.475270 17754 layer_factory.hpp:77] Creating layer scale4c_branch2a
I1217 18:49:40.475347 17754 net.cpp:150] Setting up scale4c_branch2a
I1217 18:49:40.475350 17754 net.cpp:157] Top shape: 2 256 14 14 (100352)
I1217 18:49:40.475353 17754 net.cpp:165] Memory required for data: 384548888
I1217 18:49:40.475356 17754 layer_factory.hpp:77] Creating layer res4c_branch2a_relu
I1217 18:49:40.475360 17754 net.cpp:100] Creating Layer res4c_branch2a_relu
I1217 18:49:40.475363 17754 net.cpp:434] res4c_branch2a_relu <- res4c_branch2a
I1217 18:49:40.475366 17754 net.cpp:395] res4c_branch2a_relu -> res4c_branch2a (in-place)
I1217 18:49:40.475757 17754 net.cpp:150] Setting up res4c_branch2a_relu
I1217 18:49:40.475765 17754 net.cpp:157] Top shape: 2 256 14 14 (100352)
I1217 18:49:40.475767 17754 net.cpp:165] Memory required for data: 384950296
I1217 18:49:40.475770 17754 layer_factory.hpp:77] Creating layer res4c_branch2b
I1217 18:49:40.475780 17754 net.cpp:100] Creating Layer res4c_branch2b
I1217 18:49:40.475783 17754 net.cpp:434] res4c_branch2b <- res4c_branch2a
I1217 18:49:40.475790 17754 net.cpp:408] res4c_branch2b -> res4c_branch2b
I1217 18:49:40.477283 17754 net.cpp:150] Setting up res4c_branch2b
I1217 18:49:40.477291 17754 net.cpp:157] Top shape: 2 256 14 14 (100352)
I1217 18:49:40.477294 17754 net.cpp:165] Memory required for data: 385351704
I1217 18:49:40.477298 17754 layer_factory.hpp:77] Creating layer bn4c_branch2b
I1217 18:49:40.477303 17754 net.cpp:100] Creating Layer bn4c_branch2b
I1217 18:49:40.477306 17754 net.cpp:434] bn4c_branch2b <- res4c_branch2b
I1217 18:49:40.477309 17754 net.cpp:395] bn4c_branch2b -> res4c_branch2b (in-place)
I1217 18:49:40.477490 17754 net.cpp:150] Setting up bn4c_branch2b
I1217 18:49:40.477497 17754 net.cpp:157] Top shape: 2 256 14 14 (100352)
I1217 18:49:40.477499 17754 net.cpp:165] Memory required for data: 385753112
I1217 18:49:40.477504 17754 layer_factory.hpp:77] Creating layer scale4c_branch2b
I1217 18:49:40.477509 17754 net.cpp:100] Creating Layer scale4c_branch2b
I1217 18:49:40.477511 17754 net.cpp:434] scale4c_branch2b <- res4c_branch2b
I1217 18:49:40.477524 17754 net.cpp:395] scale4c_branch2b -> res4c_branch2b (in-place)
I1217 18:49:40.477555 17754 layer_factory.hpp:77] Creating layer scale4c_branch2b
I1217 18:49:40.477633 17754 net.cpp:150] Setting up scale4c_branch2b
I1217 18:49:40.477638 17754 net.cpp:157] Top shape: 2 256 14 14 (100352)
I1217 18:49:40.477640 17754 net.cpp:165] Memory required for data: 386154520
I1217 18:49:40.477643 17754 layer_factory.hpp:77] Creating layer res4c_branch2b_relu
I1217 18:49:40.477648 17754 net.cpp:100] Creating Layer res4c_branch2b_relu
I1217 18:49:40.477649 17754 net.cpp:434] res4c_branch2b_relu <- res4c_branch2b
I1217 18:49:40.477653 17754 net.cpp:395] res4c_branch2b_relu -> res4c_branch2b (in-place)
I1217 18:49:40.478045 17754 net.cpp:150] Setting up res4c_branch2b_relu
I1217 18:49:40.478055 17754 net.cpp:157] Top shape: 2 256 14 14 (100352)
I1217 18:49:40.478056 17754 net.cpp:165] Memory required for data: 386555928
I1217 18:49:40.478060 17754 layer_factory.hpp:77] Creating layer res4c_branch2c
I1217 18:49:40.478065 17754 net.cpp:100] Creating Layer res4c_branch2c
I1217 18:49:40.478068 17754 net.cpp:434] res4c_branch2c <- res4c_branch2b
I1217 18:49:40.478072 17754 net.cpp:408] res4c_branch2c -> res4c_branch2c
I1217 18:49:40.479449 17754 net.cpp:150] Setting up res4c_branch2c
I1217 18:49:40.479459 17754 net.cpp:157] Top shape: 2 1024 14 14 (401408)
I1217 18:49:40.479461 17754 net.cpp:165] Memory required for data: 388161560
I1217 18:49:40.479465 17754 layer_factory.hpp:77] Creating layer bn4c_branch2c
I1217 18:49:40.479470 17754 net.cpp:100] Creating Layer bn4c_branch2c
I1217 18:49:40.479473 17754 net.cpp:434] bn4c_branch2c <- res4c_branch2c
I1217 18:49:40.479477 17754 net.cpp:395] bn4c_branch2c -> res4c_branch2c (in-place)
I1217 18:49:40.479621 17754 net.cpp:150] Setting up bn4c_branch2c
I1217 18:49:40.479626 17754 net.cpp:157] Top shape: 2 1024 14 14 (401408)
I1217 18:49:40.479629 17754 net.cpp:165] Memory required for data: 389767192
I1217 18:49:40.479634 17754 layer_factory.hpp:77] Creating layer scale4c_branch2c
I1217 18:49:40.479638 17754 net.cpp:100] Creating Layer scale4c_branch2c
I1217 18:49:40.479640 17754 net.cpp:434] scale4c_branch2c <- res4c_branch2c
I1217 18:49:40.479645 17754 net.cpp:395] scale4c_branch2c -> res4c_branch2c (in-place)
I1217 18:49:40.479671 17754 layer_factory.hpp:77] Creating layer scale4c_branch2c
I1217 18:49:40.479753 17754 net.cpp:150] Setting up scale4c_branch2c
I1217 18:49:40.479758 17754 net.cpp:157] Top shape: 2 1024 14 14 (401408)
I1217 18:49:40.479759 17754 net.cpp:165] Memory required for data: 391372824
I1217 18:49:40.479763 17754 layer_factory.hpp:77] Creating layer res4c
I1217 18:49:40.479768 17754 net.cpp:100] Creating Layer res4c
I1217 18:49:40.479769 17754 net.cpp:434] res4c <- res4b_res4b_relu_0_split_1
I1217 18:49:40.479773 17754 net.cpp:434] res4c <- res4c_branch2c
I1217 18:49:40.479776 17754 net.cpp:408] res4c -> res4c
I1217 18:49:40.479802 17754 net.cpp:150] Setting up res4c
I1217 18:49:40.479806 17754 net.cpp:157] Top shape: 2 1024 14 14 (401408)
I1217 18:49:40.479809 17754 net.cpp:165] Memory required for data: 392978456
I1217 18:49:40.479810 17754 layer_factory.hpp:77] Creating layer res4c_relu
I1217 18:49:40.479813 17754 net.cpp:100] Creating Layer res4c_relu
I1217 18:49:40.479816 17754 net.cpp:434] res4c_relu <- res4c
I1217 18:49:40.479818 17754 net.cpp:395] res4c_relu -> res4c (in-place)
I1217 18:49:40.479943 17754 net.cpp:150] Setting up res4c_relu
I1217 18:49:40.479949 17754 net.cpp:157] Top shape: 2 1024 14 14 (401408)
I1217 18:49:40.479951 17754 net.cpp:165] Memory required for data: 394584088
I1217 18:49:40.479954 17754 layer_factory.hpp:77] Creating layer res4c_res4c_relu_0_split
I1217 18:49:40.479957 17754 net.cpp:100] Creating Layer res4c_res4c_relu_0_split
I1217 18:49:40.479960 17754 net.cpp:434] res4c_res4c_relu_0_split <- res4c
I1217 18:49:40.479964 17754 net.cpp:408] res4c_res4c_relu_0_split -> res4c_res4c_relu_0_split_0
I1217 18:49:40.479969 17754 net.cpp:408] res4c_res4c_relu_0_split -> res4c_res4c_relu_0_split_1
I1217 18:49:40.480005 17754 net.cpp:150] Setting up res4c_res4c_relu_0_split
I1217 18:49:40.480010 17754 net.cpp:157] Top shape: 2 1024 14 14 (401408)
I1217 18:49:40.480012 17754 net.cpp:157] Top shape: 2 1024 14 14 (401408)
I1217 18:49:40.480015 17754 net.cpp:165] Memory required for data: 397795352
I1217 18:49:40.480016 17754 layer_factory.hpp:77] Creating layer res4d_branch2a
I1217 18:49:40.480022 17754 net.cpp:100] Creating Layer res4d_branch2a
I1217 18:49:40.480024 17754 net.cpp:434] res4d_branch2a <- res4c_res4c_relu_0_split_0
I1217 18:49:40.480028 17754 net.cpp:408] res4d_branch2a -> res4d_branch2a
I1217 18:49:40.480914 17754 net.cpp:150] Setting up res4d_branch2a
I1217 18:49:40.480923 17754 net.cpp:157] Top shape: 2 256 14 14 (100352)
I1217 18:49:40.480926 17754 net.cpp:165] Memory required for data: 398196760
I1217 18:49:40.480929 17754 layer_factory.hpp:77] Creating layer bn4d_branch2a
I1217 18:49:40.480934 17754 net.cpp:100] Creating Layer bn4d_branch2a
I1217 18:49:40.480937 17754 net.cpp:434] bn4d_branch2a <- res4d_branch2a
I1217 18:49:40.480940 17754 net.cpp:395] bn4d_branch2a -> res4d_branch2a (in-place)
I1217 18:49:40.481081 17754 net.cpp:150] Setting up bn4d_branch2a
I1217 18:49:40.481086 17754 net.cpp:157] Top shape: 2 256 14 14 (100352)
I1217 18:49:40.481088 17754 net.cpp:165] Memory required for data: 398598168
I1217 18:49:40.481093 17754 layer_factory.hpp:77] Creating layer scale4d_branch2a
I1217 18:49:40.481099 17754 net.cpp:100] Creating Layer scale4d_branch2a
I1217 18:49:40.481101 17754 net.cpp:434] scale4d_branch2a <- res4d_branch2a
I1217 18:49:40.481104 17754 net.cpp:395] scale4d_branch2a -> res4d_branch2a (in-place)
I1217 18:49:40.481133 17754 layer_factory.hpp:77] Creating layer scale4d_branch2a
I1217 18:49:40.481210 17754 net.cpp:150] Setting up scale4d_branch2a
I1217 18:49:40.481215 17754 net.cpp:157] Top shape: 2 256 14 14 (100352)
I1217 18:49:40.481216 17754 net.cpp:165] Memory required for data: 398999576
I1217 18:49:40.481220 17754 layer_factory.hpp:77] Creating layer res4d_branch2a_relu
I1217 18:49:40.481225 17754 net.cpp:100] Creating Layer res4d_branch2a_relu
I1217 18:49:40.481227 17754 net.cpp:434] res4d_branch2a_relu <- res4d_branch2a
I1217 18:49:40.481230 17754 net.cpp:395] res4d_branch2a_relu -> res4d_branch2a (in-place)
I1217 18:49:40.481354 17754 net.cpp:150] Setting up res4d_branch2a_relu
I1217 18:49:40.481360 17754 net.cpp:157] Top shape: 2 256 14 14 (100352)
I1217 18:49:40.481362 17754 net.cpp:165] Memory required for data: 399400984
I1217 18:49:40.481364 17754 layer_factory.hpp:77] Creating layer res4d_branch2b
I1217 18:49:40.481370 17754 net.cpp:100] Creating Layer res4d_branch2b
I1217 18:49:40.481374 17754 net.cpp:434] res4d_branch2b <- res4d_branch2a
I1217 18:49:40.481377 17754 net.cpp:408] res4d_branch2b -> res4d_branch2b
I1217 18:49:40.483227 17754 net.cpp:150] Setting up res4d_branch2b
I1217 18:49:40.483237 17754 net.cpp:157] Top shape: 2 256 14 14 (100352)
I1217 18:49:40.483240 17754 net.cpp:165] Memory required for data: 399802392
I1217 18:49:40.483244 17754 layer_factory.hpp:77] Creating layer bn4d_branch2b
I1217 18:49:40.483249 17754 net.cpp:100] Creating Layer bn4d_branch2b
I1217 18:49:40.483253 17754 net.cpp:434] bn4d_branch2b <- res4d_branch2b
I1217 18:49:40.483258 17754 net.cpp:395] bn4d_branch2b -> res4d_branch2b (in-place)
I1217 18:49:40.483405 17754 net.cpp:150] Setting up bn4d_branch2b
I1217 18:49:40.483410 17754 net.cpp:157] Top shape: 2 256 14 14 (100352)
I1217 18:49:40.483412 17754 net.cpp:165] Memory required for data: 400203800
I1217 18:49:40.483417 17754 layer_factory.hpp:77] Creating layer scale4d_branch2b
I1217 18:49:40.483422 17754 net.cpp:100] Creating Layer scale4d_branch2b
I1217 18:49:40.483425 17754 net.cpp:434] scale4d_branch2b <- res4d_branch2b
I1217 18:49:40.483428 17754 net.cpp:395] scale4d_branch2b -> res4d_branch2b (in-place)
I1217 18:49:40.483458 17754 layer_factory.hpp:77] Creating layer scale4d_branch2b
I1217 18:49:40.483536 17754 net.cpp:150] Setting up scale4d_branch2b
I1217 18:49:40.483541 17754 net.cpp:157] Top shape: 2 256 14 14 (100352)
I1217 18:49:40.483551 17754 net.cpp:165] Memory required for data: 400605208
I1217 18:49:40.483556 17754 layer_factory.hpp:77] Creating layer res4d_branch2b_relu
I1217 18:49:40.483561 17754 net.cpp:100] Creating Layer res4d_branch2b_relu
I1217 18:49:40.483562 17754 net.cpp:434] res4d_branch2b_relu <- res4d_branch2b
I1217 18:49:40.483566 17754 net.cpp:395] res4d_branch2b_relu -> res4d_branch2b (in-place)
I1217 18:49:40.483692 17754 net.cpp:150] Setting up res4d_branch2b_relu
I1217 18:49:40.483698 17754 net.cpp:157] Top shape: 2 256 14 14 (100352)
I1217 18:49:40.483701 17754 net.cpp:165] Memory required for data: 401006616
I1217 18:49:40.483703 17754 layer_factory.hpp:77] Creating layer res4d_branch2c
I1217 18:49:40.483710 17754 net.cpp:100] Creating Layer res4d_branch2c
I1217 18:49:40.483711 17754 net.cpp:434] res4d_branch2c <- res4d_branch2b
I1217 18:49:40.483716 17754 net.cpp:408] res4d_branch2c -> res4d_branch2c
I1217 18:49:40.485091 17754 net.cpp:150] Setting up res4d_branch2c
I1217 18:49:40.485100 17754 net.cpp:157] Top shape: 2 1024 14 14 (401408)
I1217 18:49:40.485103 17754 net.cpp:165] Memory required for data: 402612248
I1217 18:49:40.485107 17754 layer_factory.hpp:77] Creating layer bn4d_branch2c
I1217 18:49:40.485112 17754 net.cpp:100] Creating Layer bn4d_branch2c
I1217 18:49:40.485116 17754 net.cpp:434] bn4d_branch2c <- res4d_branch2c
I1217 18:49:40.485119 17754 net.cpp:395] bn4d_branch2c -> res4d_branch2c (in-place)
I1217 18:49:40.485265 17754 net.cpp:150] Setting up bn4d_branch2c
I1217 18:49:40.485270 17754 net.cpp:157] Top shape: 2 1024 14 14 (401408)
I1217 18:49:40.485271 17754 net.cpp:165] Memory required for data: 404217880
I1217 18:49:40.485276 17754 layer_factory.hpp:77] Creating layer scale4d_branch2c
I1217 18:49:40.485282 17754 net.cpp:100] Creating Layer scale4d_branch2c
I1217 18:49:40.485285 17754 net.cpp:434] scale4d_branch2c <- res4d_branch2c
I1217 18:49:40.485287 17754 net.cpp:395] scale4d_branch2c -> res4d_branch2c (in-place)
I1217 18:49:40.485316 17754 layer_factory.hpp:77] Creating layer scale4d_branch2c
I1217 18:49:40.485399 17754 net.cpp:150] Setting up scale4d_branch2c
I1217 18:49:40.485402 17754 net.cpp:157] Top shape: 2 1024 14 14 (401408)
I1217 18:49:40.485424 17754 net.cpp:165] Memory required for data: 405823512
I1217 18:49:40.485430 17754 layer_factory.hpp:77] Creating layer res4d
I1217 18:49:40.485435 17754 net.cpp:100] Creating Layer res4d
I1217 18:49:40.485437 17754 net.cpp:434] res4d <- res4c_res4c_relu_0_split_1
I1217 18:49:40.485440 17754 net.cpp:434] res4d <- res4d_branch2c
I1217 18:49:40.485453 17754 net.cpp:408] res4d -> res4d
I1217 18:49:40.485483 17754 net.cpp:150] Setting up res4d
I1217 18:49:40.485487 17754 net.cpp:157] Top shape: 2 1024 14 14 (401408)
I1217 18:49:40.485489 17754 net.cpp:165] Memory required for data: 407429144
I1217 18:49:40.485491 17754 layer_factory.hpp:77] Creating layer res4d_relu
I1217 18:49:40.485496 17754 net.cpp:100] Creating Layer res4d_relu
I1217 18:49:40.485497 17754 net.cpp:434] res4d_relu <- res4d
I1217 18:49:40.485500 17754 net.cpp:395] res4d_relu -> res4d (in-place)
I1217 18:49:40.485625 17754 net.cpp:150] Setting up res4d_relu
I1217 18:49:40.485630 17754 net.cpp:157] Top shape: 2 1024 14 14 (401408)
I1217 18:49:40.485632 17754 net.cpp:165] Memory required for data: 409034776
I1217 18:49:40.485635 17754 layer_factory.hpp:77] Creating layer res4d_res4d_relu_0_split
I1217 18:49:40.485638 17754 net.cpp:100] Creating Layer res4d_res4d_relu_0_split
I1217 18:49:40.485641 17754 net.cpp:434] res4d_res4d_relu_0_split <- res4d
I1217 18:49:40.485644 17754 net.cpp:408] res4d_res4d_relu_0_split -> res4d_res4d_relu_0_split_0
I1217 18:49:40.485649 17754 net.cpp:408] res4d_res4d_relu_0_split -> res4d_res4d_relu_0_split_1
I1217 18:49:40.485678 17754 net.cpp:150] Setting up res4d_res4d_relu_0_split
I1217 18:49:40.485682 17754 net.cpp:157] Top shape: 2 1024 14 14 (401408)
I1217 18:49:40.485685 17754 net.cpp:157] Top shape: 2 1024 14 14 (401408)
I1217 18:49:40.485687 17754 net.cpp:165] Memory required for data: 412246040
I1217 18:49:40.485689 17754 layer_factory.hpp:77] Creating layer res4e_branch2a
I1217 18:49:40.485702 17754 net.cpp:100] Creating Layer res4e_branch2a
I1217 18:49:40.485705 17754 net.cpp:434] res4e_branch2a <- res4d_res4d_relu_0_split_0
I1217 18:49:40.485709 17754 net.cpp:408] res4e_branch2a -> res4e_branch2a
I1217 18:49:40.486601 17754 net.cpp:150] Setting up res4e_branch2a
I1217 18:49:40.486610 17754 net.cpp:157] Top shape: 2 256 14 14 (100352)
I1217 18:49:40.486613 17754 net.cpp:165] Memory required for data: 412647448
I1217 18:49:40.486616 17754 layer_factory.hpp:77] Creating layer bn4e_branch2a
I1217 18:49:40.486620 17754 net.cpp:100] Creating Layer bn4e_branch2a
I1217 18:49:40.486624 17754 net.cpp:434] bn4e_branch2a <- res4e_branch2a
I1217 18:49:40.486627 17754 net.cpp:395] bn4e_branch2a -> res4e_branch2a (in-place)
I1217 18:49:40.486771 17754 net.cpp:150] Setting up bn4e_branch2a
I1217 18:49:40.486775 17754 net.cpp:157] Top shape: 2 256 14 14 (100352)
I1217 18:49:40.486778 17754 net.cpp:165] Memory required for data: 413048856
I1217 18:49:40.486783 17754 layer_factory.hpp:77] Creating layer scale4e_branch2a
I1217 18:49:40.486788 17754 net.cpp:100] Creating Layer scale4e_branch2a
I1217 18:49:40.486789 17754 net.cpp:434] scale4e_branch2a <- res4e_branch2a
I1217 18:49:40.486794 17754 net.cpp:395] scale4e_branch2a -> res4e_branch2a (in-place)
I1217 18:49:40.486822 17754 layer_factory.hpp:77] Creating layer scale4e_branch2a
I1217 18:49:40.486901 17754 net.cpp:150] Setting up scale4e_branch2a
I1217 18:49:40.486905 17754 net.cpp:157] Top shape: 2 256 14 14 (100352)
I1217 18:49:40.486907 17754 net.cpp:165] Memory required for data: 413450264
I1217 18:49:40.486912 17754 layer_factory.hpp:77] Creating layer res4e_branch2a_relu
I1217 18:49:40.486915 17754 net.cpp:100] Creating Layer res4e_branch2a_relu
I1217 18:49:40.486917 17754 net.cpp:434] res4e_branch2a_relu <- res4e_branch2a
I1217 18:49:40.486920 17754 net.cpp:395] res4e_branch2a_relu -> res4e_branch2a (in-place)
I1217 18:49:40.487321 17754 net.cpp:150] Setting up res4e_branch2a_relu
I1217 18:49:40.487329 17754 net.cpp:157] Top shape: 2 256 14 14 (100352)
I1217 18:49:40.487332 17754 net.cpp:165] Memory required for data: 413851672
I1217 18:49:40.487335 17754 layer_factory.hpp:77] Creating layer res4e_branch2b
I1217 18:49:40.487341 17754 net.cpp:100] Creating Layer res4e_branch2b
I1217 18:49:40.487344 17754 net.cpp:434] res4e_branch2b <- res4e_branch2a
I1217 18:49:40.487349 17754 net.cpp:408] res4e_branch2b -> res4e_branch2b
I1217 18:49:40.488849 17754 net.cpp:150] Setting up res4e_branch2b
I1217 18:49:40.488857 17754 net.cpp:157] Top shape: 2 256 14 14 (100352)
I1217 18:49:40.488860 17754 net.cpp:165] Memory required for data: 414253080
I1217 18:49:40.488864 17754 layer_factory.hpp:77] Creating layer bn4e_branch2b
I1217 18:49:40.488869 17754 net.cpp:100] Creating Layer bn4e_branch2b
I1217 18:49:40.488873 17754 net.cpp:434] bn4e_branch2b <- res4e_branch2b
I1217 18:49:40.488875 17754 net.cpp:395] bn4e_branch2b -> res4e_branch2b (in-place)
I1217 18:49:40.489027 17754 net.cpp:150] Setting up bn4e_branch2b
I1217 18:49:40.489032 17754 net.cpp:157] Top shape: 2 256 14 14 (100352)
I1217 18:49:40.489034 17754 net.cpp:165] Memory required for data: 414654488
I1217 18:49:40.489039 17754 layer_factory.hpp:77] Creating layer scale4e_branch2b
I1217 18:49:40.489043 17754 net.cpp:100] Creating Layer scale4e_branch2b
I1217 18:49:40.489047 17754 net.cpp:434] scale4e_branch2b <- res4e_branch2b
I1217 18:49:40.489050 17754 net.cpp:395] scale4e_branch2b -> res4e_branch2b (in-place)
I1217 18:49:40.489080 17754 layer_factory.hpp:77] Creating layer scale4e_branch2b
I1217 18:49:40.489161 17754 net.cpp:150] Setting up scale4e_branch2b
I1217 18:49:40.489166 17754 net.cpp:157] Top shape: 2 256 14 14 (100352)
I1217 18:49:40.489167 17754 net.cpp:165] Memory required for data: 415055896
I1217 18:49:40.489171 17754 layer_factory.hpp:77] Creating layer res4e_branch2b_relu
I1217 18:49:40.489174 17754 net.cpp:100] Creating Layer res4e_branch2b_relu
I1217 18:49:40.489176 17754 net.cpp:434] res4e_branch2b_relu <- res4e_branch2b
I1217 18:49:40.489187 17754 net.cpp:395] res4e_branch2b_relu -> res4e_branch2b (in-place)
I1217 18:49:40.489625 17754 net.cpp:150] Setting up res4e_branch2b_relu
I1217 18:49:40.489634 17754 net.cpp:157] Top shape: 2 256 14 14 (100352)
I1217 18:49:40.489636 17754 net.cpp:165] Memory required for data: 415457304
I1217 18:49:40.489650 17754 layer_factory.hpp:77] Creating layer res4e_branch2c
I1217 18:49:40.489656 17754 net.cpp:100] Creating Layer res4e_branch2c
I1217 18:49:40.489660 17754 net.cpp:434] res4e_branch2c <- res4e_branch2b
I1217 18:49:40.489663 17754 net.cpp:408] res4e_branch2c -> res4e_branch2c
I1217 18:49:40.491554 17754 net.cpp:150] Setting up res4e_branch2c
I1217 18:49:40.491565 17754 net.cpp:157] Top shape: 2 1024 14 14 (401408)
I1217 18:49:40.491569 17754 net.cpp:165] Memory required for data: 417062936
I1217 18:49:40.491572 17754 layer_factory.hpp:77] Creating layer bn4e_branch2c
I1217 18:49:40.491580 17754 net.cpp:100] Creating Layer bn4e_branch2c
I1217 18:49:40.491582 17754 net.cpp:434] bn4e_branch2c <- res4e_branch2c
I1217 18:49:40.491587 17754 net.cpp:395] bn4e_branch2c -> res4e_branch2c (in-place)
I1217 18:49:40.491785 17754 net.cpp:150] Setting up bn4e_branch2c
I1217 18:49:40.491792 17754 net.cpp:157] Top shape: 2 1024 14 14 (401408)
I1217 18:49:40.491794 17754 net.cpp:165] Memory required for data: 418668568
I1217 18:49:40.491801 17754 layer_factory.hpp:77] Creating layer scale4e_branch2c
I1217 18:49:40.491806 17754 net.cpp:100] Creating Layer scale4e_branch2c
I1217 18:49:40.491809 17754 net.cpp:434] scale4e_branch2c <- res4e_branch2c
I1217 18:49:40.491812 17754 net.cpp:395] scale4e_branch2c -> res4e_branch2c (in-place)
I1217 18:49:40.491854 17754 layer_factory.hpp:77] Creating layer scale4e_branch2c
I1217 18:49:40.491950 17754 net.cpp:150] Setting up scale4e_branch2c
I1217 18:49:40.491958 17754 net.cpp:157] Top shape: 2 1024 14 14 (401408)
I1217 18:49:40.491962 17754 net.cpp:165] Memory required for data: 420274200
I1217 18:49:40.491969 17754 layer_factory.hpp:77] Creating layer res4e
I1217 18:49:40.491976 17754 net.cpp:100] Creating Layer res4e
I1217 18:49:40.491981 17754 net.cpp:434] res4e <- res4d_res4d_relu_0_split_1
I1217 18:49:40.491986 17754 net.cpp:434] res4e <- res4e_branch2c
I1217 18:49:40.491992 17754 net.cpp:408] res4e -> res4e
I1217 18:49:40.492024 17754 net.cpp:150] Setting up res4e
I1217 18:49:40.492029 17754 net.cpp:157] Top shape: 2 1024 14 14 (401408)
I1217 18:49:40.492031 17754 net.cpp:165] Memory required for data: 421879832
I1217 18:49:40.492033 17754 layer_factory.hpp:77] Creating layer res4e_relu
I1217 18:49:40.492038 17754 net.cpp:100] Creating Layer res4e_relu
I1217 18:49:40.492039 17754 net.cpp:434] res4e_relu <- res4e
I1217 18:49:40.492043 17754 net.cpp:395] res4e_relu -> res4e (in-place)
I1217 18:49:40.492177 17754 net.cpp:150] Setting up res4e_relu
I1217 18:49:40.492183 17754 net.cpp:157] Top shape: 2 1024 14 14 (401408)
I1217 18:49:40.492185 17754 net.cpp:165] Memory required for data: 423485464
I1217 18:49:40.492188 17754 layer_factory.hpp:77] Creating layer res4e_res4e_relu_0_split
I1217 18:49:40.492192 17754 net.cpp:100] Creating Layer res4e_res4e_relu_0_split
I1217 18:49:40.492194 17754 net.cpp:434] res4e_res4e_relu_0_split <- res4e
I1217 18:49:40.492199 17754 net.cpp:408] res4e_res4e_relu_0_split -> res4e_res4e_relu_0_split_0
I1217 18:49:40.492203 17754 net.cpp:408] res4e_res4e_relu_0_split -> res4e_res4e_relu_0_split_1
I1217 18:49:40.492235 17754 net.cpp:150] Setting up res4e_res4e_relu_0_split
I1217 18:49:40.492239 17754 net.cpp:157] Top shape: 2 1024 14 14 (401408)
I1217 18:49:40.492241 17754 net.cpp:157] Top shape: 2 1024 14 14 (401408)
I1217 18:49:40.492244 17754 net.cpp:165] Memory required for data: 426696728
I1217 18:49:40.492246 17754 layer_factory.hpp:77] Creating layer res4f_branch2a
I1217 18:49:40.492252 17754 net.cpp:100] Creating Layer res4f_branch2a
I1217 18:49:40.492255 17754 net.cpp:434] res4f_branch2a <- res4e_res4e_relu_0_split_0
I1217 18:49:40.492259 17754 net.cpp:408] res4f_branch2a -> res4f_branch2a
I1217 18:49:40.493235 17754 net.cpp:150] Setting up res4f_branch2a
I1217 18:49:40.493257 17754 net.cpp:157] Top shape: 2 256 14 14 (100352)
I1217 18:49:40.493259 17754 net.cpp:165] Memory required for data: 427098136
I1217 18:49:40.493264 17754 layer_factory.hpp:77] Creating layer bn4f_branch2a
I1217 18:49:40.493269 17754 net.cpp:100] Creating Layer bn4f_branch2a
I1217 18:49:40.493273 17754 net.cpp:434] bn4f_branch2a <- res4f_branch2a
I1217 18:49:40.493275 17754 net.cpp:395] bn4f_branch2a -> res4f_branch2a (in-place)
I1217 18:49:40.493439 17754 net.cpp:150] Setting up bn4f_branch2a
I1217 18:49:40.493444 17754 net.cpp:157] Top shape: 2 256 14 14 (100352)
I1217 18:49:40.493448 17754 net.cpp:165] Memory required for data: 427499544
I1217 18:49:40.493453 17754 layer_factory.hpp:77] Creating layer scale4f_branch2a
I1217 18:49:40.493458 17754 net.cpp:100] Creating Layer scale4f_branch2a
I1217 18:49:40.493460 17754 net.cpp:434] scale4f_branch2a <- res4f_branch2a
I1217 18:49:40.493463 17754 net.cpp:395] scale4f_branch2a -> res4f_branch2a (in-place)
I1217 18:49:40.493494 17754 layer_factory.hpp:77] Creating layer scale4f_branch2a
I1217 18:49:40.493588 17754 net.cpp:150] Setting up scale4f_branch2a
I1217 18:49:40.493594 17754 net.cpp:157] Top shape: 2 256 14 14 (100352)
I1217 18:49:40.493597 17754 net.cpp:165] Memory required for data: 427900952
I1217 18:49:40.493600 17754 layer_factory.hpp:77] Creating layer res4f_branch2a_relu
I1217 18:49:40.493605 17754 net.cpp:100] Creating Layer res4f_branch2a_relu
I1217 18:49:40.493607 17754 net.cpp:434] res4f_branch2a_relu <- res4f_branch2a
I1217 18:49:40.493610 17754 net.cpp:395] res4f_branch2a_relu -> res4f_branch2a (in-place)
I1217 18:49:40.493743 17754 net.cpp:150] Setting up res4f_branch2a_relu
I1217 18:49:40.493749 17754 net.cpp:157] Top shape: 2 256 14 14 (100352)
I1217 18:49:40.493752 17754 net.cpp:165] Memory required for data: 428302360
I1217 18:49:40.493754 17754 layer_factory.hpp:77] Creating layer res4f_branch2b
I1217 18:49:40.493760 17754 net.cpp:100] Creating Layer res4f_branch2b
I1217 18:49:40.493763 17754 net.cpp:434] res4f_branch2b <- res4f_branch2a
I1217 18:49:40.493767 17754 net.cpp:408] res4f_branch2b -> res4f_branch2b
I1217 18:49:40.495631 17754 net.cpp:150] Setting up res4f_branch2b
I1217 18:49:40.495642 17754 net.cpp:157] Top shape: 2 256 14 14 (100352)
I1217 18:49:40.495645 17754 net.cpp:165] Memory required for data: 428703768
I1217 18:49:40.495648 17754 layer_factory.hpp:77] Creating layer bn4f_branch2b
I1217 18:49:40.495654 17754 net.cpp:100] Creating Layer bn4f_branch2b
I1217 18:49:40.495657 17754 net.cpp:434] bn4f_branch2b <- res4f_branch2b
I1217 18:49:40.495662 17754 net.cpp:395] bn4f_branch2b -> res4f_branch2b (in-place)
I1217 18:49:40.495816 17754 net.cpp:150] Setting up bn4f_branch2b
I1217 18:49:40.495820 17754 net.cpp:157] Top shape: 2 256 14 14 (100352)
I1217 18:49:40.495822 17754 net.cpp:165] Memory required for data: 429105176
I1217 18:49:40.495827 17754 layer_factory.hpp:77] Creating layer scale4f_branch2b
I1217 18:49:40.495832 17754 net.cpp:100] Creating Layer scale4f_branch2b
I1217 18:49:40.495836 17754 net.cpp:434] scale4f_branch2b <- res4f_branch2b
I1217 18:49:40.495838 17754 net.cpp:395] scale4f_branch2b -> res4f_branch2b (in-place)
I1217 18:49:40.495869 17754 layer_factory.hpp:77] Creating layer scale4f_branch2b
I1217 18:49:40.495952 17754 net.cpp:150] Setting up scale4f_branch2b
I1217 18:49:40.495956 17754 net.cpp:157] Top shape: 2 256 14 14 (100352)
I1217 18:49:40.495959 17754 net.cpp:165] Memory required for data: 429506584
I1217 18:49:40.495962 17754 layer_factory.hpp:77] Creating layer res4f_branch2b_relu
I1217 18:49:40.495967 17754 net.cpp:100] Creating Layer res4f_branch2b_relu
I1217 18:49:40.495970 17754 net.cpp:434] res4f_branch2b_relu <- res4f_branch2b
I1217 18:49:40.495972 17754 net.cpp:395] res4f_branch2b_relu -> res4f_branch2b (in-place)
I1217 18:49:40.496100 17754 net.cpp:150] Setting up res4f_branch2b_relu
I1217 18:49:40.496107 17754 net.cpp:157] Top shape: 2 256 14 14 (100352)
I1217 18:49:40.496109 17754 net.cpp:165] Memory required for data: 429907992
I1217 18:49:40.496112 17754 layer_factory.hpp:77] Creating layer res4f_branch2c
I1217 18:49:40.496125 17754 net.cpp:100] Creating Layer res4f_branch2c
I1217 18:49:40.496129 17754 net.cpp:434] res4f_branch2c <- res4f_branch2b
I1217 18:49:40.496132 17754 net.cpp:408] res4f_branch2c -> res4f_branch2c
I1217 18:49:40.497534 17754 net.cpp:150] Setting up res4f_branch2c
I1217 18:49:40.497544 17754 net.cpp:157] Top shape: 2 1024 14 14 (401408)
I1217 18:49:40.497545 17754 net.cpp:165] Memory required for data: 431513624
I1217 18:49:40.497550 17754 layer_factory.hpp:77] Creating layer bn4f_branch2c
I1217 18:49:40.497555 17754 net.cpp:100] Creating Layer bn4f_branch2c
I1217 18:49:40.497558 17754 net.cpp:434] bn4f_branch2c <- res4f_branch2c
I1217 18:49:40.497561 17754 net.cpp:395] bn4f_branch2c -> res4f_branch2c (in-place)
I1217 18:49:40.497714 17754 net.cpp:150] Setting up bn4f_branch2c
I1217 18:49:40.497719 17754 net.cpp:157] Top shape: 2 1024 14 14 (401408)
I1217 18:49:40.497721 17754 net.cpp:165] Memory required for data: 433119256
I1217 18:49:40.497747 17754 layer_factory.hpp:77] Creating layer scale4f_branch2c
I1217 18:49:40.497753 17754 net.cpp:100] Creating Layer scale4f_branch2c
I1217 18:49:40.497756 17754 net.cpp:434] scale4f_branch2c <- res4f_branch2c
I1217 18:49:40.497759 17754 net.cpp:395] scale4f_branch2c -> res4f_branch2c (in-place)
I1217 18:49:40.497788 17754 layer_factory.hpp:77] Creating layer scale4f_branch2c
I1217 18:49:40.497874 17754 net.cpp:150] Setting up scale4f_branch2c
I1217 18:49:40.497879 17754 net.cpp:157] Top shape: 2 1024 14 14 (401408)
I1217 18:49:40.497880 17754 net.cpp:165] Memory required for data: 434724888
I1217 18:49:40.497884 17754 layer_factory.hpp:77] Creating layer res4f
I1217 18:49:40.497889 17754 net.cpp:100] Creating Layer res4f
I1217 18:49:40.497891 17754 net.cpp:434] res4f <- res4e_res4e_relu_0_split_1
I1217 18:49:40.497895 17754 net.cpp:434] res4f <- res4f_branch2c
I1217 18:49:40.497897 17754 net.cpp:408] res4f -> res4f
I1217 18:49:40.497926 17754 net.cpp:150] Setting up res4f
I1217 18:49:40.497931 17754 net.cpp:157] Top shape: 2 1024 14 14 (401408)
I1217 18:49:40.497932 17754 net.cpp:165] Memory required for data: 436330520
I1217 18:49:40.497934 17754 layer_factory.hpp:77] Creating layer res4f_relu
I1217 18:49:40.497937 17754 net.cpp:100] Creating Layer res4f_relu
I1217 18:49:40.497941 17754 net.cpp:434] res4f_relu <- res4f
I1217 18:49:40.497943 17754 net.cpp:395] res4f_relu -> res4f (in-place)
I1217 18:49:40.498070 17754 net.cpp:150] Setting up res4f_relu
I1217 18:49:40.498075 17754 net.cpp:157] Top shape: 2 1024 14 14 (401408)
I1217 18:49:40.498077 17754 net.cpp:165] Memory required for data: 437936152
I1217 18:49:40.498080 17754 layer_factory.hpp:77] Creating layer res4f_res4f_relu_0_split
I1217 18:49:40.498085 17754 net.cpp:100] Creating Layer res4f_res4f_relu_0_split
I1217 18:49:40.498086 17754 net.cpp:434] res4f_res4f_relu_0_split <- res4f
I1217 18:49:40.498090 17754 net.cpp:408] res4f_res4f_relu_0_split -> res4f_res4f_relu_0_split_0
I1217 18:49:40.498095 17754 net.cpp:408] res4f_res4f_relu_0_split -> res4f_res4f_relu_0_split_1
I1217 18:49:40.498126 17754 net.cpp:150] Setting up res4f_res4f_relu_0_split
I1217 18:49:40.498129 17754 net.cpp:157] Top shape: 2 1024 14 14 (401408)
I1217 18:49:40.498132 17754 net.cpp:157] Top shape: 2 1024 14 14 (401408)
I1217 18:49:40.498134 17754 net.cpp:165] Memory required for data: 441147416
I1217 18:49:40.498137 17754 layer_factory.hpp:77] Creating layer res5a_branch1
I1217 18:49:40.498142 17754 net.cpp:100] Creating Layer res5a_branch1
I1217 18:49:40.498144 17754 net.cpp:434] res5a_branch1 <- res4f_res4f_relu_0_split_0
I1217 18:49:40.498148 17754 net.cpp:408] res5a_branch1 -> res5a_branch1
I1217 18:49:40.501862 17754 net.cpp:150] Setting up res5a_branch1
I1217 18:49:40.501880 17754 net.cpp:157] Top shape: 2 2048 7 7 (200704)
I1217 18:49:40.501883 17754 net.cpp:165] Memory required for data: 441950232
I1217 18:49:40.501888 17754 layer_factory.hpp:77] Creating layer bn5a_branch1
I1217 18:49:40.501898 17754 net.cpp:100] Creating Layer bn5a_branch1
I1217 18:49:40.501901 17754 net.cpp:434] bn5a_branch1 <- res5a_branch1
I1217 18:49:40.501919 17754 net.cpp:395] bn5a_branch1 -> res5a_branch1 (in-place)
I1217 18:49:40.502086 17754 net.cpp:150] Setting up bn5a_branch1
I1217 18:49:40.502091 17754 net.cpp:157] Top shape: 2 2048 7 7 (200704)
I1217 18:49:40.502094 17754 net.cpp:165] Memory required for data: 442753048
I1217 18:49:40.502099 17754 layer_factory.hpp:77] Creating layer scale5a_branch1
I1217 18:49:40.502104 17754 net.cpp:100] Creating Layer scale5a_branch1
I1217 18:49:40.502107 17754 net.cpp:434] scale5a_branch1 <- res5a_branch1
I1217 18:49:40.502110 17754 net.cpp:395] scale5a_branch1 -> res5a_branch1 (in-place)
I1217 18:49:40.502143 17754 layer_factory.hpp:77] Creating layer scale5a_branch1
I1217 18:49:40.502233 17754 net.cpp:150] Setting up scale5a_branch1
I1217 18:49:40.502238 17754 net.cpp:157] Top shape: 2 2048 7 7 (200704)
I1217 18:49:40.502239 17754 net.cpp:165] Memory required for data: 443555864
I1217 18:49:40.502243 17754 layer_factory.hpp:77] Creating layer res5a_branch2a
I1217 18:49:40.502250 17754 net.cpp:100] Creating Layer res5a_branch2a
I1217 18:49:40.502254 17754 net.cpp:434] res5a_branch2a <- res4f_res4f_relu_0_split_1
I1217 18:49:40.502257 17754 net.cpp:408] res5a_branch2a -> res5a_branch2a
I1217 18:49:40.504060 17754 net.cpp:150] Setting up res5a_branch2a
I1217 18:49:40.504070 17754 net.cpp:157] Top shape: 2 512 7 7 (50176)
I1217 18:49:40.504071 17754 net.cpp:165] Memory required for data: 443756568
I1217 18:49:40.504076 17754 layer_factory.hpp:77] Creating layer bn5a_branch2a
I1217 18:49:40.504081 17754 net.cpp:100] Creating Layer bn5a_branch2a
I1217 18:49:40.504083 17754 net.cpp:434] bn5a_branch2a <- res5a_branch2a
I1217 18:49:40.504087 17754 net.cpp:395] bn5a_branch2a -> res5a_branch2a (in-place)
I1217 18:49:40.504240 17754 net.cpp:150] Setting up bn5a_branch2a
I1217 18:49:40.504245 17754 net.cpp:157] Top shape: 2 512 7 7 (50176)
I1217 18:49:40.504247 17754 net.cpp:165] Memory required for data: 443957272
I1217 18:49:40.504251 17754 layer_factory.hpp:77] Creating layer scale5a_branch2a
I1217 18:49:40.504256 17754 net.cpp:100] Creating Layer scale5a_branch2a
I1217 18:49:40.504258 17754 net.cpp:434] scale5a_branch2a <- res5a_branch2a
I1217 18:49:40.504262 17754 net.cpp:395] scale5a_branch2a -> res5a_branch2a (in-place)
I1217 18:49:40.504290 17754 layer_factory.hpp:77] Creating layer scale5a_branch2a
I1217 18:49:40.504377 17754 net.cpp:150] Setting up scale5a_branch2a
I1217 18:49:40.504381 17754 net.cpp:157] Top shape: 2 512 7 7 (50176)
I1217 18:49:40.504384 17754 net.cpp:165] Memory required for data: 444157976
I1217 18:49:40.504387 17754 layer_factory.hpp:77] Creating layer res5a_branch2a_relu
I1217 18:49:40.504391 17754 net.cpp:100] Creating Layer res5a_branch2a_relu
I1217 18:49:40.504395 17754 net.cpp:434] res5a_branch2a_relu <- res5a_branch2a
I1217 18:49:40.504397 17754 net.cpp:395] res5a_branch2a_relu -> res5a_branch2a (in-place)
I1217 18:49:40.504534 17754 net.cpp:150] Setting up res5a_branch2a_relu
I1217 18:49:40.504539 17754 net.cpp:157] Top shape: 2 512 7 7 (50176)
I1217 18:49:40.504541 17754 net.cpp:165] Memory required for data: 444358680
I1217 18:49:40.504544 17754 layer_factory.hpp:77] Creating layer res5a_branch2b
I1217 18:49:40.504550 17754 net.cpp:100] Creating Layer res5a_branch2b
I1217 18:49:40.504552 17754 net.cpp:434] res5a_branch2b <- res5a_branch2a
I1217 18:49:40.504556 17754 net.cpp:408] res5a_branch2b -> res5a_branch2b
I1217 18:49:40.509069 17754 net.cpp:150] Setting up res5a_branch2b
I1217 18:49:40.509094 17754 net.cpp:157] Top shape: 2 512 7 7 (50176)
I1217 18:49:40.509099 17754 net.cpp:165] Memory required for data: 444559384
I1217 18:49:40.509109 17754 layer_factory.hpp:77] Creating layer bn5a_branch2b
I1217 18:49:40.509122 17754 net.cpp:100] Creating Layer bn5a_branch2b
I1217 18:49:40.509130 17754 net.cpp:434] bn5a_branch2b <- res5a_branch2b
I1217 18:49:40.509136 17754 net.cpp:395] bn5a_branch2b -> res5a_branch2b (in-place)
I1217 18:49:40.509325 17754 net.cpp:150] Setting up bn5a_branch2b
I1217 18:49:40.509331 17754 net.cpp:157] Top shape: 2 512 7 7 (50176)
I1217 18:49:40.509347 17754 net.cpp:165] Memory required for data: 444760088
I1217 18:49:40.509353 17754 layer_factory.hpp:77] Creating layer scale5a_branch2b
I1217 18:49:40.509361 17754 net.cpp:100] Creating Layer scale5a_branch2b
I1217 18:49:40.509363 17754 net.cpp:434] scale5a_branch2b <- res5a_branch2b
I1217 18:49:40.509366 17754 net.cpp:395] scale5a_branch2b -> res5a_branch2b (in-place)
I1217 18:49:40.509418 17754 layer_factory.hpp:77] Creating layer scale5a_branch2b
I1217 18:49:40.509521 17754 net.cpp:150] Setting up scale5a_branch2b
I1217 18:49:40.509526 17754 net.cpp:157] Top shape: 2 512 7 7 (50176)
I1217 18:49:40.509528 17754 net.cpp:165] Memory required for data: 444960792
I1217 18:49:40.509532 17754 layer_factory.hpp:77] Creating layer res5a_branch2b_relu
I1217 18:49:40.509537 17754 net.cpp:100] Creating Layer res5a_branch2b_relu
I1217 18:49:40.509539 17754 net.cpp:434] res5a_branch2b_relu <- res5a_branch2b
I1217 18:49:40.509543 17754 net.cpp:395] res5a_branch2b_relu -> res5a_branch2b (in-place)
I1217 18:49:40.509963 17754 net.cpp:150] Setting up res5a_branch2b_relu
I1217 18:49:40.509971 17754 net.cpp:157] Top shape: 2 512 7 7 (50176)
I1217 18:49:40.509974 17754 net.cpp:165] Memory required for data: 445161496
I1217 18:49:40.509976 17754 layer_factory.hpp:77] Creating layer res5a_branch2c
I1217 18:49:40.509984 17754 net.cpp:100] Creating Layer res5a_branch2c
I1217 18:49:40.509986 17754 net.cpp:434] res5a_branch2c <- res5a_branch2b
I1217 18:49:40.509991 17754 net.cpp:408] res5a_branch2c -> res5a_branch2c
I1217 18:49:40.512090 17754 net.cpp:150] Setting up res5a_branch2c
I1217 18:49:40.512104 17754 net.cpp:157] Top shape: 2 2048 7 7 (200704)
I1217 18:49:40.512106 17754 net.cpp:165] Memory required for data: 445964312
I1217 18:49:40.512110 17754 layer_factory.hpp:77] Creating layer bn5a_branch2c
I1217 18:49:40.512116 17754 net.cpp:100] Creating Layer bn5a_branch2c
I1217 18:49:40.512120 17754 net.cpp:434] bn5a_branch2c <- res5a_branch2c
I1217 18:49:40.512123 17754 net.cpp:395] bn5a_branch2c -> res5a_branch2c (in-place)
I1217 18:49:40.512284 17754 net.cpp:150] Setting up bn5a_branch2c
I1217 18:49:40.512290 17754 net.cpp:157] Top shape: 2 2048 7 7 (200704)
I1217 18:49:40.512292 17754 net.cpp:165] Memory required for data: 446767128
I1217 18:49:40.512297 17754 layer_factory.hpp:77] Creating layer scale5a_branch2c
I1217 18:49:40.512302 17754 net.cpp:100] Creating Layer scale5a_branch2c
I1217 18:49:40.512305 17754 net.cpp:434] scale5a_branch2c <- res5a_branch2c
I1217 18:49:40.512307 17754 net.cpp:395] scale5a_branch2c -> res5a_branch2c (in-place)
I1217 18:49:40.512339 17754 layer_factory.hpp:77] Creating layer scale5a_branch2c
I1217 18:49:40.512428 17754 net.cpp:150] Setting up scale5a_branch2c
I1217 18:49:40.512432 17754 net.cpp:157] Top shape: 2 2048 7 7 (200704)
I1217 18:49:40.512434 17754 net.cpp:165] Memory required for data: 447569944
I1217 18:49:40.512439 17754 layer_factory.hpp:77] Creating layer res5a
I1217 18:49:40.512441 17754 net.cpp:100] Creating Layer res5a
I1217 18:49:40.512445 17754 net.cpp:434] res5a <- res5a_branch1
I1217 18:49:40.512449 17754 net.cpp:434] res5a <- res5a_branch2c
I1217 18:49:40.512451 17754 net.cpp:408] res5a -> res5a
I1217 18:49:40.512480 17754 net.cpp:150] Setting up res5a
I1217 18:49:40.512483 17754 net.cpp:157] Top shape: 2 2048 7 7 (200704)
I1217 18:49:40.512485 17754 net.cpp:165] Memory required for data: 448372760
I1217 18:49:40.512488 17754 layer_factory.hpp:77] Creating layer res5a_relu
I1217 18:49:40.512491 17754 net.cpp:100] Creating Layer res5a_relu
I1217 18:49:40.512493 17754 net.cpp:434] res5a_relu <- res5a
I1217 18:49:40.512496 17754 net.cpp:395] res5a_relu -> res5a (in-place)
I1217 18:49:40.512626 17754 net.cpp:150] Setting up res5a_relu
I1217 18:49:40.512632 17754 net.cpp:157] Top shape: 2 2048 7 7 (200704)
I1217 18:49:40.512634 17754 net.cpp:165] Memory required for data: 449175576
I1217 18:49:40.512636 17754 layer_factory.hpp:77] Creating layer res5a_res5a_relu_0_split
I1217 18:49:40.512641 17754 net.cpp:100] Creating Layer res5a_res5a_relu_0_split
I1217 18:49:40.512652 17754 net.cpp:434] res5a_res5a_relu_0_split <- res5a
I1217 18:49:40.512656 17754 net.cpp:408] res5a_res5a_relu_0_split -> res5a_res5a_relu_0_split_0
I1217 18:49:40.512661 17754 net.cpp:408] res5a_res5a_relu_0_split -> res5a_res5a_relu_0_split_1
I1217 18:49:40.512693 17754 net.cpp:150] Setting up res5a_res5a_relu_0_split
I1217 18:49:40.512697 17754 net.cpp:157] Top shape: 2 2048 7 7 (200704)
I1217 18:49:40.512701 17754 net.cpp:157] Top shape: 2 2048 7 7 (200704)
I1217 18:49:40.512702 17754 net.cpp:165] Memory required for data: 450781208
I1217 18:49:40.512704 17754 layer_factory.hpp:77] Creating layer res5b_branch2a
I1217 18:49:40.512711 17754 net.cpp:100] Creating Layer res5b_branch2a
I1217 18:49:40.512712 17754 net.cpp:434] res5b_branch2a <- res5a_res5a_relu_0_split_0
I1217 18:49:40.512717 17754 net.cpp:408] res5b_branch2a -> res5b_branch2a
I1217 18:49:40.514901 17754 net.cpp:150] Setting up res5b_branch2a
I1217 18:49:40.514914 17754 net.cpp:157] Top shape: 2 512 7 7 (50176)
I1217 18:49:40.514916 17754 net.cpp:165] Memory required for data: 450981912
I1217 18:49:40.514921 17754 layer_factory.hpp:77] Creating layer bn5b_branch2a
I1217 18:49:40.514928 17754 net.cpp:100] Creating Layer bn5b_branch2a
I1217 18:49:40.514931 17754 net.cpp:434] bn5b_branch2a <- res5b_branch2a
I1217 18:49:40.514936 17754 net.cpp:395] bn5b_branch2a -> res5b_branch2a (in-place)
I1217 18:49:40.515095 17754 net.cpp:150] Setting up bn5b_branch2a
I1217 18:49:40.515100 17754 net.cpp:157] Top shape: 2 512 7 7 (50176)
I1217 18:49:40.515102 17754 net.cpp:165] Memory required for data: 451182616
I1217 18:49:40.515107 17754 layer_factory.hpp:77] Creating layer scale5b_branch2a
I1217 18:49:40.515112 17754 net.cpp:100] Creating Layer scale5b_branch2a
I1217 18:49:40.515115 17754 net.cpp:434] scale5b_branch2a <- res5b_branch2a
I1217 18:49:40.515118 17754 net.cpp:395] scale5b_branch2a -> res5b_branch2a (in-place)
I1217 18:49:40.515148 17754 layer_factory.hpp:77] Creating layer scale5b_branch2a
I1217 18:49:40.515238 17754 net.cpp:150] Setting up scale5b_branch2a
I1217 18:49:40.515242 17754 net.cpp:157] Top shape: 2 512 7 7 (50176)
I1217 18:49:40.515244 17754 net.cpp:165] Memory required for data: 451383320
I1217 18:49:40.515249 17754 layer_factory.hpp:77] Creating layer res5b_branch2a_relu
I1217 18:49:40.515252 17754 net.cpp:100] Creating Layer res5b_branch2a_relu
I1217 18:49:40.515254 17754 net.cpp:434] res5b_branch2a_relu <- res5b_branch2a
I1217 18:49:40.515257 17754 net.cpp:395] res5b_branch2a_relu -> res5b_branch2a (in-place)
I1217 18:49:40.515386 17754 net.cpp:150] Setting up res5b_branch2a_relu
I1217 18:49:40.515393 17754 net.cpp:157] Top shape: 2 512 7 7 (50176)
I1217 18:49:40.515394 17754 net.cpp:165] Memory required for data: 451584024
I1217 18:49:40.515396 17754 layer_factory.hpp:77] Creating layer res5b_branch2b
I1217 18:49:40.515403 17754 net.cpp:100] Creating Layer res5b_branch2b
I1217 18:49:40.515406 17754 net.cpp:434] res5b_branch2b <- res5b_branch2a
I1217 18:49:40.515409 17754 net.cpp:408] res5b_branch2b -> res5b_branch2b
I1217 18:49:40.520042 17754 net.cpp:150] Setting up res5b_branch2b
I1217 18:49:40.520059 17754 net.cpp:157] Top shape: 2 512 7 7 (50176)
I1217 18:49:40.520062 17754 net.cpp:165] Memory required for data: 451784728
I1217 18:49:40.520068 17754 layer_factory.hpp:77] Creating layer bn5b_branch2b
I1217 18:49:40.520076 17754 net.cpp:100] Creating Layer bn5b_branch2b
I1217 18:49:40.520081 17754 net.cpp:434] bn5b_branch2b <- res5b_branch2b
I1217 18:49:40.520087 17754 net.cpp:395] bn5b_branch2b -> res5b_branch2b (in-place)
I1217 18:49:40.520257 17754 net.cpp:150] Setting up bn5b_branch2b
I1217 18:49:40.520262 17754 net.cpp:157] Top shape: 2 512 7 7 (50176)
I1217 18:49:40.520264 17754 net.cpp:165] Memory required for data: 451985432
I1217 18:49:40.520269 17754 layer_factory.hpp:77] Creating layer scale5b_branch2b
I1217 18:49:40.520275 17754 net.cpp:100] Creating Layer scale5b_branch2b
I1217 18:49:40.520277 17754 net.cpp:434] scale5b_branch2b <- res5b_branch2b
I1217 18:49:40.520282 17754 net.cpp:395] scale5b_branch2b -> res5b_branch2b (in-place)
I1217 18:49:40.520328 17754 layer_factory.hpp:77] Creating layer scale5b_branch2b
I1217 18:49:40.520442 17754 net.cpp:150] Setting up scale5b_branch2b
I1217 18:49:40.520447 17754 net.cpp:157] Top shape: 2 512 7 7 (50176)
I1217 18:49:40.520449 17754 net.cpp:165] Memory required for data: 452186136
I1217 18:49:40.520453 17754 layer_factory.hpp:77] Creating layer res5b_branch2b_relu
I1217 18:49:40.520457 17754 net.cpp:100] Creating Layer res5b_branch2b_relu
I1217 18:49:40.520459 17754 net.cpp:434] res5b_branch2b_relu <- res5b_branch2b
I1217 18:49:40.520463 17754 net.cpp:395] res5b_branch2b_relu -> res5b_branch2b (in-place)
I1217 18:49:40.520597 17754 net.cpp:150] Setting up res5b_branch2b_relu
I1217 18:49:40.520603 17754 net.cpp:157] Top shape: 2 512 7 7 (50176)
I1217 18:49:40.520606 17754 net.cpp:165] Memory required for data: 452386840
I1217 18:49:40.520608 17754 layer_factory.hpp:77] Creating layer res5b_branch2c
I1217 18:49:40.520615 17754 net.cpp:100] Creating Layer res5b_branch2c
I1217 18:49:40.520618 17754 net.cpp:434] res5b_branch2c <- res5b_branch2b
I1217 18:49:40.520622 17754 net.cpp:408] res5b_branch2c -> res5b_branch2c
I1217 18:49:40.522718 17754 net.cpp:150] Setting up res5b_branch2c
I1217 18:49:40.522730 17754 net.cpp:157] Top shape: 2 2048 7 7 (200704)
I1217 18:49:40.522732 17754 net.cpp:165] Memory required for data: 453189656
I1217 18:49:40.522737 17754 layer_factory.hpp:77] Creating layer bn5b_branch2c
I1217 18:49:40.522742 17754 net.cpp:100] Creating Layer bn5b_branch2c
I1217 18:49:40.522744 17754 net.cpp:434] bn5b_branch2c <- res5b_branch2c
I1217 18:49:40.522749 17754 net.cpp:395] bn5b_branch2c -> res5b_branch2c (in-place)
I1217 18:49:40.522912 17754 net.cpp:150] Setting up bn5b_branch2c
I1217 18:49:40.522927 17754 net.cpp:157] Top shape: 2 2048 7 7 (200704)
I1217 18:49:40.522929 17754 net.cpp:165] Memory required for data: 453992472
I1217 18:49:40.522935 17754 layer_factory.hpp:77] Creating layer scale5b_branch2c
I1217 18:49:40.522940 17754 net.cpp:100] Creating Layer scale5b_branch2c
I1217 18:49:40.522943 17754 net.cpp:434] scale5b_branch2c <- res5b_branch2c
I1217 18:49:40.522946 17754 net.cpp:395] scale5b_branch2c -> res5b_branch2c (in-place)
I1217 18:49:40.522987 17754 layer_factory.hpp:77] Creating layer scale5b_branch2c
I1217 18:49:40.523079 17754 net.cpp:150] Setting up scale5b_branch2c
I1217 18:49:40.523084 17754 net.cpp:157] Top shape: 2 2048 7 7 (200704)
I1217 18:49:40.523087 17754 net.cpp:165] Memory required for data: 454795288
I1217 18:49:40.523090 17754 layer_factory.hpp:77] Creating layer res5b
I1217 18:49:40.523094 17754 net.cpp:100] Creating Layer res5b
I1217 18:49:40.523097 17754 net.cpp:434] res5b <- res5a_res5a_relu_0_split_1
I1217 18:49:40.523099 17754 net.cpp:434] res5b <- res5b_branch2c
I1217 18:49:40.523103 17754 net.cpp:408] res5b -> res5b
I1217 18:49:40.523133 17754 net.cpp:150] Setting up res5b
I1217 18:49:40.523138 17754 net.cpp:157] Top shape: 2 2048 7 7 (200704)
I1217 18:49:40.523139 17754 net.cpp:165] Memory required for data: 455598104
I1217 18:49:40.523141 17754 layer_factory.hpp:77] Creating layer res5b_relu
I1217 18:49:40.523145 17754 net.cpp:100] Creating Layer res5b_relu
I1217 18:49:40.523149 17754 net.cpp:434] res5b_relu <- res5b
I1217 18:49:40.523150 17754 net.cpp:395] res5b_relu -> res5b (in-place)
I1217 18:49:40.523279 17754 net.cpp:150] Setting up res5b_relu
I1217 18:49:40.523285 17754 net.cpp:157] Top shape: 2 2048 7 7 (200704)
I1217 18:49:40.523288 17754 net.cpp:165] Memory required for data: 456400920
I1217 18:49:40.523289 17754 layer_factory.hpp:77] Creating layer res5b_res5b_relu_0_split
I1217 18:49:40.523294 17754 net.cpp:100] Creating Layer res5b_res5b_relu_0_split
I1217 18:49:40.523296 17754 net.cpp:434] res5b_res5b_relu_0_split <- res5b
I1217 18:49:40.523300 17754 net.cpp:408] res5b_res5b_relu_0_split -> res5b_res5b_relu_0_split_0
I1217 18:49:40.523304 17754 net.cpp:408] res5b_res5b_relu_0_split -> res5b_res5b_relu_0_split_1
I1217 18:49:40.523335 17754 net.cpp:150] Setting up res5b_res5b_relu_0_split
I1217 18:49:40.523339 17754 net.cpp:157] Top shape: 2 2048 7 7 (200704)
I1217 18:49:40.523351 17754 net.cpp:157] Top shape: 2 2048 7 7 (200704)
I1217 18:49:40.523353 17754 net.cpp:165] Memory required for data: 458006552
I1217 18:49:40.523355 17754 layer_factory.hpp:77] Creating layer res5c_branch2a
I1217 18:49:40.523362 17754 net.cpp:100] Creating Layer res5c_branch2a
I1217 18:49:40.523365 17754 net.cpp:434] res5c_branch2a <- res5b_res5b_relu_0_split_0
I1217 18:49:40.523370 17754 net.cpp:408] res5c_branch2a -> res5c_branch2a
I1217 18:49:40.525558 17754 net.cpp:150] Setting up res5c_branch2a
I1217 18:49:40.525571 17754 net.cpp:157] Top shape: 2 512 7 7 (50176)
I1217 18:49:40.525574 17754 net.cpp:165] Memory required for data: 458207256
I1217 18:49:40.525579 17754 layer_factory.hpp:77] Creating layer bn5c_branch2a
I1217 18:49:40.525588 17754 net.cpp:100] Creating Layer bn5c_branch2a
I1217 18:49:40.525591 17754 net.cpp:434] bn5c_branch2a <- res5c_branch2a
I1217 18:49:40.525595 17754 net.cpp:395] bn5c_branch2a -> res5c_branch2a (in-place)
I1217 18:49:40.525763 17754 net.cpp:150] Setting up bn5c_branch2a
I1217 18:49:40.525768 17754 net.cpp:157] Top shape: 2 512 7 7 (50176)
I1217 18:49:40.525770 17754 net.cpp:165] Memory required for data: 458407960
I1217 18:49:40.525775 17754 layer_factory.hpp:77] Creating layer scale5c_branch2a
I1217 18:49:40.525781 17754 net.cpp:100] Creating Layer scale5c_branch2a
I1217 18:49:40.525784 17754 net.cpp:434] scale5c_branch2a <- res5c_branch2a
I1217 18:49:40.525787 17754 net.cpp:395] scale5c_branch2a -> res5c_branch2a (in-place)
I1217 18:49:40.525820 17754 layer_factory.hpp:77] Creating layer scale5c_branch2a
I1217 18:49:40.525915 17754 net.cpp:150] Setting up scale5c_branch2a
I1217 18:49:40.525919 17754 net.cpp:157] Top shape: 2 512 7 7 (50176)
I1217 18:49:40.525921 17754 net.cpp:165] Memory required for data: 458608664
I1217 18:49:40.525925 17754 layer_factory.hpp:77] Creating layer res5c_branch2a_relu
I1217 18:49:40.525930 17754 net.cpp:100] Creating Layer res5c_branch2a_relu
I1217 18:49:40.525933 17754 net.cpp:434] res5c_branch2a_relu <- res5c_branch2a
I1217 18:49:40.525935 17754 net.cpp:395] res5c_branch2a_relu -> res5c_branch2a (in-place)
I1217 18:49:40.526067 17754 net.cpp:150] Setting up res5c_branch2a_relu
I1217 18:49:40.526072 17754 net.cpp:157] Top shape: 2 512 7 7 (50176)
I1217 18:49:40.526075 17754 net.cpp:165] Memory required for data: 458809368
I1217 18:49:40.526077 17754 layer_factory.hpp:77] Creating layer res5c_branch2b
I1217 18:49:40.526084 17754 net.cpp:100] Creating Layer res5c_branch2b
I1217 18:49:40.526087 17754 net.cpp:434] res5c_branch2b <- res5c_branch2a
I1217 18:49:40.526091 17754 net.cpp:408] res5c_branch2b -> res5c_branch2b
I1217 18:49:40.530542 17754 net.cpp:150] Setting up res5c_branch2b
I1217 18:49:40.530560 17754 net.cpp:157] Top shape: 2 512 7 7 (50176)
I1217 18:49:40.530563 17754 net.cpp:165] Memory required for data: 459010072
I1217 18:49:40.530570 17754 layer_factory.hpp:77] Creating layer bn5c_branch2b
I1217 18:49:40.530577 17754 net.cpp:100] Creating Layer bn5c_branch2b
I1217 18:49:40.530581 17754 net.cpp:434] bn5c_branch2b <- res5c_branch2b
I1217 18:49:40.530586 17754 net.cpp:395] bn5c_branch2b -> res5c_branch2b (in-place)
I1217 18:49:40.530761 17754 net.cpp:150] Setting up bn5c_branch2b
I1217 18:49:40.530766 17754 net.cpp:157] Top shape: 2 512 7 7 (50176)
I1217 18:49:40.530768 17754 net.cpp:165] Memory required for data: 459210776
I1217 18:49:40.530773 17754 layer_factory.hpp:77] Creating layer scale5c_branch2b
I1217 18:49:40.530779 17754 net.cpp:100] Creating Layer scale5c_branch2b
I1217 18:49:40.530782 17754 net.cpp:434] scale5c_branch2b <- res5c_branch2b
I1217 18:49:40.530786 17754 net.cpp:395] scale5c_branch2b -> res5c_branch2b (in-place)
I1217 18:49:40.530822 17754 layer_factory.hpp:77] Creating layer scale5c_branch2b
I1217 18:49:40.530917 17754 net.cpp:150] Setting up scale5c_branch2b
I1217 18:49:40.530921 17754 net.cpp:157] Top shape: 2 512 7 7 (50176)
I1217 18:49:40.530923 17754 net.cpp:165] Memory required for data: 459411480
I1217 18:49:40.530927 17754 layer_factory.hpp:77] Creating layer res5c_branch2b_relu
I1217 18:49:40.530946 17754 net.cpp:100] Creating Layer res5c_branch2b_relu
I1217 18:49:40.530947 17754 net.cpp:434] res5c_branch2b_relu <- res5c_branch2b
I1217 18:49:40.530951 17754 net.cpp:395] res5c_branch2b_relu -> res5c_branch2b (in-place)
I1217 18:49:40.531378 17754 net.cpp:150] Setting up res5c_branch2b_relu
I1217 18:49:40.531388 17754 net.cpp:157] Top shape: 2 512 7 7 (50176)
I1217 18:49:40.531390 17754 net.cpp:165] Memory required for data: 459612184
I1217 18:49:40.531392 17754 layer_factory.hpp:77] Creating layer res5c_branch2c
I1217 18:49:40.531400 17754 net.cpp:100] Creating Layer res5c_branch2c
I1217 18:49:40.531404 17754 net.cpp:434] res5c_branch2c <- res5c_branch2b
I1217 18:49:40.531409 17754 net.cpp:408] res5c_branch2c -> res5c_branch2c
I1217 18:49:40.533538 17754 net.cpp:150] Setting up res5c_branch2c
I1217 18:49:40.533550 17754 net.cpp:157] Top shape: 2 2048 7 7 (200704)
I1217 18:49:40.533553 17754 net.cpp:165] Memory required for data: 460415000
I1217 18:49:40.533557 17754 layer_factory.hpp:77] Creating layer bn5c_branch2c
I1217 18:49:40.533563 17754 net.cpp:100] Creating Layer bn5c_branch2c
I1217 18:49:40.533566 17754 net.cpp:434] bn5c_branch2c <- res5c_branch2c
I1217 18:49:40.533571 17754 net.cpp:395] bn5c_branch2c -> res5c_branch2c (in-place)
I1217 18:49:40.533736 17754 net.cpp:150] Setting up bn5c_branch2c
I1217 18:49:40.533741 17754 net.cpp:157] Top shape: 2 2048 7 7 (200704)
I1217 18:49:40.533743 17754 net.cpp:165] Memory required for data: 461217816
I1217 18:49:40.533749 17754 layer_factory.hpp:77] Creating layer scale5c_branch2c
I1217 18:49:40.533753 17754 net.cpp:100] Creating Layer scale5c_branch2c
I1217 18:49:40.533756 17754 net.cpp:434] scale5c_branch2c <- res5c_branch2c
I1217 18:49:40.533759 17754 net.cpp:395] scale5c_branch2c -> res5c_branch2c (in-place)
I1217 18:49:40.533794 17754 layer_factory.hpp:77] Creating layer scale5c_branch2c
I1217 18:49:40.533890 17754 net.cpp:150] Setting up scale5c_branch2c
I1217 18:49:40.533895 17754 net.cpp:157] Top shape: 2 2048 7 7 (200704)
I1217 18:49:40.533896 17754 net.cpp:165] Memory required for data: 462020632
I1217 18:49:40.533900 17754 layer_factory.hpp:77] Creating layer res5c
I1217 18:49:40.533905 17754 net.cpp:100] Creating Layer res5c
I1217 18:49:40.533906 17754 net.cpp:434] res5c <- res5b_res5b_relu_0_split_1
I1217 18:49:40.533910 17754 net.cpp:434] res5c <- res5c_branch2c
I1217 18:49:40.533912 17754 net.cpp:408] res5c -> res5c
I1217 18:49:40.533943 17754 net.cpp:150] Setting up res5c
I1217 18:49:40.533947 17754 net.cpp:157] Top shape: 2 2048 7 7 (200704)
I1217 18:49:40.533949 17754 net.cpp:165] Memory required for data: 462823448
I1217 18:49:40.533951 17754 layer_factory.hpp:77] Creating layer res5c_relu
I1217 18:49:40.533955 17754 net.cpp:100] Creating Layer res5c_relu
I1217 18:49:40.533957 17754 net.cpp:434] res5c_relu <- res5c
I1217 18:49:40.533962 17754 net.cpp:395] res5c_relu -> res5c (in-place)
I1217 18:49:40.534093 17754 net.cpp:150] Setting up res5c_relu
I1217 18:49:40.534099 17754 net.cpp:157] Top shape: 2 2048 7 7 (200704)
I1217 18:49:40.534101 17754 net.cpp:165] Memory required for data: 463626264
I1217 18:49:40.534104 17754 layer_factory.hpp:77] Creating layer pool5
I1217 18:49:40.534111 17754 net.cpp:100] Creating Layer pool5
I1217 18:49:40.534113 17754 net.cpp:434] pool5 <- res5c
I1217 18:49:40.534117 17754 net.cpp:408] pool5 -> pool5
I1217 18:49:40.534260 17754 net.cpp:150] Setting up pool5
I1217 18:49:40.534266 17754 net.cpp:157] Top shape: 2 2048 1 1 (4096)
I1217 18:49:40.534268 17754 net.cpp:165] Memory required for data: 463642648
I1217 18:49:40.534271 17754 layer_factory.hpp:77] Creating layer pool5/dropout
I1217 18:49:40.534276 17754 net.cpp:100] Creating Layer pool5/dropout
I1217 18:49:40.534277 17754 net.cpp:434] pool5/dropout <- pool5
I1217 18:49:40.534281 17754 net.cpp:395] pool5/dropout -> pool5 (in-place)
I1217 18:49:40.534303 17754 net.cpp:150] Setting up pool5/dropout
I1217 18:49:40.534307 17754 net.cpp:157] Top shape: 2 2048 1 1 (4096)
I1217 18:49:40.534309 17754 net.cpp:165] Memory required for data: 463659032
I1217 18:49:40.534319 17754 layer_factory.hpp:77] Creating layer fc9
I1217 18:49:40.534330 17754 net.cpp:100] Creating Layer fc9
I1217 18:49:40.534333 17754 net.cpp:434] fc9 <- pool5
I1217 18:49:40.534337 17754 net.cpp:408] fc9 -> fc9
I1217 18:49:40.534808 17754 net.cpp:150] Setting up fc9
I1217 18:49:40.534814 17754 net.cpp:157] Top shape: 2 9 (18)
I1217 18:49:40.534816 17754 net.cpp:165] Memory required for data: 463659104
I1217 18:49:40.534821 17754 layer_factory.hpp:77] Creating layer fc9_fc9_0_split
I1217 18:49:40.534823 17754 net.cpp:100] Creating Layer fc9_fc9_0_split
I1217 18:49:40.534826 17754 net.cpp:434] fc9_fc9_0_split <- fc9
I1217 18:49:40.534831 17754 net.cpp:408] fc9_fc9_0_split -> fc9_fc9_0_split_0
I1217 18:49:40.534834 17754 net.cpp:408] fc9_fc9_0_split -> fc9_fc9_0_split_1
I1217 18:49:40.534862 17754 net.cpp:150] Setting up fc9_fc9_0_split
I1217 18:49:40.534867 17754 net.cpp:157] Top shape: 2 9 (18)
I1217 18:49:40.534869 17754 net.cpp:157] Top shape: 2 9 (18)
I1217 18:49:40.534871 17754 net.cpp:165] Memory required for data: 463659248
I1217 18:49:40.534873 17754 layer_factory.hpp:77] Creating layer accuracy
I1217 18:49:40.534880 17754 net.cpp:100] Creating Layer accuracy
I1217 18:49:40.534883 17754 net.cpp:434] accuracy <- fc9_fc9_0_split_0
I1217 18:49:40.534886 17754 net.cpp:434] accuracy <- label_data_1_split_0
I1217 18:49:40.534889 17754 net.cpp:408] accuracy -> accuracy
…
